eeg_online/lightning_logs/lee_source/version_10/checkpoints/epoch=99-step=8300.ckpt (torch, 63818 bytes, 50 tensors)

model.input_block.1.weight f4 [40, 1, 1, 25]
0	0x3e3b7c82	0.18309215
1	0x3eaa0f44	0.33214772
2	0x3d48bc55	0.049007732
3	0x3cae5cd7	0.021284504
4	0x3d01e952	0.031716652
5	0x3dd22a39	0.102619596
6	0xbb99dd13	-0.0046955436
7	0x3e00c2d2	0.12574318
8	0xbd8062eb	-0.06268867
9	0x3c6d39c3	0.0144791035
10	0xbd9af01e	-0.0756533
11	0xbc9068e5	-0.017628143
12	0xbe02150a	-0.12703338
13	0xbd019ba6	-0.03164258
14	0x3d1ed0cc	0.038773343
15	0x3e027d6b	0.12743156
16	0x3e36d2fe	0.17853925
17	0x3e415c58	0.18882883
18	0xbdc047d4	-0.093887
19	0xbd5e85fe	-0.054327004
20	0x3dff86a4	0.124768525
21	0x3e87766e	0.26457542
22	0x3debf079	0.11520476
23	0x3eb3e690	0.35136843
24	0x3e39991f	0.18124817
25	0xbd4740d5	-0.048645813
26	0x3d484d3c	0.04890178
27	0xbeb39ac4	-0.35079014
28	0xbe964eb1	-0.29356912
29	0xbe48b2ce	-0.19599459
30	0xbe40f532	-0.18843535
31	0x3dc47135	0.09591905
32	0xbe3bffd6	-0.18359312
33	0xbe0b1ae4	-0.13584477
34	0xbe3844cf	-0.17994998
35	0xbe62c3ae	-0.22144958
36	0xbe0aa752	-0.1354039
37	0x3e37a27c	0.17933077
38	0x3e021bc4	0.12705904
39	0x3e232de4	0.15935475
40	0x3da78bbe	0.081809506
41	0xbd307a55	-0.043085415
42	0x3d818508	0.06324202
43	0xbe490f11	-0.19634654
44	0xbe445eae	-0.19176742
45	0xbe364360	-0.17799139
46	0x3d220ebe	0.03956484
47	0x3d0ff862	0.035148986
48	0xbe20af92	-0.15691975
49	0xbd82307f	-0.06356906
50	0x3ea5e4b6	0.32401055
51	0x3ead3384	0.33828366
52	0x3e1d1dd5	0.15343411
53	0x3d302071	0.04299969
54	0x3dea1747	0.11430221
55	0xbe1418a2	-0.14462522
56	0x3ced525a	0.028969932
57	0xbe041327	-0.12897931
58	0xbd9a59e5	-0.07536677
59	0xbc54dd90	-0.012992278
60	0x3e429a14	0.19004089
61	0x3e2f8691	0.17141177
62	0xbd420c13	-0.047374796
63	0x3de34cc8	0.11098629
64	0x3e153562	0.14571145
65	0x3b96b08d	0.004598683
66	0x3d1c8d9b	0.038220983
67	0x3da48990	0.080340505
68	0x3e2298e4	0.15878636
69	0x3e606803	0.21914677
70	0xbe17a3b9	-0.14808549
71	0xbdd54c92	-0.10414995
72	0xbaed08f2	-0.0018084331
73	0x3ce2fe6e	0.027709212
74	0xbcd9ee7d	-0.026602978
75	0xbdd8e643	-0.10590794
76	0xbe5349f1	-0.20633675
77	0xbeb92dd7	-0.36167786
78	0xbdd3b8fc	-0.10338017
79	0xbe440b5f	-0.19144963
80	0xbe620432	-0.22071913
81	0x3e1bbe88	0.152094
82	0x3df5195a	0.11967726
83	0xbe7a463c	-0.24440855
84	0xbc90ad6e	-0.017660823
85	0xbdbbc236	-0.09167902
86	0xbdb1a177	-0.08673375
87	0xbe0cdcf7	-0.13756166
88	0x3d20c381	0.039248947
89	0xbe1c07a5	-0.15237291
90	0x3d1076a9	0.035269413
91	0x3d4c4fcb	0.049880784
92	0x3d93b46f	0.07212149
93	0xbc88ac79	-0.016683804
94	0xbe9b014b	-0.30274424
95	0xbe6f5c70	-0.23375106
96	0x3c79a4ff	0.015237092
97	0x38c91ddd	9.589989e-05
98	0xbe07d810	-0.13266015
99	0xbc624e96	-0.013812682
100	0x3e7f1997	0.24912106
101	0x3e451253	0.19245271
102	0xbd1d9b59	-0.03847823
103	0xbc7adfc1	-0.015312136
104	0xbe2e15e9	-0.17000546
105	0x3c10d643	0.0088401465
106	0xbe0869c6	-0.133216
107	0xbdf2bb60	-0.11852145
108	0x3d474ed7	0.048659172
109	0x3dd8e574	0.1059064
110	0xbc00a421	-0.007851631
111	0x3e2de227	0.16980802
112	0xbde3b7ca	-0.11119039
113	0x3e13eb5e	0.14445254
114	0x3d7eab9b	0.062175374
115	0xbe84ba3b	-0.25923333
116	0xbe053b8e	-0.13011
117	0xbd2385e9	-0.03992263
118	0x3cadbecf	0.021209149
119	0x3d97b2e1	0.07407165
120	0x3df35252	0.11880936
121	0x3d14517f	0.036210533
122	0xbdf5a7f2	-0.11994924
123	0x3bcaad6e	0.006185225
124	0xbeb1fae3	-0.34761724
125	0x3dd1a10e	0.10235797
126	0x3d68ac30	0.056804836
127	0xbdbe7991	-0.09300531
128	0xbe0fe2b8	-0.1405133
129	0xbe8aff1c	-0.27147758
130	0xbe191387	-0.14948855
131	0xbd1d13e2	-0.03834904
132	0xbe364bdc	-0.17802376
133	0xbd0632de	-0.032763354
134	0x3e02f7ea	0.12789884
135	0xbd518cf1	-0.051159803
136	0xbd7cb2db	-0.061694007
137	0xbe098dfe	-0.13433072
138	0xbe00e852	-0.12588623
139	0xbd90c446	-0.07068686
140	0xbc250188	-0.010071166
141	0xbd23cd01	-0.03999043
142	0x3da919c3	0.08256867
143	0xbd59a74c	-0.053138062
144	0xbe266812	-0.16250637
145	0xbd522993	-0.05130918
146	0x3e2d8cee	0.16948292
147	0xbc7b23ac	-0.015328329
148	0xbe42e06f	-0.19030927
149	0xbeaaa9dc	-0.33332717
150	0xbeb26a2d	-0.3484663
151	0xbe6258fb	-0.22104256
152	0x3b8867eb	0.0041627786
153	0x3e69356c	0.22774285
154	0x3e877bc0	0.264616
155	0xbd119b6a	-0.035548605
156	0x3e809096	0.2511031
157	0xbda310fd	-0.07962225
158	0xbc78bcfe	-0.015181778
159	0xbdb34bac	-0.08754668
160	0xbd5ceb03	-0.053935062
161	0xbd2348d0	-0.03986436
162	0xbe198ba0	-0.14994669
163	0xbde5fed1	-0.11230243
164	0x3d42e887	0.047585037
165	0x3da27149	0.07931764
166	0xbd194ab7	-0.03742477
167	0x3dbb4a4f	0.091450326
168	0xbe4fda2a	-0.20298067
169	0xbd835dba	-0.06414361
170	0x3df1b007	0.11801153
171	0xbdfcb779	-0.12339682
172	0x3e34c43c	0.17652982
173	0x3df9188f	0.12162887
174	0xbd93e588	-0.07221514
175	0xbdcbdda3	-0.09954383
176	0xbe308558	-0.17238367
177	0xbe1789af	-0.14798616
178	0x3e3a3519	0.18184318
179	0xbdb361e9	-0.08758909
180	0x3de09da7	0.1096757
181	0x3cd6c693	0.026217734
182	0x3e2cc84f	0.16873287
183	0x3d0b9e00	0.034086227
184	0x3d174dd4	0.036939457
185	0xbbca457a	-0.006172833
186	0xbdfdbab5	-0.12389127
187	0xbdd93f0b	-0.106077276
188	0xbe5d8a5e	-0.21634814
189	0x3d7eedd2	0.062238522
190	0x3ddc232f	0.10748898
191	0x3d9073fb	0.070533715
192	0xbe6a336f	-0.22871183
193	0xbdce31aa	-0.100680664
194	0xbe8929cf	-0.2678971
195	0xbe7ccaf6	-0.24686798
196	0xbe8016a8	-0.25017285
197	0xbd2bb7c9	-0.041923318
198	0xbe37c023	-0.17944388
199	0x3c3b6c6f	0.011439427
200	0x3d17f0f2	0.037095018
201	0x3de21a76	0.11040203
202	0xbe54d9df	-0.20786236
203	0xbe623e01	-0.22093965
204	0xbe5dfa11	-0.21677424
205	0x3cffe689	0.031237857
206	0xbe37f315	-0.17963822
207	0x3d8f1ae7	0.06987553
208	0xbc320366	-0.010865068
209	0xbd1447c5	-0.036201257
210	0xbd13936c	-0.036029264
211	0xbd380625	-0.044927735
212	0x3d37ac8c	0.044842288
213	0xbc46ef8a	-0.0121420715
214	0x3cdba4ba	0.026811946
215	0x3cdf5eff	0.027266977
216	0xbe469bb4	-0.19395334
217	0xbe379f78	-0.17931926
218	0x3d86d34c	0.065832704
219	0xbe81871e	-0.252984
220	0xbd8d0c35	-0.06887094
221	0x3e52039f	0.20509194
222	0x3e1cbaa7	0.15305577
223	0x3e233e91	0.15941836
224	0x3d2eb97c	0.04265736
225	0x3ce5676e	0.02800342
226	0xbe7d8cf9	-0.24760808
227	0xbe383da3	-0.17992263
228	0xbe49d368	-0.19709551
229	0xbe239b72	-0.15977266
230	0xbdf84372	-0.12122239
231	0x3d67b74d	0.056571294
232	0xbd86f137	-0.06588977
233	0x3dd3162e	0.10306965
234	0x3d732966	0.059365653
235	0xbe34462d	-0.17604895
236	0x3d5068eb	0.050881308
237	0xbe33188e	-0.17489836
238	0xbdf0c4b6	-0.1175627
239	0x3cbf7d1c	0.023375086
240	0x3cd7c015	0.026336709
241	0x3dd8d655	0.105877556
242	0xbde1fd0a	-0.110345915
243	0xbd2c05d2	-0.04199774
244	0x3d8dfd9d	0.069331385
245	0xbe5c7369	-0.215284
246	0x3e0964cb	0.13417356
247	0xbe2905c3	-0.16506104
248	0x3c4dd9a0	0.012564093
249	0xbc7a55ad	-0.015279216
250	0xbeca9baa	-0.39571887
251	0xbe34bead	-0.17650862
252	0x3d7ae09e	0.061249368
253	0xbd92b174	-0.07162753
254	0xbd80ec59	-0.0629508
255	0x3c95a6de	0.018268045

model.input_block.2.weight f4 [40]
0	0x3f8d414c	1.1035552
1	0x3f90c122	1.130894
2	0x3f85c2bf	1.0450057
3	0x3f8eb9c6	1.1150444
4	0x3f838177	1.0273885
5	0x3f84088c	1.0315108
6	0x3f840583	1.0314182
7	0x3f8a114d	1.078653
8	0x3f8288df	1.019802
9	0x3f8147ac	1.0099998
10	0x3f872cdf	1.0560569
11	0x3f9374d6	1.152003
12	0x3f94d727	1.1628159
13	0x3f8dc0c6	1.1074455
14	0x3f81d171	1.0142041
15	0x3f89f163	1.077679
16	0x3f90622d	1.1279961
17	0x3f8c22c0	1.0948105
18	0x3f864e3c	1.0492625
19	0x3f8328f5	1.0246874
20	0x3f755e24	0.9584677
21	0x3f7e93c2	0.9944421
22	0x3f869b0a	1.0516064
23	0x3f885d4b	1.0653471
24	0x3f806296	1.0030086
25	0x3f73b576	0.9519876
26	0x3f8a9609	1.0827037
27	0x3f7768a5	0.9664405
28	0x3f85a579	1.0441123
29	0x3f9d410a	1.2285473
30	0x3f9178f0	1.1365032
31	0x3f721d5c	0.9457605
32	0x3f929dd9	1.1454421
33	0x3f85dedb	1.0458635
34	0x3f8872c8	1.0660028
35	0x3f84dacc	1.0379272
36	0x3f6ddfe6	0.92919767
37	0x3f86dfce	1.053705
38	0x3fa15bfa	1.2606194
39	0x3f89ac81	1.0755769

model.input_block.2.bias f4 [40]
0	0xbd6231bf	-0.055223223
1	0xbd996ec3	-0.07491829
2	0xbd65b995	-0.056085188
3	0xbd903c4d	-0.070427515
4	0xbda2fc93	-0.07958331
5	0x3c8d475d	0.017245943
6	0x3c1fb50c	0.009747755
7	0xbd5c6bfb	-0.053813916
8	0xbd5a3c06	-0.0532799
9	0x3dc985a5	0.09839944
10	0x3bad3aaf	0.0052865366
11	0xbcb4332d	-0.021997059
12	0xbd47952a	-0.04872624
13	0x3de2b6a1	0.1106999
14	0x3b8809f4	0.004151577
15	0xb98976e0	-0.00026219245
16	0x3e167a47	0.14695083
17	0x3da3b3c3	0.07993271
18	0x3db0a124	0.08624485
19	0xbbade0d8	-0.0053063445
20	0xbd56cf74	-0.052443936
21	0x3cb3e30d	0.021958852
22	0xbd51c6f6	-0.051215135
23	0x3cb07879	0.02154182
24	0xbb9646a8	-0.0045860596
25	0xbdc784ff	-0.09742164
26	0xbd8cbe42	-0.06872226
27	0xbce07eff	-0.027404306
28	0x3d16c2d3	0.036806893
29	0xbcd28f83	-0.025703197
30	0x3d6bc718	0.057562917
31	0x3d1cef96	0.038314424
32	0xbdc349de	-0.095355734
33	0xbbdd9abd	-0.006762831
34	0xbd663acf	-0.056208428
35	0x3ca2ef80	0.019889593
36	0x3e2da4b8	0.16957366
37	0xbcef2a62	-0.029195014
38	0x3cd62445	0.026140342
39	0x3df94c10	0.12172711

model.input_block.2.running_mean f4 [40]
0	0xb12d1fe9	-2.5192952e-09
1	0x31b22929	5.185161e-09
2	0xb1cd46ac	-5.9743197e-09
3	0x31d66708	6.239933e-09
4	0xb0383537	-6.7014433e-10
5	0x31905c2c	4.2014303e-09
6	0x30f91427	1.8122862e-09
7	0x30c9dd5e	1.4687591e-09
8	0x3192f956	4.2775055e-09
9	0x3194b487	4.3278905e-09
10	0x319a7c01	4.4960875e-09
11	0x31aac207	4.9697095e-09
12	0x319996e6	4.4700412e-09
13	0xb11f51a6	-2.3183957e-09
14	0xb165591c	-3.3374539e-09
15	0xb1d9c005	-6.3373613e-09
16	0xb1797d95	-3.6305654e-09
17	0x31db2c11	6.3787486e-09
18	0xb1032c8c	-1.908833e-09
19	0x318be933	4.071944e-09
20	0xb082fff1	-9.531488e-10
21	0x31140093	2.153716e-09
22	0x3098f0c0	1.1127881e-09
23	0xb1ec5acf	-6.8788277e-09
24	0x30b860d0	1.3415278e-09
25	0xb0740964	-8.878003e-10
26	0xb1b7488b	-5.334248e-09
27	0x31554cd8	3.103926e-09
28	0x319e7f5b	4.612884e-09
29	0xb19e3e7d	-4.6055093e-09
30	0xb1dbe5b9	-6.3998553e-09
31	0x3191ff90	4.2491095e-09
32	0xb1b8ecdb	-5.382032e-09
33	0xb1aca634	-5.024754e-09
34	0x311d3dd0	2.2881643e-09
35	0x30a98aa4	1.2335772e-09
36	0xb1a5e146	-4.8277427e-09
37	0x315edd9a	3.2431218e-09
38	0xb2024898	-7.583502e-09
39	0xafcd4187	-3.7335843e-10

model.input_block.2.running_var f4 [40]
0	0x2e39100d	4.2078386e-11
1	0x2e3ed408	4.338932e-11
2	0x2dc1df34	2.2040682e-11
3	0x2dcae776	2.306753e-11
4	0x2d917970	1.653852e-11
5	0x2d74bbf6	1.391153e-11
6	0x2db04914	2.0041337e-11
7	0x2e45a7ba	4.4941585e-11
8	0x2da4a3ea	1.8717434e-11
9	0x2d8a1a50	1.5700469e-11
10	0x2d860e8a	1.5240493e-11
11	0x2df00fa8	2.7291794e-11
12	0x2d82f8fb	1.4889858e-11
13	0x2e01d6ea	2.9522086e-11
14	0x2e3b48f0	4.258366e-11
15	0x2db80584	2.0920828e-11
16	0x2dacd5f4	1.964915e-11
17	0x2d81ff9f	1.477912e-11
18	0x2e3fe514	4.3631834e-11
19	0x2d15a861	8.507057e-12
20	0x2d2ee648	9.941888e-12
21	0x2d41ba21	1.1012109e-11
22	0x2e1caf06	3.5625745e-11
23	0x2d5c5fff	1.25268676e-11
24	0x2db0db8c	2.0106382e-11
25	0x2d8ed863	1.6239626e-11
26	0x2d313c75	1.0074709e-11
27	0x2d20ebb3	9.147283e-12
28	0x2d83d9e7	1.4989744e-11
29	0x2e808a9c	5.845388e-11
30	0x2da6931e	1.8937348e-11
31	0x2dc5764b	2.244884e-11
32	0x2db10d59	2.0128498e-11
33	0x2d3d2e5d	1.0753701e-11
34	0x2e34fcc9	4.115178e-11
35	0x2e32c981	4.0651486e-11
36	0x2d881f0a	1.5475194e-11
37	0x2d553093	1.2118434e-11
38	0x2e3eae74	4.3355944e-11
39	0x2dae04a4	1.978357e-11

model.input_block.3.weight f4 [40, 1, 20, 1]
0	0x3e173892	0.14767674
1	0xbd4bdd8c	-0.04977183
2	0x3e2991f1	0.16559578
3	0xbde4ee9c	-0.111783236
4	0xbd6975cb	-0.0569971
5	0x3d8cf392	0.06882395
6	0xbda7cf1d	-0.081938006
7	0xbec0be0c	-0.37644994
8	0xbd896701	-0.067090996
9	0xbda7165a	-0.0815856
10	0x3e1cd037	0.15313803
11	0x3d876411	0.06610883
12	0x3dc38d8e	0.09548484
13	0x3e0c5be4	0.13706928
14	0xbd7fde99	-0.062468145
15	0x3d832a7f	0.0640459
16	0x3e8e3f6f	0.2778277
17	0xbd941dab	-0.07232221
18	0xbe318a34	-0.17337877
19	0xbcc39222	-0.023873392
20	0x3dcc9c91	0.099908
21	0xbdadd067	-0.08487015
22	0xbe086161	-0.13318397
23	0x3e71e5eb	0.23622863
24	0xbdc3ee21	-0.09566904
25	0xbe1387a3	-0.1440721
26	0xbdd2eb89	-0.10298831
27	0x3cfd1835	0.030895332
28	0xbdc5afc1	-0.09652663
29	0x3e2f99c4	0.171485
30	0x3e98d8dd	0.29852954
31	0xbd22f1db	-0.039781433
32	0x3d8c94a9	0.06864292
33	0x3ced7bce	0.028989699
34	0x3bcca3a0	0.0062450916
35	0x3dae726b	0.08517917
36	0xbe1f1f62	-0.15539315
37	0xbdb95b39	-0.090506025
38	0xbea7b1cd	-0.3275284
39	0x3e57d8c5	0.21078785
40	0xbea3c8db	-0.31989178
41	0x3e113cf9	0.14183415
42	0xbe0e6062	-0.13903955
43	0xbcd5af09	-0.02608444
44	0x3e996394	0.29958785
45	0xbd98fab4	-0.07469693
46	0x3e05bb9d	0.1305985
47	0x3e05ad11	0.13054301
48	0xbe9dcd77	-0.3082082
49	0x3d90ed2d	0.07076488
50	0xbe0b47cf	-0.13601612
51	0xbe480ffd	-0.19537349
52	0x3d1c3f4f	0.038146313
53	0x3e4e271c	0.20132107
54	0xbdacf357	-0.08444851
55	0x3cd1907b	0.025581589
56	0x3e1157e1	0.1419368
57	0x3c0c1746	0.008550471
58	0x3d62f225	0.05540671
59	0xbdd8c555	-0.10584513
60	0xbc4c53c5	-0.012471144
61	0x3e19b2e2	0.15009645
62	0x3e326754	0.17422229
63	0x3e8aed13	0.27133998
64	0xbe8341df	-0.25636193
65	0xbe3985e1	-0.18117477
66	0xbc44e9ee	-0.012018664
67	0xbec5079f	-0.38482377
68	0xbb187743	-0.0023264445
69	0x3e309cec	0.17247361
70	0x3e15c698	0.14626539
71	0x3a49433f	0.0007677562
72	0x3d2bd48d	0.04195075
73	0x3dc3c65c	0.095593184
74	0x3e1e0334	0.1543091
75	0xbe9939cf	-0.29926917
76	0xbe1458f4	-0.14487058
77	0xbd88be7d	-0.06676958
78	0x3e27614d	0.16345711
79	0xbd241417	-0.04005822
80	0x3db93f71	0.090453036
81	0xbe827398	-0.25478816
82	0xbc344005	-0.011001592
83	0xbd7b2aa9	-0.06131998
84	0x3e1eb7d3	0.15499811
85	0x3deeee29	0.11666519
86	0x3df46f32	0.11935271
87	0xbe072d11	-0.13200785
88	0xbdac03da	-0.08399172
89	0xbdfcd815	-0.12345902
90	0xbc8cda60	-0.017193973
91	0x3e70d4b4	0.2351864
92	0xbd093786	-0.033500217
93	0x3e8dea7b	0.27717957
94	0xbc8aa857	-0.016925974
95	0xbd2ca3a6	-0.042148255
96	0x3d8911dc	0.066928595
97	0xbdf1dc9e	-0.118096575
98	0x3df9ccd3	0.1219727
99	0xbcb3b87b	-0.021938553
100	0x3cb3dc05	0.0219555
101	0x3c448c43	0.011996332
102	0x3dfa9a1d	0.12236426
103	0x3eab1eaf	0.33421847
104	0x3c161f97	0.009162805
105	0x3dfe61dc	0.12421009
106	0xbd1330f1	-0.035935346
107	0xbe417bdd	-0.18894906
108	0x3ddb0e33	0.10696068
109	0xbc7b95d6	-0.015355548
110	0x3cd0b1ed	0.025475467
111	0xbe541c96	-0.2071403
112	0xbd38173a	-0.044944026
113	0x3e972973	0.2952381
114	0xbcd30839	-0.025760757
115	0xbcbb3060	-0.022850215
116	0x3e34e661	0.17666008
117	0xbe251caa	-0.16124216
118	0xbeb72b3d	-0.35775176
119	0x3dd8e67b	0.10590836
120	0xbcdd7933	-0.027035331
121	0xbe30de5e	-0.17272326
122	0xbe2e1be4	-0.17002827
123	0x3dafe1cd	0.0858799
124	0xbdf86f80	-0.12130642
125	0xbda654cd	-0.08121643
126	0xbe071bb1	-0.13194157
127	0xbdef8f9f	-0.116973154
128	0xbbb207d5	-0.0054330626
129	0xbd822468	-0.063546
130	0xbdedf202	-0.11618425
131	0x3dea799e	0.11448978
132	0xbcb97274	-0.022637583
133	0x3ed8de68	0.42357183
134	0x3e0c9d34	0.13731843
135	0xbc0bf3cb	-0.0085420115
136	0x3d4f7e10	0.050657332
137	0x3dc186cb	0.09449538
138	0x3e8800ee	0.2656321
139	0xbe2c2b8f	-0.16813491
140	0x3c9ae749	0.018909113
141	0x3e25b34b	0.16181676
142	0xbe1980a9	-0.14990486
143	0x3c50cba3	0.012743863
144	0x3e9ebc9f	0.3100328
145	0xbdb9a6b1	-0.09064997
146	0x3e0b7304	0.13618094
147	0xbe23a77c	-0.15981859
148	0x3da294c8	0.07938534
149	0xbe1e6155	-0.15466817
150	0x3e448404	0.19190985
151	0xbea4326d	-0.32069722
152	0xbe10662d	-0.14101477
153	0xbd44883e	-0.047981493
154	0x3e1d12c8	0.15339196
155	0xbe81f389	-0.25381115
156	0x3b509a5f	0.0031830294
157	0x3e8d44f8	0.2759168
158	0xbd64a616	-0.055822454
159	0x3dc4c9d3	0.096088074
160	0xbd6c26b2	-0.05765409
161	0x3da9a344	0.082830936
162	0xbc74c095	-0.014938493
163	0x3e554c35	0.20829852
164	0x3e9f26ea	0.31084377
165	0xbe40d6bd	-0.18831916
166	0x3e1a621a	0.15076485
167	0xbc3dd658	-0.011586748
168	0xbe30a520	-0.1725049
169	0xbe2e5c8e	-0.17027494
170	0xbd82a057	-0.06378239
171	0x3e996e40	0.29966927
172	0xbc6e9365	-0.014561509
173	0xbce321a0	-0.027725995
174	0xbda066a0	-0.07832074
175	0xbdd197ac	-0.10234007
176	0x3c8fa69d	0.017535502
177	0x3c40317a	0.011730546
178	0xbccf4482	-0.025301222
179	0xbe16eb7c	-0.14738268
180	0xbe241ecd	-0.16027375
181	0xbcc9fee7	-0.02465768
182	0x3e23cb34	0.15995485
183	0xbe3635d5	-0.17793973
184	0x3b4f0a18	0.003159171
185	0xb9d12398	-0.00039890106
186	0xbd7e037e	-0.06201505
187	0x3ec3a728	0.38213468
188	0x3ea85e9c	0.3288468
189	0xbe5124e9	-0.20424236
190	0xbd80ca95	-0.062886395
191	0x3e18259d	0.14858098
192	0x3cc38ed9	0.023871826
193	0x3c35ae42	0.01108891
194	0x3d886478	0.06659788
195	0xbdcfcf2e	-0.10146938
196	0x3d4dbe61	0.050230388
197	0xbe2c0c1b	-0.16801493
198	0x3d0f3b71	0.034968797
199	0xbda56d4f	-0.080774896
200	0x3d8bbea5	0.06823472
201	0x3e6a6ffd	0.22894283
202	0x3ec5cc46	0.3863241
203	0xbe3dd676	-0.18538842
204	0xbe0063b5	-0.12538035
205	0x3d187c86	0.03722813
206	0xbe5b4665	-0.21413572
207	0x3e044853	0.12918214
208	0x3c9d0ba5	0.019170592
209	0xbd87b85c	-0.06626961
210	0xbdf0de79	-0.11761183
211	0xbe2d9a70	-0.16953444
212	0x3deb464f	0.1148802
213	0xbbbb8cc3	-0.005723567
214	0xbe718ce3	-0.235889
215	0xbe8034a2	-0.25040156
216	0x3e690b08	0.22758114
217	0x3df3a85b	0.11897346
218	0xbc3e03ca	-0.011597583
219	0x3dde3d7d	0.10851572
220	0x3e161626	0.14656886
221	0x3c2425af	0.01001875
222	0xbdcc01f8	-0.09961313
223	0xbd8d32ca	-0.06894453
224	0xbe1316bf	-0.14364146
225	0xbc4eb814	-0.01261713
226	0xbdfeae4f	-0.124355905
227	0x3dd06c19	0.10176868
228	0x3db96a6d	0.09053502
229	0xbe82c2ec	-0.2553934
230	0x3e7313f6	0.23738083
231	0x3ec54475	0.3852879
232	0xbdec5017	-0.115387134
233	0xbb55e170	-0.0032635592
234	0x3d8ddbe2	0.06926705
235	0xbe3de36c	-0.18543786
236	0xbc2cbb42	-0.010542693
237	0x3d0ec8ba	0.034859397
238	0x3e355175	0.17706855
239	0xbe647f31	-0.22314145
240	0xbdb95be9	-0.090507336
241	0x3d565414	0.052326277
242	0x3d8a2acb	0.06746443
243	0xbeaf9276	-0.34291428
244	0xbe38b6d4	-0.18038493
245	0xbe02580d	-0.12728901
246	0xbe2b049b	-0.16700976
247	0x3e2c005e	0.16797015
248	0x3e41ff7b	0.18945114
249	0xbe0ffaca	-0.14060512
250	0xbc9ebf56	-0.019378345
251	0x3ea4e2a4	0.32204163
252	0x3e256e5a	0.16155377
253	0xbe9aaa0a	-0.30207855
254	0x3e41c8d9	0.18924274
255	0x3dd74a71	0.105122454

model.input_block.4.weight f4 [40]
0	0x3f8d009f	1.1015815
1	0x3f9096c1	1.1296006
2	0x3f85b916	1.0447109
3	0x3f8ea456	1.1143901
4	0x3f836688	1.0265665
5	0x3f838ed2	1.027796
6	0x3f83eefa	1.0307305
7	0x3f89c9c4	1.0764699
8	0x3f824211	1.0176412
9	0x3f814309	1.0098583
10	0x3f8719c1	1.0554734
11	0x3f934112	1.1504233
12	0x3f94bc36	1.1619937
13	0x3f8d4049	1.1035243
14	0x3f809b6e	1.0047433
15	0x3f89b799	1.0759155
16	0x3f904317	1.1270474
17	0x3f8c275f	1.0949515
18	0x3f860fbd	1.0473553
19	0x3f831237	1.0239934
20	0x3f74ddeb	0.9565112
21	0x3f7f2a1b	0.9967362
22	0x3f868776	1.0510089
23	0x3f8857c7	1.0651788
24	0x3f803494	1.0016046
25	0x3f739dd2	0.9516269
26	0x3f8a73e9	1.0816623
27	0x3f7759aa	0.9662119
28	0x3f856d1b	1.0423921
29	0x3f9c6593	1.2218498
30	0x3f9160d1	1.1357671
31	0x3f71df11	0.94481
32	0x3f927c74	1.144423
33	0x3f85e617	1.0460843
34	0x3f8824c8	1.0636225
35	0x3f848a18	1.0354643
36	0x3f6dcacb	0.9288756
37	0x3f86eead	1.0541588
38	0x3fa13698	1.2594786
39	0x3f897b21	1.0740701

model.input_block.4.bias f4 [40]
0	0x3cb28789	0.021793144
1	0xbbfd57e6	-0.0077314256
2	0x3a803c02	0.0009783509
3	0xba9261c5	-0.0011168054
4	0xbbb8554a	-0.0056254016
5	0x3a374487	0.00069911074
6	0xbc390a53	-0.011293965
7	0xbb99f46e	-0.0046983277
8	0x3c3be7bb	0.011468823
9	0xbb1cc1d0	-0.0023919232
10	0xbb2bdc1a	-0.002622372
11	0x3c71a9d5	0.014749964
12	0xbca54917	-0.020176454
13	0x3b5685a6	0.003273347
14	0xbb1d4ba8	-0.0024001393
15	0xbcf4b16e	-0.029869761
16	0xba857465	-0.0010181783
17	0x3947e411	0.0001906308
18	0x3ac05eba	0.0014676668
19	0xbc2deed3	-0.010616022
20	0xbb949f20	-0.0045355707
21	0xbb68d478	-0.0035527032
22	0xbbfe9c2c	-0.007770082
23	0xbb0c6920	-0.0021424964
24	0x3c978f38	0.01850091
25	0xbb00f6a8	-0.0019678269
26	0x3c337085	0.01095212
27	0x3bb6a9a6	0.005574423
28	0x3b6b1755	0.0035872061
29	0xbb8d25d2	-0.004307487
30	0x3b8b135b	0.0042442507
31	0x3b318ed0	0.002709318
32	0xbb8fe2a5	-0.004391032
33	0xbc3b4e04	-0.011432175
34	0x3b9fdb33	0.0048784255
35	0x3afe586c	0.0019405014
36	0x3b1b54f2	0.0023701754
37	0xbada3dcc	-0.0016650497
38	0x3a56d250	0.0008194791
39	0xbad4704c	-0.0016207783

model.input_block.4.running_mean f4 [40]
0	0xba830d3d	-0.0009998452
1	0x3b2511d3	0.0025187626
2	0x3c058c4b	0.008151124
3	0x3b08ecf7	0.0020893195
4	0xbcada8a6	-0.021198582
5	0x3b9af4c8	0.004728887
6	0xb9abf51b	-0.0003279828
7	0xbb65ef6e	-0.0035085338
8	0xb9c2f61c	-0.0003718593
9	0x3c866e08	0.016409889
10	0x399e1aaa	0.00030155975
11	0xb970021e	-0.00022888972
12	0x3bd70138	0.0065614246
13	0xbb809efb	-0.003925202
14	0x39d0adbb	0.0003980229
15	0x387bfa99	6.007645e-05
16	0xbaba42df	-0.0014210603
17	0x3c119d59	0.008887612
18	0xb8897d0a	-6.5559594e-05
19	0xbab9e9c4	-0.0014184047
20	0x3c9101c1	0.017701032
21	0x3abdd1b2	0.001448205
22	0x3a72ef6b	0.00092672434
23	0xba313dfe	-0.0006761252
24	0xb99a5362	-0.00029435294
25	0xb9e5c11f	-0.0004382217
26	0xbc93557b	-0.017985096
27	0xbb90aa7b	-0.004414854
28	0xbc3ab0a3	-0.011394653
29	0x3a861873	0.0010230675
30	0xbaaa7962	-0.0013006146
31	0x3bb6a2e4	0.0055736173
32	0x3b3114ca	0.0027020448
33	0x3b22c0eb	0.0024834226
34	0x3aa3231c	0.0012446376
35	0xba0b26a9	-0.000530819
36	0x3c98094a	0.018559117
37	0xba9c6954	-0.0011933246
38	0xba842109	-0.0010080646
39	0x3a0fee12	0.00054904923

model.input_block.4.running_var f4 [40]
0	0x3439db5f	1.7309274e-07
1	0x343904e0	1.7231241e-07
2	0x348f4706	2.6687502e-07
3	0x344375d6	1.8203659e-07
4	0x349bfc52	2.9054587e-07
5	0x3470689b	2.2389797e-07
6	0x34be34a9	3.5428573e-07
7	0x344d8fc6	1.9144417e-07
8	0x34b27ce7	3.3245962e-07
9	0x3457f580	2.0112748e-07
10	0x3449f3d3	1.8808286e-07
11	0x3475c8b2	2.2890416e-07
12	0x34ae9ec2	3.2525537e-07
13	0x34a257f9	3.023886e-07
14	0x349df604	2.942253e-07
15	0x34f3aaea	4.5386633e-07
16	0x342a964b	1.588716e-07
17	0x340779b0	1.2617124e-07
18	0x34a3dae5	3.0520383e-07
19	0x34141b50	1.379351e-07
20	0x3454847f	1.979224e-07
21	0x34b092d3	3.2889383e-07
22	0x3436cf2a	1.7025437e-07
23	0x33f50d6e	1.14111444e-07
24	0x34851fdf	2.479637e-07
25	0x3411ca3d	1.3577751e-07
26	0x3411e80e	1.3588598e-07
27	0x342878eb	1.5690209e-07
28	0x3494c9bd	2.7713932e-07
29	0x34b2f6d1	3.3334666e-07
30	0x33b887af	8.5928484e-08
31	0x34b713fe	3.4100952e-07
32	0x345d351e	2.0601553e-07
33	0x34665432	2.145105e-07
34	0x3453a3c7	1.9710488e-07
35	0x34939b62	2.749394e-07
36	0x3452d2a5	1.9634406e-07
37	0x341fd3ba	1.4885055e-07
38	0x34d06ab6	3.8820662e-07
39	0x344095f5	1.7935947e-07

model.channel_expansion.0.weight f4 [16, 40, 1, 1]
0	0x3c9e7083	0.01934076
1	0x3dfd885e	0.123795256
2	0xbe0d3ee5	-0.13793524
3	0x3dbb50d9	0.0914628
4	0xbe1db58a	-0.15401283
5	0x3e1ff8ef	0.15622304
6	0xbcaaedce	-0.020865347
7	0x3e049bd9	0.12950076
8	0x3cec4b96	0.028844636
9	0x3c166dd0	0.009181455
10	0xbcb1e4a0	-0.021715462
11	0xbba0c17e	-0.0049058786
12	0xbde92811	-0.11384595
13	0x3b830d59	0.003999394
14	0x3e0f2f4d	0.13982888
15	0x3d2ee097	0.042694654
16	0x3dd73149	0.10507447
17	0x3c3c8b68	0.011507846
18	0x3d51a35c	0.051181182
19	0xbe08e870	-0.13369918
20	0xbe179738	-0.14803779
21	0x3d8ac910	0.06776631
22	0xbd1163e7	-0.035495665
23	0x3e151044	0.14556986
24	0xbe668093	-0.22509985
25	0x3d725d34	0.059170917
26	0xbe247859	-0.16061534
27	0x3e1d4f0f	0.1536219
28	0xbe0b3882	-0.13595775
29	0x3da2e00b	0.07952889
30	0xbea4f03a	-0.32214528
31	0xbe030d12	-0.12797955
32	0x3e0b966e	0.13631603
33	0xbc5836c6	-0.013196653
34	0x3da54466	0.080696866
35	0xbe84da8c	-0.25947988
36	0x3dd507be	0.10401867
37	0xbc928199	-0.017884063
38	0x3dd13f2a	0.10217126
39	0xbce20ce7	-0.027594043
40	0xbea20853	-0.31646976
41	0xbd86d3a8	-0.06583339
42	0xbd11dc42	-0.035610445
43	0xbe6be74c	-0.23037452
44	0xbcae8064	-0.021301456
45	0xbd913045	-0.07089285
46	0xbbd926ee	-0.0066269552
47	0xbe09c719	-0.13454856
48	0x3e786e6a	0.2426087
49	0xbe2f42bc	-0.17115301
50	0xbd794d97	-0.06086501
51	0xbd5a7843	-0.053337347
52	0xba81f381	-0.0009914489
53	0xbaccad15	-0.0015615547
54	0x3d69dc04	0.05709459
55	0x3d1e07ae	0.038581543
56	0xbcaeb053	-0.021324312
57	0x3d5b306c	0.053512976
58	0xbda6789a	-0.08128472
59	0x3d7228fe	0.059121124
60	0xbe2f93fd	-0.17146297
61	0x3e0d9281	0.13825418
62	0x3d97a424	0.07404354
63	0x3e6f392b	0.23361652
64	0xbd714d6e	-0.058911733
65	0xbe1201ca	-0.14258495
66	0xbad9b479	-0.0016609571
67	0x3dc015d9	0.09379167
68	0x3ce015fe	0.027354237
69	0x3e533a77	0.20627771
70	0x3d07edac	0.033185646
71	0x3db35d71	0.08758057
72	0xbcfe336d	-0.031030381
73	0x3dcea3ae	0.10089813
74	0x3e1559dc	0.1458506
75	0x3d2d7d51	0.04235584
76	0xbd082f5c	-0.03324829
77	0xbdfad7e7	-0.12248211
78	0x3c8e804a	0.017395157
79	0x3cde10c1	0.027107598
80	0x3d8da905	0.069170035
81	0xbe8e058f	-0.27738616
82	0xbda80228	-0.08203536
83	0xbe026617	-0.12734257
84	0x3d777fc0	0.060424566
85	0xbdeea204	-0.11651996
86	0xbdfc73c9	-0.12326772
87	0xbe039aab	-0.1285197
88	0xbd1ac7cd	-0.0377882
89	0x3d5ba3da	0.053623058
90	0x3cf103df	0.029420791
91	0xbabaa61d	-0.001424018
92	0x3e4de39c	0.20106357
93	0xbbad4645	-0.005287918
94	0xbddd06bd	-0.10792301
95	0x3a04f459	0.0005071811
96	0xbe518c05	-0.2046357
97	0xbe35016b	-0.17676322
98	0x3dfc0e50	0.123074174
99	0xbdade376	-0.0849065
100	0x3d89fd2a	0.0673774
101	0xbc89ef6c	-0.016837798
102	0xbdf8ac53	-0.12142243
103	0xbddfdb2d	-0.10930476
104	0x3c936aab	0.0179952
105	0xbd1d123c	-0.038347468
106	0x3e168f11	0.14703013
107	0xbe2378db	-0.15964071
108	0x3d671af9	0.056422208
109	0x3dc748e0	0.09730697
110	0x3df43943	0.11924984
111	0xbe35f5a6	-0.17769489
112	0xbd3ac678	-0.04559943
113	0xbe0f3fba	-0.13989154
114	0x3cb424fe	0.021990295
115	0x3e60e67e	0.21962926
116	0x3d6ddac5	0.058069963
117	0xbdcf5e04	-0.10125354
118	0xbe2134c7	-0.15742789
119	0x3e423b83	0.18968014
120	0x3ce00ab0	0.027348846
121	0x3d8e80a6	0.069581315
122	0xbd16c019	-0.036804292
123	0x3d8f4170	0.06994903
124	0xbda0c6fd	-0.07850454
125	0x3d905eab	0.070493065
126	0x3cbd0c1f	0.023077069
127	0x3e2e205f	0.17004536
128	0x3d8047d3	0.062636994
129	0xbddefc10	-0.10887921
130	0xbd32cf28	-0.04365459
131	0xbeaa247c	-0.3323096
132	0xbe65dff8	-0.22448719
133	0x3dacc4da	0.08435984
134	0x3e6a800c	0.22900409
135	0xbd1a7a53	-0.037714314
136	0x3cbd8b31	0.02313766
137	0xbc7d13d8	-0.015446626
138	0xbc5fa720	-0.013650686
139	0xbd2e68a7	-0.042580273
140	0xbdedf01d	-0.116180636
141	0xbd252ee3	-0.040327918
142	0xbce07522	-0.027399603
143	0x3cb125d3	0.021624481
144	0xbdd7e003	-0.10540774
145	0x3d9a2d0a	0.07528122
146	0xbd597648	-0.053091317
147	0x3e605766	0.2190834
148	0x3df284ae	0.11841713
149	0x3aa1c2ab	0.0012341341
150	0xbdd082ea	-0.1018122
151	0x3c93f4c0	0.018061042
152	0x3e2e715c	0.1703543
153	0xbcf542ee	-0.029939141
154	0xbd77ef6e	-0.060531072
155	0xbde20cf7	-0.11037629
156	0x3d247384	0.040149227
157	0xbdd94c99	-0.10610313
158	0xbe601fc6	-0.2188712
159	0xbd8eae45	-0.06966833
160	0x3e401156	0.18756613
161	0xbc7b3677	-0.01533281
162	0x3ca1ae51	0.01973644
163	0x3eaa01f0	0.33204603
164	0x3e2443bd	0.16041465
165	0xbda5fc77	-0.081047945
166	0xbe7d57ca	-0.2474052
167	0x3d9a7f99	0.075438686
168	0xbe4df3c2	-0.20112517
169	0xbe0b571d	-0.1360745
170	0xbd452915	-0.048134882
171	0x3e7bce49	0.2459041
172	0xbc9eac55	-0.019369284
173	0xbdd69431	-0.10477484
174	0x3c81a920	0.015827715
175	0xbdad6b70	-0.08467758
176	0x3e44564b	0.19173543
177	0x3d0b0f85	0.033950347
178	0xbd47fad6	-0.0488232
179	0xbe02ffd8	-0.12792909
180	0xbe07e833	-0.1327217
181	0xbd22346f	-0.039600786
182	0xbddfdb62	-0.10930516
183	0x3d115c96	0.035488687
184	0x3c4e6499	0.012597227
185	0x3c8bd3f7	0.017068846
186	0x3d02ccc1	0.03193355
187	0xbe8d6e42	-0.27623183
188	0xbd27ade1	-0.04093731
189	0xbd81b1c4	-0.06332734
190	0x3c6a426d	0.014298064
191	0xbe4bfdee	-0.19921085
192	0x3c8c1d2c	0.017103754
193	0xbd354256	-0.044252716
194	0xbdeda7a0	-0.116042376
195	0x3c8b6326	0.017015051
196	0x3d62781e	0.055290334
197	0x3d2e89a3	0.04261173
198	0xbd1c6829	-0.038185272
199	0x3da572a4	0.080785066
200	0x3d88ac01	0.06673432
201	0xbd8c50e9	-0.0685137
202	0x3dbe325e	0.092869505
203	0x3d846a76	0.06465618
204	0x3c07bcab	0.008284728
205	0xbe083302	-0.13300708
206	0xbd92fb2c	-0.071768135
207	0x3e4d8e97	0.20073925
208	0x3cc65c71	0.024214001
209	0xbd480bde	-0.048839442
210	0xbc59a2b0	-0.013283417
211	0xbe3624ef	-0.17787527
212	0xbe9e1853	-0.30877933
213	0x3dc16092	0.094422475
214	0x3dada1e2	0.08478142
215	0xbceb5f4f	-0.02873197
216	0xbe319def	-0.17345403
217	0x3d3b9b7c	0.04580258
218	0x3d7eb9a9	0.062188778
219	0xbd9bc798	-0.07606429
220	0xbd77c1dd	-0.060487617
221	0xbe44ab60	-0.19206
222	0x3c9bb6a4	0.019007988
223	0xbb366cc7	-0.0027835832
224	0xbd71a4f9	-0.05899522
225	0x3d16e672	0.036840864
226	0x3e2dc754	0.16970569
227	0xbcb1bbcb	-0.021695992
228	0x3df681dc	0.120364875
229	0x3e0323cc	0.12806624
230	0x3d6f4ad8	0.058420986
231	0x3dab1866	0.08354263
232	0x3de1b58e	0.11020957
233	0x3d3f26ce	0.046667866
234	0xbd24d583	-0.040242683
235	0x3dfefe50	0.1245085
236	0x3d5d625d	0.054048885
237	0xbe0ef624	-0.13961083
238	0xbda137d7	-0.07871979
239	0xbc9f17d8	-0.01942055
240	0xbd02e220	-0.03195393
241	0x3dc29c11	0.095024236
242	0x3e1f4b50	0.15556073
243	0x3da388aa	0.07985051
244	0x3c8ab028	0.016929701
245	0x3d62b5c0	0.05534911
246	0x3d0505cd	0.032476235
247	0xbdc5ade9	-0.09652311
248	0xbd7bcd4b	-0.06147508
249	0xbcfc2a7d	-0.030781979
250	0xbe045a3e	-0.1292505
251	0x3e3f2da4	0.18669754
252	0x3dd276c2	0.102765575
253	0xbdf761a5	-0.12079171
254	0xbd5f0f3b	-0.054457884
255	0xbca35b89	-0.019941108

model.channel_expansion.1.weight f4 [16]
0	0x3f88549b	1.065082
1	0x3f8b76e3	1.0895656
2	0x3f9032b4	1.1265473
3	0x3f6fe30c	0.9370582
4	0x3f852e2a	1.0404713
5	0x3f89a680	1.0753937
6	0x3f8fdd99	1.1239501
7	0x3f891282	1.0708773
8	0x3f7b8610	0.9825144
9	0x3f9a5c19	1.2059356
10	0x3f7fafb2	0.99877465
11	0x3f8da8cc	1.1067138
12	0x3f5f6aca	0.8727232
13	0x3f8f7027	1.1206101
14	0x3f87a7a7	1.0598038
15	0x3f8bb6b0	1.0915127

model.channel_expansion.1.bias f4 [16]
0	0xbebf2ad8	-0.37337375
1	0xbeaaa0bc	-0.33325756
2	0xbe8f9b15	-0.28048006
3	0xbe8da638	-0.27665877
4	0xbe9a5dec	-0.30149782
5	0xbe8842ff	-0.26613614
6	0xbecf58a0	-0.40497303
7	0xbe113203	-0.14179234
8	0x3e1e9291	0.15485598
9	0xbec394aa	-0.3819936
10	0xbea30937	-0.31842968
11	0xbeae9927	-0.3410122
12	0x3e182c2f	0.14860605
13	0xbea01841	-0.31268504
14	0xbe7e1bb8	-0.24815261
15	0xbe583fbd	-0.21118064

model.channel_expansion.1.running_mean f4 [16]
0	0xbbbd30e1	-0.005773649
1	0xbba80d8e	-0.005128569
2	0x3ae0ddfe	0.0017156003
3	0xbb90fe47	-0.0044248435
4	0x3bb78d69	0.005601574
5	0x3bf4f672	0.0074756676
6	0xbafc22e7	-0.0019236476
7	0xbac38b3b	-0.0014918813
8	0xbc035e63	-0.008018109
9	0xba1bf53c	-0.00059493235
10	0xbc2bf231	-0.010494755
11	0x3abda441	0.0014468507
12	0x3bdcb8dd	0.0067359046
13	0x3ba66be6	0.0050787805
14	0xbc420e8b	-0.011844288
15	0x3a881063	0.001038086

model.channel_expansion.1.running_var f4 [16]
0	0x3c72b3e0	0.014813393
1	0x3c2fe0d9	0.01073476
2	0x3c77e107	0.015129334
3	0x3c64e0f2	0.013969647
4	0x3c4c3be4	0.012465451
5	0x3c0deab1	0.008661912
6	0x3c5177bb	0.012784894
7	0x3c90bb42	0.017667416
8	0x3c973207	0.018456472
9	0x3c8b0346	0.016969334
10	0x3c3f6851	0.011682586
11	0x3ca28a60	0.019841373
12	0x3c16d4d9	0.00920602
13	0x3c8c9de1	0.017165126
14	0x3c309726	0.010778224
15	0x3c5e651c	0.013573911

model.fe.0.weight f4 [16, 1, 1, 15]
0	0xbe332509	-0.17494597
1	0xbd99acdd	-0.07503674
2	0xbe574047	-0.21020614
3	0xbe813407	-0.25235006
4	0xbe3827cb	-0.1798393
5	0xbb39677c	-0.0028290441
6	0xbdd2cd9f	-0.10293125
7	0xbe0af9d0	-0.13571858
8	0xbe15cfee	-0.146301
9	0xbe0f3630	-0.13985515
10	0xbd82fa00	-0.0639534
11	0xbd3014c2	-0.042988546
12	0xbe02ea63	-0.12784724
13	0xbe06196a	-0.13095632
14	0xbc89aca8	-0.016805962
15	0x3d292681	0.041296486
16	0x3dee7b34	0.11644593
17	0x3d95194a	0.07280214
18	0x3e87cde6	0.26524276
19	0x3e195ed3	0.14977579
20	0x3e26b596	0.16280207
21	0x3d7d8256	0.061891876
22	0x3e60ac2d	0.2194068
23	0x3d841052	0.06448425
24	0x3e5124f1	0.20424248
25	0x3e1ddefb	0.15417092
26	0x3e03e141	0.12878896
27	0x3db49072	0.08816613
28	0x3db0b590	0.0862838
29	0x3e4fc3a4	0.20289475
30	0xbdcd68a5	-0.10029725
31	0xbe9ece46	-0.3101675
32	0xbe97fbb0	-0.2968421
33	0xbe56fe3b	-0.20995419
34	0x3c6b0669	0.01434479
35	0xbe373d91	-0.1789458
36	0xbd264fb6	-0.040603362
37	0xbe0dca8d	-0.13846798
38	0xbe689816	-0.22714266
39	0xbe06a122	-0.13147405
40	0xbdc72b65	-0.09725074
41	0xbe68bb61	-0.2272773
42	0xbe40a2c9	-0.18812098
43	0xbdda7429	-0.10666687
44	0xbe956e2f	-0.29185626
45	0x3b4e861d	0.0031513043
46	0x3e5facc0	0.21843243
47	0x3e1be763	0.15224986
48	0x3c877360	0.016534507
49	0x3d6e56e5	0.058188338
50	0x3bc6018e	0.006042666
51	0x3e04a8b5	0.12954982
52	0x3e232f66	0.1593605
53	0x3e81cfba	0.25353795
54	0xbdbcab72	-0.09212388
55	0x3dadb816	0.08482377
56	0x3e36d1d5	0.17853482
57	0x3e608279	0.21924771
58	0xbd645a91	-0.055750433
59	0x3e3ed033	0.18634109
60	0x3e284406	0.16432199
61	0x3e489c79	0.1959094
62	0xbab3b6bd	-0.0013711076
63	0x3e67be10	0.22631097
64	0x3cd2c2a2	0.025727574
65	0x3c7cbb5a	0.0154255275
66	0x3de04ebb	0.10952517
67	0x3e9565b5	0.2917916
68	0xbcbc8dc1	-0.023016812
69	0x3e581bfc	0.21104425
70	0x3dff3090	0.124604344
71	0x3df72566	0.1206768
72	0x3e700584	0.23439604
73	0x3d9f77b4	0.077865034
74	0xbcff7e3e	-0.031188127
75	0xbe51fa46	-0.20505628
76	0xbe0bd9c2	-0.13657287
77	0xbe7b0610	-0.24514031
78	0xbdad233e	-0.084539875
79	0xbe1351aa	-0.14386621
80	0xbe28531f	-0.16437958
81	0xbd5a460d	-0.053289462
82	0xbe1d7dff	-0.15380095
83	0xbdc402c9	-0.09570844
84	0xbdcf71a8	-0.101291
85	0xbe113bbd	-0.14182945
86	0xbc719e75	-0.014747252
87	0xbe6b1552	-0.22957352
88	0xbde23818	-0.11045855
89	0xbdc1c68f	-0.094617
90	0xbe2733a2	-0.1632829
91	0xbea16cbf	-0.3152828
92	0xbe34b99b	-0.17648928
93	0xbd9da4a5	-0.07697419
94	0xbcba82a8	-0.02276738
95	0xbe48cf15	-0.19610246
96	0xbdfc5b0a	-0.12322052
97	0xbd81bdbe	-0.063350186
98	0xbe28b6f0	-0.16476035
99	0xbd93d537	-0.07218402
100	0xbe7a2ae4	-0.24430424
101	0xbe3eccff	-0.18632887
102	0xbe5fbb2d	-0.21848746
103	0xbe1cf3f9	-0.15327443
104	0xbe82b761	-0.25530532
105	0xbde4ce69	-0.11172182
106	0xbe56cc8f	-0.2097647
107	0x3daeffa7	0.085448556
108	0xbe3e06a1	-0.18557216
109	0x3df51fc7	0.11968952
110	0xbe80520b	-0.25062594
111	0x3e3a8873	0.18216114
112	0xbe86d531	-0.26334527
113	0x3d94cdb0	0.07265794
114	0xbbe4408e	-0.0069657033
115	0x3e254c5e	0.16142413
116	0xbe87075f	-0.2637281
117	0xbc799000	-0.015232086
118	0xbdb7c05e	-0.08972238
119	0xbdc3c6e0	-0.09559417
120	0x3e859bf7	0.26095554
121	0xbe4e1f39	-0.20129098
122	0x3d2f3566	0.042775534
123	0x3d9339fe	0.071887955
124	0xbe267a2d	-0.16257544
125	0x3e7f2c99	0.24919356
126	0xbdfa7186	-0.12228684
127	0xbdd9359d	-0.10605929
128	0x3e7ecdc7	0.24883185
129	0xbe34ee0c	-0.17668933
130	0x3e4e4d78	0.2014674
131	0xbdb8265a	-0.0899169
132	0x3dc4d2ef	0.09610545
133	0x3e855d3e	0.260477
134	0xbe8b24c9	-0.27176502
135	0x3e964212	0.29347283
136	0x3dd285e9	0.102794476
137	0x3e9f363f	0.31096074
138	0x3e76dc6e	0.24107525
139	0x3e1b0cb3	0.15141563
140	0x3c744201	0.014908315
141	0x3e82cf47	0.25548765
142	0x3db90c22	0.09035517
143	0x3e48862e	0.19582435
144	0x3dcb5c1b	0.09929677
145	0x3e748c9a	0.2388176
146	0x3e8212d9	0.25405005
147	0x3e85c23c	0.26124752
148	0x3e32025d	0.17383714
149	0x3e727ead	0.23681135
150	0x3d116028	0.035492092
151	0xbced19a9	-0.0289429
152	0xbe85fb90	-0.2616849
153	0xbe0e8550	-0.13918042
154	0xbe6cac8c	-0.23112696
155	0xbddf1c85	-0.108941115
156	0xbd27e9a0	-0.040994287
157	0x3cb4c79e	0.022067841
158	0xbe6fb310	-0.2340815
159	0xbe12066c	-0.14260262
160	0x3c122ea7	0.008922256
161	0xbe5425b4	-0.20717508
162	0xbe8db7f7	-0.27679417
163	0xbe1eb5b0	-0.15498996
164	0xbe5ea402	-0.21742252
165	0xbe54a3e7	-0.20765649
166	0xbe49afe1	-0.19695999
167	0xbe839e18	-0.25706553
168	0xbe596946	-0.21231565
169	0xbe8e89a4	-0.27839386
170	0xbe31516a	-0.17316213
171	0xbe0e4d40	-0.13896656
172	0xbe33ddd0	-0.17565084
173	0xbe080474	-0.13282949
174	0xbe2f5715	-0.17123063
175	0xbe274d6d	-0.1633813
176	0xbe1cd7a8	-0.15316641
177	0xbe407bbf	-0.18797205
178	0xbc80001a	-0.015625048
179	0xbcc6ce8b	-0.02426841
180	0xbe2306a7	-0.15920506
181	0xbcf8738e	-0.030328538
182	0x3e18fbe0	0.14939833
183	0xbe0a0f1a	-0.13482323
184	0x3d97ddbc	0.07415339
185	0xbd3da7c1	-0.04630256
186	0xbc2ba488	-0.010476239
187	0x3d175fdf	0.036956664
188	0x3d911c3d	0.07085464
189	0xbca58ec7	-0.020209683
190	0x3cd050a0	0.02542907
191	0x3e1228a6	0.14273319
192	0xbe311066	-0.17291412
193	0x3da8b8f8	0.08238405
194	0x3dff8c9f	0.12477993
195	0x3e8b56e7	0.2721474
196	0x3e0ecfed	0.13946505
197	0x3e84d5f2	0.25944477
198	0x3e251d49	0.16124453
199	0x3c685bbb	0.0141820265
200	0x3d8febee	0.07027422
201	0x3dcc3e80	0.099728584
202	0x3d83153a	0.06400533
203	0x3d68f0ba	0.0568702
204	0x3e10af97	0.14129482
205	0x3e4b4abb	0.19852726
206	0x3dbeca8d	0.09315977
207	0x3e1f02df	0.15528439
208	0x3e07f453	0.13276796
209	0x3de05261	0.109532125
210	0x3e76257b	0.24037735
211	0x3e45726a	0.19281927
212	0x3e9f3795	0.31097093
213	0xbd657d1d	-0.05602752
214	0x3e0ef60d	0.13961048
215	0x3db97c9d	0.09056971
216	0xbc118f60	-0.008884281
217	0x3d188f34	0.037245944
218	0x3e147a08	0.14499676
219	0x3ddbeb31	0.107382186
220	0xbd287593	-0.041127753
221	0x3db04501	0.086069115
222	0x3e3fed4f	0.1874287
223	0x3d8ac9a6	0.06776743
224	0x3dc81e74	0.097714335
225	0x3e580c31	0.210984
226	0x3e06c149	0.1315967
227	0x3d1652b0	0.03669995
228	0x3dc32f85	0.09530548
229	0x3db61f74	0.08892718
230	0x3e18e1b3	0.14929847
231	0x3d291ecf	0.041289147
232	0x3dcf46bb	0.10120913
233	0x3e00324f	0.12519191
234	0xbdb59f0b	-0.08868226
235	0x3ddd3cff	0.1080265
236	0x3e2734af	0.16328691
237	0x3d7154ac	0.05891864
238	0x3d86311c	0.065523356
239	0x3e3389e2	0.17533067

model.fe.1.weight f4 [16, 16, 1, 1]
0	0xbe13fbf7	-0.14451586
1	0xbe49af0e	-0.19695684
2	0xbe1f9877	-0.15585504
3	0x3d3d5b1f	0.046229478
4	0xbe3a2e90	-0.18181825
5	0xbd5e9ef4	-0.05435081
6	0xbe46dc64	-0.1942001
7	0x3e6a685f	0.22891377
8	0xbd0b0a06	-0.033945106
9	0xbe6bc60f	-0.23024772
10	0x3e50f552	0.20406082
11	0xbd8a5211	-0.06753934
12	0xbded835f	-0.11597323
13	0xbdd6dd29	-0.10491402
14	0x3d53cb6d	0.051707674
15	0xbdd2c4ca	-0.10291441
16	0x3ad110ab	0.0015950402
17	0xbe846a91	-0.25862554
18	0xbddce653	-0.10786118
19	0x3e2155a0	0.1575532
20	0xbdac1d93	-0.08404078
21	0xbe20ecf2	-0.15715387
22	0xbe24ca08	-0.16092694
23	0x3d7e3b84	0.062068477
24	0xbcb1af33	-0.021689987
25	0xbe9086a4	-0.28227723
26	0x3e0277df	0.1274104
27	0xbdbba5fd	-0.09162519
28	0xbc68fe4f	-0.014220788
29	0xbd698e52	-0.057020493
30	0x3d0bdda4	0.03414692
31	0xbe972729	-0.29522064
32	0xbe819203	-0.2530671
33	0xbdf5e230	-0.120060325
34	0xbe7ad43b	-0.24495022
35	0xbe171d8e	-0.14757368
36	0xbe2d6d7c	-0.16936296
37	0xbe565981	-0.2093258
38	0xbe61810e	-0.22021887
39	0x3cdea6c4	0.02717913
40	0xbd552359	-0.052035663
41	0xbe2d88bf	-0.16946696
42	0x3e13998c	0.14414042
43	0x3d846d75	0.0646619
44	0xbe24e987	-0.16104709
45	0xbe3e6cb4	-0.18596154
46	0xbc8c2a5e	-0.017110046
47	0xbe967907	-0.29389212
48	0xbe618f06	-0.22027215
49	0xbdc8e36d	-0.09809003
50	0xbe36c615	-0.17849
51	0xba9f8e4f	-0.0012173149
52	0xbdf3957b	-0.118937455
53	0xbdc86927	-0.09785681
54	0xbe7661e1	-0.24060775
55	0x3e485047	0.19561873
56	0xbd8e0fc4	-0.06936601
57	0xbe96f6e1	-0.2948523
58	0x3e491d5e	0.19640109
59	0xbd851a89	-0.06499202
60	0xbdf8b397	-0.12143629
61	0xbe908ce7	-0.282325
62	0x3ccf92cb	0.025338551
63	0xbe5f2198	-0.21790159
64	0x3e125a56	0.14292273
65	0x3d6986fa	0.05701349
66	0x3dcd1a98	0.10014838
67	0xbdb360a0	-0.08758664
68	0x3d4133a2	0.04716838
69	0x3e2aecbb	0.16691868
70	0x3ddc41aa	0.10754712
71	0x3b6f5dcb	0.003652441
72	0xbe066248	-0.13123429
73	0x3dee68a5	0.11641053
74	0xbd93e97f	-0.0722227
75	0x3e5b3836	0.21408162
76	0xbdd972d5	-0.106176056
77	0x3e37d762	0.17953256
78	0xbdf59900	-0.11992073
79	0x3d5f0816	0.05445107
80	0xbd9e11c5	-0.07718233
81	0xbe83da30	-0.257524
82	0xbd8e8945	-0.06959776
83	0xbd0af8c3	-0.033928644
84	0xbe25a5e7	-0.16176568
85	0xbe22c0d3	-0.15893869
86	0xbdff45ed	-0.12464509
87	0x3ead06bc	0.337942
88	0xbc775756	-0.015096506
89	0xbe6b814d	-0.22998543
90	0x3dfc5067	0.12320023
91	0xbdd5dd26	-0.10442571
92	0xbdd039e3	-0.10167291
93	0xbda82db8	-0.08211845
94	0x3d43609c	0.047699556
95	0x3d8901c9	0.066897936
96	0x3e656038	0.22399986
97	0x3e0f373f	0.13985918
98	0x3db6099a	0.0888855
99	0xbd8bf731	-0.068342574
100	0x3d8686cd	0.0656868
101	0x3e5d4d77	0.21611582
102	0x3d743596	0.059621416
103	0x3cc6e127	0.024277283
104	0xbe0bdf7d	-0.13659473
105	0x3ddc7010	0.10763562
106	0xbdaeca4e	-0.0853468
107	0x3e86a95b	0.26301083
108	0xbe060302	-0.13087085
109	0x3e006ae9	0.12540783
110	0xbdafa5c8	-0.08576542
111	0x3dc01ad2	0.093801156
112	0xbe6d7997	-0.23190914
113	0xbe65da8d	-0.22446652
114	0xbe36219d	-0.1778626
115	0x3d9129e7	0.0708807
116	0xbe41c14e	-0.18921396
117	0xbd18ba5e	-0.03728711
118	0xbdcf914b	-0.10135134
119	0x3e59480e	0.21218893
120	0xbd2f2afb	-0.0427656
121	0xbe8cc720	-0.2749567
122	0x3e4a8b3b	0.19779675
123	0xbe092334	-0.13392335
124	0xbe0ecde3	-0.13945727
125	0xbdb15369	-0.08658487
126	0x3dbcacd6	0.09212653
127	0xbe3f0464	-0.18654019
128	0x3df80a7e	0.12111376
129	0x3ce4bca1	0.027921977
130	0x3db51b22	0.08843066
131	0xbcaa2802	-0.02077103
132	0x3d8fc131	0.0701927
133	0x3e43dae2	0.19126466
134	0x3dc5e423	0.09662654
135	0xbd084a18	-0.033273786
136	0xbeb5ab8e	-0.35482448
137	0x3d9ec889	0.07753093
138	0xbcdbddb7	-0.02683912
139	0x3dd3382b	0.103134476
140	0xbe11ea8b	-0.14249627
141	0x3e448cdd	0.1919436
142	0xbd799d85	-0.060941238
143	0x3db51e1b	0.08843633
144	0x3e64145d	0.22273393
145	0x3d0da3e9	0.034580145
146	0x3e01e171	0.12683655
147	0xbe335e53	-0.1751645
148	0x3cbbc07e	0.022918936
149	0x3de62905	0.112382926
150	0x3df0a667	0.11750489
151	0x3d873d66	0.06603508
152	0x3e37cc96	0.17949137
153	0x3e4296de	0.19002864
154	0xbcc2f789	-0.023799675
155	0x3e6223b6	0.22083935
156	0xbd78ce73	-0.06074376
157	0x3e2195b6	0.15779766
158	0xbe0a99ef	-0.13535284
159	0x3cf46f37	0.029838188
160	0xbd68d06b	-0.056839388
161	0xbe5670ae	-0.20941421
162	0xbe2f37a4	-0.17111069
163	0x3cb71d44	0.022352822
164	0xbe11c751	-0.1423619
165	0xbdb55c47	-0.08855491
166	0xbe5c2730	-0.21499324
167	0x3e8ae1a3	0.27125272
168	0xbd0b6fad	-0.03404205
169	0xbe740013	-0.23828153
170	0x3e080500	0.13283157
171	0xbd37e2ff	-0.044894215
172	0xbdd1db96	-0.10246961
173	0xbe04c915	-0.12967332
174	0x3d6373ee	0.05553048
175	0xbd3334e5	-0.043751616
176	0xbda017af	-0.07817017
177	0xbe37c3b3	-0.17945747
178	0xbdcceeaa	-0.10006459
179	0x3d0da794	0.034583643
180	0xbe12e095	-0.14343484
181	0xbdd7eb63	-0.10542943
182	0xbe277b0f	-0.16355537
183	0x3e328ab2	0.1743572
184	0xbd2106f9	-0.03931329
185	0xbe7a8aa8	-0.24466956
186	0x3e277f25	0.16357096
187	0xbe2f98fd	-0.17148204
188	0xbdd16bff	-0.10225677
189	0xbe3a8ae1	-0.1821704
190	0x3d16146a	0.036640562
191	0xbe0cd008	-0.13751233
192	0x3da830fb	0.08212467
193	0x3d21139b	0.039325338
194	0x3e29a01c	0.16564983
195	0xbe0ef6a0	-0.13961267
196	0x3d3cf2f5	0.04613014
197	0x3dfe0af8	0.12404436
198	0x3e4536e0	0.19259214
199	0x3bbe112b	0.0058003864
200	0xbe1ca5cf	-0.15297626
201	0x3e07d858	0.13266122
202	0xbcff371a	-0.031154204
203	0x3e1fa3cf	0.15589832
204	0xbdf08ff5	-0.117462076
205	0x3e524c32	0.20536879
206	0xbe1218cc	-0.14267272
207	0x3da1abd8	0.07894105
208	0x3e87bfe5	0.2651359
209	0x3d0d26eb	0.034460943
210	0x3df6857a	0.120371774
211	0x3c05344a	0.008130142
212	0x3db42b99	0.08797378
213	0x3e52403c	0.20532316
214	0x3e087f19	0.13329734
215	0x3c8576db	0.016292026
216	0xbe665856	-0.22494635
217	0x3da6ecf4	0.08150664
218	0x3ba61f3e	0.0050696423
219	0x3e7a3aa8	0.24436438
220	0xbdf175db	-0.11790057
221	0x3e2f27d8	0.17105043
222	0xbd5b7fbb	-0.05358861
223	0x3e266857	0.1625074
224	0x3e141a09	0.14463057
225	0x3d66b3f5	0.056323964
226	0x3e2286b9	0.15871705
227	0xbe11c0ea	-0.14233747
228	0x3d2f34a6	0.04277482
229	0x3de5bada	0.1121728
230	0x3e0c0b7e	0.13676259
231	0xbbba65ff	-0.0056884284
232	0xbd7a8a5d	-0.06116711
233	0x3ddd5756	0.10807674
234	0xbd513886	-0.051079296
235	0x3e849e49	0.25902012
236	0xbe1e34d1	-0.15449835
237	0x3e84c57e	0.25931925
238	0xbe23ff4b	-0.16015355
239	0x3cbdd8aa	0.023174603
240	0x3e5969b1	0.21231724
241	0x3d97615e	0.07391618
242	0x3e8468be	0.25861162
243	0xbea23a58	-0.31685138
244	0x3d8fcd40	0.0702157
245	0xbcec00f5	-0.02880905
246	0x3df952b2	0.12173976
247	0x3e08db5f	0.13364933
248	0x3ea32fad	0.3187231
249	0x3e4c6bb6	0.19962963
250	0xbe04d9cd	-0.1297371
251	0x3de7c2cb	0.11316451
252	0x3d0a6bf2	0.03379435
253	0x3df845ea	0.1212271
254	0xbe31710b	-0.17328279
255	0xbd84d783	-0.06486418

model.fe.2.weight f4 [16]
0	0x3fb8a36a	1.442487
1	0x3fa06ccb	1.2533201
2	0x3fb13582	1.3844454
3	0x3fceef30	1.6166744
4	0x3fb9efef	1.4526347
5	0x3fad7a89	1.355302
6	0x3fbe4ee2	1.4867823
7	0x3fbe1f10	1.485323
8	0x3fccd816	1.6003444
9	0x3fb6ff65	1.429669
10	0x3fbb06bd	1.4611431
11	0x3fc2c808	1.5217295
12	0x3fbe9422	1.4888957
13	0x3fac61fb	1.3467401
14	0x3fbb037a	1.4610436
15	0x3fb8b01b	1.4428743

model.fe.2.bias f4 [16]
0	0xbdae8767	-0.0852192
1	0xbd4f0144	-0.050538316
2	0xbd578f36	-0.05262681
3	0xbd7b6451	-0.061374966
4	0xbcc44135	-0.023956874
5	0xbd8c02a8	-0.06836444
6	0xbce98e2b	-0.028510174
7	0xbd5ff1e0	-0.05467403
8	0xbcd515ed	-0.026011432
9	0x3c473017	0.012157462
10	0xbdb00d1e	-0.08596252
11	0xbda8234e	-0.08209859
12	0xbbfff26e	-0.0078108823
13	0xbd7178de	-0.05895316
14	0xbc0db8f8	-0.008650057
15	0xbb662a71	-0.0035120512

model.fe.2.running_mean f4 [16]
0	0x3c9c1508	0.019052997
1	0x3d15feab	0.036619823
2	0xb9e90099	-0.00044441668
3	0x3b482017	0.0030536705
4	0x3d49edbe	0.049298994
5	0x3d30d548	0.04317215
6	0x3d4911fb	0.049089413
7	0x3cb50aff	0.02209997
8	0x3c2a8088	0.010406621
9	0x3dd04c47	0.10170799
10	0x3cb9efd7	0.022697372
11	0x3cbb5077	0.022865517
12	0x3d79e64c	0.061010644
13	0x3db9d2c0	0.090734005
14	0x3d9e3cdd	0.077264525
15	0x3da509be	0.08058499

model.fe.2.running_var f4 [16]
0	0x3d9fa723	0.07795551
1	0x3d99357a	0.07480903
2	0x3d957dae	0.07299362
3	0x3de1b02f	0.110199325
4	0x3d68ccc0	0.05683589
5	0x3db4b6ac	0.088239044
6	0x3d81059b	0.06299897
7	0x3dc238b7	0.09483474
8	0x3ddbf5cc	0.107402414
9	0x3dade470	0.084908366
10	0x3da9cb8c	0.082907766
11	0x3d9fedaf	0.078090064
12	0x3d8dfc8f	0.06932937
13	0x3dd7937d	0.10526178
14	0x3d91c32d	0.07117305
15	0x3e02cc0e	0.12773153

model.classifier.0.weight f4 [1, 16]
0	0x3f2a110f	0.6643228
1	0x3ea510a8	0.3223927
2	0x3f0fb27f	0.5613174
3	0x3f09dca8	0.5385232
4	0xbf1be4f3	-0.60896224
5	0x3ec44c30	0.38339376
6	0xbee09f97	-0.43871757
7	0x3f1585d1	0.5840731
8	0xbf140e73	-0.5783455
9	0xbf03bbbf	-0.5145835
10	0x3f3329da	0.69985735
11	0x3f17b309	0.5925756
12	0xbf0e3b9e	-0.5555972
13	0xbe9afcd3	-0.30271015
14	0xbee83987	-0.4535639
15	0xbec6bce8	-0.38816
