eeg_online/lightning_logs/lee_source/version_5/checkpoints/epoch=99-step=8300.ckpt (torch, 63818 bytes, 50 tensors)

model.input_block.1.weight f4 [40, 1, 1, 25]
000000 64 86 47 3e 91 fe b2 3e 4f 5e 94 3d 26 83 4b 3d
       0.1948486 0.34959844 0.072445504 0.04968562
000010 c5 96 7c 3d bf e4 04 3e 5d bd 8a 3c 3b 98 0e 3e
       0.061667223 0.12977885 0.016935999 0.13925259
000020 bf c7 76 bd 0e cb 9c 3b fb d1 c3 bd d4 8b 33 bd
       -0.060249086 0.004784948 -0.09561535 -0.043834522
000030 9a fb 1d be 42 8b 60 bd 58 d9 bc 3c 4d 30 f7 3d
       -0.1542801 -0.054820307 0.023052856 0.120697595
000040 f1 4a 38 3e 2d a0 47 3e 1e 33 b4 bd 8f 0e 5a bd
       0.17997338 0.19494696 -0.08798812 -0.05323654
000050 d0 7a f1 3d 36 1d 7f 3e 92 28 bf 3d 1a 4a a7 3e
       0.11791003 0.24913487 0.0933391 0.32673723
000060 e5 f2 21 3e 79 6c ac bd 3f d3 a7 3c d9 fc bd be
       0.15815313 -0.08419127 0.020486472 -0.3710697
000070 cf ae 9b be d9 c0 48 be b2 aa 37 be aa db e3 3d
       -0.30406806 -0.19604816 -0.17936209 0.11125882
000080 cf da 28 be 12 9e ed bd ec e1 24 be 9f 6c 52 be
       -0.16489719 -0.11602415 -0.16101807 -0.20549248
000090 39 0b fe bd 60 cb 3e 3e de 46 07 3e 65 fc 29 3e
       -0.12404484 0.18632269 0.13210627 0.16600187
0000a0 9f 17 bf 3d 10 f8 ca bc 18 31 b6 3d cd 85 27 be
       0.09330677 -0.024776489 0.08896083 -0.16359635
0000b0 63 fe 1c be c1 5b 0c be c5 4f 9d 3d 8a 8a 7b 3d
       -0.15331416 -0.13706876 0.076812305 0.061411418
0000c0 43 65 15 be 7a e1 89 bd fc b6 ad 3e e1 99 b4 3e
       -0.1458941 -0.06732459 0.33928668 0.3527365
0000d0 6c a4 30 3e 49 58 8f 3d 3b be 18 3e 36 6f d6 bd
       0.17250222 0.06999261 0.14916317 -0.104704306
0000e0 a7 f1 8e 3d 66 bb bb bd 1b 29 3e bd 23 f1 0c 3b
       0.06979685 -0.09166603 -0.04642592 0.0021506033
0000f0 fc 24 3f 3e ec 12 17 3e 32 5b b6 bd 5a 34 75 3d
       0.18666452 0.14753312 -0.08904113 0.05986438
000100 ca 80 c6 3d d7 17 fc bc 38 ea c0 3c 80 38 b5 3d
       0.09692533 -0.030773086 0.023549184 0.08848667
000110 b2 7f 3e 3e 04 c6 83 3e 13 c6 dc bd de ca 8a bd
       0.186034 0.2573701 -0.10779967 -0.06776975
000120 6f d1 e5 3c fd 00 4e 3d cc cd 3a bc 1e 73 c3 bd
       0.028053967 0.05029391 -0.011401605 -0.09543441
000130 8a 71 42 be ab 6d af be 4d 0c b1 bd 16 b1 39 be
       -0.18988624 -0.34263358 -0.08644924 -0.18133959
000140 ca 0c 62 be 15 c0 0f 3e e8 2a c8 3d 93 f5 8a be
       -0.22075191 0.14038117 0.09773809 -0.27140483
000150 08 da 2b bd 48 d3 d9 bd ad 42 b5 bd a7 31 02 be
       -0.041955978 -0.10636002 -0.08850608 -0.12714253
000160 6b ef 6a 3d ae c8 08 be 9a 75 43 3d 6e 98 55 3d
       0.057357233 -0.13357803 0.047719575 0.05214732
000170 73 e2 84 3d 08 c7 ed bc e6 c1 a0 be 3f 1f 74 be
       0.06488504 -0.02902557 -0.31397933 -0.23840044
000180 31 37 a4 3c 0f ff 4e 3c 3b ce f3 bd f3 29 0f bc
       0.020045849 0.012634053 -0.1190457 -0.008738029
000190 af 9b 6c 3e 47 4f 46 3e ad 68 a7 bc 01 9d 45 3c
       0.23106264 0.1936618 -0.020435655 0.012061358
0001a0 c8 1a 13 be b2 83 cd 3c e0 8a 06 be a9 b2 04 be
       -0.14365685 0.025087211 -0.13138914 -0.12958778
0001b0 c1 d3 03 3d 2a 89 c2 3d 05 aa 88 bb 4d 68 43 3e
       0.032184366 0.09498818 -0.0041706585 0.19082756
0001c0 4c 60 9e bd ba fa 39 3e ca 7c bc 3d 4d 8a 79 be
       -0.07733211 0.18162051 0.09203489 -0.24369164
0001d0 21 f1 04 be 8a c8 4d bd e9 21 fd 3b 09 06 83 3d
       -0.12982608 -0.050240077 0.0077249897 0.063976355
0001e0 36 19 ec 3d 3c bb 1b 3d 21 9b f0 bd 60 03 ee 3a
       0.11528246 0.038020357 -0.117483385 0.0018158965
0001f0 fd 99 bb be 03 b0 9e 3d 33 36 22 3d 6b 74 d3 bd
       -0.3664092 0.07748415 0.03960247 -0.10324939
000200 25 54 16 be 59 1f 8e be f1 b7 21 be 4f 2c 4b bd
       -0.14680536 -0.2775829 -0.15792824 -0.049602803
000210 5e 8e 43 be 8c c2 39 bd 11 ec f1 3d 87 d3 64 bd
       -0.19097278 -0.04535155 0.11812604 -0.05586579
000220 9e ba 75 bd bf 72 01 be e8 a5 e8 bd 96 27 6b bd
       -0.059992425 -0.12641428 -0.11359769 -0.0574108
000230 b9 18 c1 b9 bd 97 1c bd 42 57 97 3d e7 c5 92 bd
       -0.00036830248 -0.038230646 0.0738969 -0.07166653
000240 38 62 3f be 55 7f 9a bd 5e 7d 1b 3e b0 5e b5 bc
       -0.18689811 -0.07543818 0.15184543 -0.022139877
000250 aa 73 3d be 7d 5d a3 be 21 65 a5 be 61 bd 4b be
       -0.18501154 -0.31907263 -0.32303718 -0.19896461
000260 d1 dd 9e 3c a6 51 70 3e 31 5c 87 3e c9 b1 23 bd
       0.01939288 0.23468646 0.26437524 -0.03996447
000270 b8 21 7b 3e aa 32 ad bd 9e 3c 8b bc 13 f4 ad bd
       0.24524581 -0.08456929 -0.016996678 -0.08493819
000280 2e ad 42 bd db e2 01 bd ca 97 11 be c2 0b da bd
       -0.04752844 -0.031710487 -0.14218059 -0.10646774
000290 63 97 4d 3d 98 ee 9e 3d e9 3b 33 bd 75 34 a6 3d
       0.0501932 0.07760352 -0.043758307 0.08115474
0002a0 27 7b 5d be f9 d4 a3 bd ca 5b cb 3d 3d c8 15 be
       -0.2162901 -0.07999606 0.09929617 -0.14627166
0002b0 10 1b 17 3e 6c fc ae 3d 44 4f e9 bd b7 79 f3 bd
       0.14756417 0.085442394 -0.11392072 -0.1188845
0002c0 c5 e4 3e be 0d 30 22 be 87 35 32 3e e4 ac be bd
       -0.18641956 -0.15838642 0.17403232 -0.0931032
0002d0 26 98 da 3d a0 77 d8 3c df 0a 32 3e d3 32 40 3d
       0.10673551 0.02642423 0.1738696 0.04692347
0002e0 99 b9 72 3d 2a 18 ca 3c 36 dd b5 bd 39 ed 95 bd
       0.05925903 0.024669725 -0.08880083 -0.07320637
0002f0 79 b8 43 be 0f d9 a0 3d 07 4b f3 3d cb d7 a9 3d
       -0.1911334 0.07853901 0.11879545 0.08293112
000300 7b 28 58 be a6 3d a1 bd b9 d2 7d be 5f c7 73 be
       -0.21109192 -0.07873087 -0.24787416 -0.23806523
000310 08 f6 85 be df 79 9f bd 9c 25 71 be 2f 2b 54 bd
       -0.2616427 -0.07786917 -0.23549503 -0.051798996
000320 b3 10 8f 3d cd 67 0c 3e e3 07 34 be 83 9a 31 be
       0.06985607 0.13711472 -0.17581134 -0.17344098
000330 8b b3 1a be a5 1e d9 3d 59 1c eb bd 13 80 d7 3d
       -0.15107553 0.10601548 -0.11480016 0.10522475
000340 bb c2 67 bc 7c fc 92 bd a8 64 b1 bd 78 fe bb bd
       -0.014145548 -0.07177064 -0.08661777 -0.091793954
000350 a8 38 6a 3c 3a c9 bf bc 2e d3 f1 3c 9a 67 0a 3d
       0.014295734 -0.023411382 0.029519644 0.03379021
000360 c1 4e 49 be 18 46 4c be 46 fd f5 3c f9 af 97 be
       -0.19658948 -0.19948614 0.030027997 -0.29626444
000370 87 82 e1 bd 23 07 30 3e c2 53 03 3e 55 7b 0d 3e
       -0.11011224 0.17190222 0.1282492 0.13816579
000380 48 ed 99 3c eb 9b d1 3c d6 ad 77 be 5e c0 2e be
       0.018789902 0.025587043 -0.24187407 -0.1706557
000390 af 08 42 be 48 26 22 be 05 fd 02 be 36 0e 2e 3d
       -0.18948625 -0.15834916 -0.12791832 0.04249402
0003a0 a9 61 ac bd cd 2a ac 3d 10 b5 2b 3d 66 01 44 be
       -0.08417065 0.08406601 0.04192072 -0.19141158
0003b0 93 82 16 3d bb 87 41 be 02 e4 06 be 4d c5 37 3c
       0.03674562 -0.18899433 -0.13172916 0.011216474
0003c0 a6 19 a2 3c 9b 69 df 3d 98 b0 c2 bd b4 da 88 bc
       0.01978762 0.109088145 -0.09506339 -0.016705848
0003d0 7e ca c7 3d 6d c6 46 be 19 37 0e 3e da 02 3b be
       0.09755419 -0.19411631 0.13888206 -0.18262807
0003e0 6c fa d8 bc 09 71 89 bd c2 39 c8 be cc 54 3e be
       -0.026486598 -0.06711013 -0.39106566 -0.18587035
0003f0 0b 80 2f 3d bd 36 c2 bd c3 d3 b2 bd f2 35 a1 bb
       0.04284672 -0.09483097 -0.087317966 -0.004919761

model.input_block.2.weight f4 [40]
000000 12 66 8d 3f 31 95 8e 3f 14 6d 87 3f c6 4c 8d 3f
       1.1046774 1.113928 1.0580163 1.1039054
000010 08 f0 84 3f 75 f7 82 3f 29 8b 81 3f ec 6f 8a 3f
       1.0385752 1.0231768 1.0120593 1.0815406
000020 b1 c8 80 3f 4d 6d 82 3f 20 f9 8a 3f a3 78 92 3f
       1.0061246 1.0189606 1.0857277 1.1443065
000030 98 84 93 3f b5 d8 8e 3f 20 6e 84 3f 5d d6 87 3f
       1.1524839 1.1159884 1.0346107 1.0612293
000040 e9 fb 91 3f 8a ac 8b 3f 7b d2 86 3f 6d 84 82 3f
       1.1405002 1.091203 1.0532984 1.0196663
000050 b7 f3 76 3f 5e de 83 3f 30 28 84 3f 0c 70 87 3f
       0.9646563 1.0302236 1.0324764 1.0581069
000060 4e c8 80 3f 9a 2a 78 3f 40 82 8c 3f 6e 87 70 3f
       1.0061128 0.96940005 1.0977249 0.9395665
000070 79 c1 86 3f 56 84 9c 3f 92 6f 92 3f 4f 6c 73 3f
       1.0527793 1.2227886 1.1440299 0.9508714
000080 54 1b 94 3f 34 e3 83 3f ff b4 89 3f 75 30 85 3f
       1.157084 1.0303712 1.0758361 1.0405413
000090 fc d2 67 3f b2 66 86 3f ce 58 9b 3f f0 84 8b 3f
       0.9055631 1.050009 1.2136476 1.0899944

model.input_block.2.bias f4 [40]
000000 13 3c 4d ba 2b be 91 bb 1f 32 96 bd f2 0e 9a 39
       -0.0007829081 -0.0044477186 -0.073337786 0.00029384304
000010 58 ac 60 bd 3f e6 2a be 45 3a 50 3d 49 b2 16 be
       -0.05485186 -0.16689394 0.05083682 -0.14716448
000020 7e e6 1e 3c 8f c7 4e bd db b6 69 bd 12 f5 d5 3d
       0.009698508 -0.050483283 -0.05705915 0.10447134
000030 91 9a 10 3d 29 29 34 bd e1 d9 07 be 80 f6 ad 3c
       0.035303656 -0.043984566 -0.13266708 0.021235704
000040 4a 0c f3 bd c4 38 44 3b a1 d4 7d 3d 60 0b 2b 3d
       -0.11867578 0.0029941062 0.061970357 0.041758895
000050 23 71 11 bc 02 94 2b be e8 65 ed 3d bd 88 85 bd
       -0.008877072 -0.16755679 0.11591703 -0.065202214
000060 36 36 b7 3c c1 65 1b bd e1 bf 51 bb 13 0e 8b 3d
       0.022364717 -0.037938837 -0.0032005238 0.06789794
000070 30 65 4c 3d cf 92 7f bc 6f bf 65 3d a0 87 e2 3d
       0.049901187 -0.015598967 0.05609077 0.11061025
000080 e2 a5 34 3d 2c 28 bd bb bb 18 40 bd 94 e9 b0 3c
       0.04410351 -0.005772611 -0.046898585 0.021595754
000090 f4 e8 01 be 59 78 92 3d e4 21 4a bd 54 0c 0f be
       -0.12686521 0.07151861 -0.049348727 -0.13969547

model.input_block.2.running_mean f4 [40]
000000 fa 27 2e b1 3d cc 9e 31 f8 b5 ce b1 19 99 cf 31
       -2.5343057e-09 4.6216244e-09 -6.0160765e-09 6.041898e-09
000010 bc 41 d6 b0 98 4f 93 31 f4 9d c5 30 91 ec 79 2f
       -1.5589232e-09 4.287312e-09 1.437853e-09 2.2730463e-10
000020 d8 06 7b 31 86 98 9c 31 30 09 dc 31 c1 3b d4 31
       3.6529197e-09 4.5575375e-09 6.403887e-09 6.1768053e-09
000030 14 ab 98 31 f5 05 11 b1 da 6b 4d b1 9c 00 df b1
       4.4432316e-09 -2.1103663e-09 -2.9892733e-09 -6.4902235e-09
000040 20 88 54 b1 5a 1e c0 31 37 31 00 b1 0c 44 91 31
       -3.0927438e-09 5.591386e-09 -1.8654427e-09 4.2277915e-09
000050 3f a5 2c b0 0a 84 8a 31 9b f3 04 30 d1 b7 e3 b1
       -6.2808064e-10 4.0313397e-09 4.8367504e-10 -6.627467e-09
000060 b9 db 97 30 6c 18 94 b0 ae 85 b1 b1 ba 39 77 b1
       1.1049145e-09 -1.0775358e-09 -5.1665756e-09 -3.5976044e-09
000070 10 af 89 31 59 7c 8b b1 56 60 db b1 70 e9 b1 31
       4.007127e-09 -4.059569e-09 -6.384691e-09 5.1779168e-09
000080 30 bd b4 b1 41 1c b8 b1 0e 5a 5c 30 a9 95 00 31
       -5.2601976e-09 -5.358317e-09 8.016351e-10 1.8711523e-09
000090 f9 86 97 b1 ff 89 33 31 ff 1f dc b1 bf d2 23 2f
       -4.410023e-09 2.612637e-09 -6.4064802e-09 1.4899636e-10

model.input_block.2.running_var f4 [40]
000000 48 a8 4b 2e a5 e6 55 2e cf 2a c5 2d 57 14 b5 2d
       4.630632e-11 4.8635446e-11 2.2415318e-11 2.058635e-11
000010 b3 4e 94 2d c5 b3 73 2d 2a e0 a1 2d bb 52 67 2e
       1.6860601e-11 1.3852868e-11 1.840313e-11 5.25968e-11
000020 bd 39 7d 2d 8e 77 8c 2d 92 b6 38 2d 5c 1b a8 2d
       1.43942054e-11 1.596925e-11 1.0499728e-11 1.9111539e-11
000030 16 3a 6d 2d a3 ec 07 2e 66 76 5b 2e 99 5e 99 2d
       1.3484788e-11 3.0905622e-11 4.9899994e-11 1.7436096e-11
000040 9d 61 c5 2d ec 1a 7c 2d 71 41 31 2e 80 80 14 2d
       2.2439656e-11 1.4330519e-11 4.0303264e-11 8.441359e-12
000050 d6 df 26 2d 8a 44 84 2d 75 24 ef 2d 64 98 5e 2d
       9.485709e-12 1.50371e-11 2.7187344e-11 1.26530765e-11
000060 b8 d8 a9 2d 97 d3 93 2d 1f d9 3f 2d fd 52 f9 2c
       1.9309318e-11 1.680593e-11 1.0905304e-11 7.086219e-12
000070 6f c8 8a 2d de 9e 80 2e b3 54 bf 2d c0 54 b4 2d
       1.5777794e-11 5.8489866e-11 2.17518e-11 2.0501267e-11
000080 73 e8 ba 2d 72 73 28 2d 5b 10 5a 2e 45 79 57 2e
       2.124898e-11 9.575328e-12 4.9581988e-11 4.899305e-11
000090 d7 65 87 2d 0f a3 57 2d 7c 5b 22 2e f4 db a7 2d
       1.5392949e-11 1.2257541e-11 3.691579e-11 1.908338e-11

model.input_block.3.weight f4 [40, 1, 20, 1]
000000 51 54 10 3e e2 31 49 bd 67 6c 25 3e 57 64 cd bd
       0.14094664 -0.049119838 0.16154633 -0.10028904
000010 91 33 80 bd bc ba 9b 3d 2c 3c b8 bd 5f 4a c2 be
       -0.062598355 0.07603976 -0.08995852 -0.37947366
000020 f9 ba 8b bd 3a 79 98 bd c9 f9 20 3e 5e f0 35 3d
       -0.068227716 -0.07444997 0.15720285 0.044418685
000030 15 7e ce 3d 56 2b 0e 3e 0d fe 47 bd de 17 a9 3d
       0.10082642 0.13883719 -0.048826266 0.082565054
000040 37 e9 8b 3e 9f d6 a4 bd 35 bd 35 be 77 01 99 bc
       0.27326366 -0.08048748 -0.17747958 -0.018677456
000050 d2 0e c3 3d 5d ce a9 bd 57 cd d3 bd ba a0 7a 3e
       0.09524311 -0.08291314 -0.103419 0.24475375
000060 d0 9b c7 bd 87 c6 f7 bd 01 63 d3 bd d6 59 62 3c
       -0.09746516 -0.12098413 -0.10321618 0.013815364
000070 dc 9b e7 bd eb b5 25 3e d7 17 9b 3e c1 18 3e bd
       -0.11309025 0.16182677 0.30291626 -0.046410326
000080 33 32 a2 3d e0 b4 30 3d 76 f5 39 bc ae b0 9c 3d
       0.07919731 0.043141246 -0.011350026 0.076508865
000090 8c 87 2e be 65 51 ab bd c2 a4 a3 be 1f db 58 3e
       -0.17043895 -0.08365134 -0.31961638 0.21177338
0000a0 43 96 80 be 8f 94 27 3e 67 8f 1f be 70 10 23 bd
       -0.2511464 0.16365264 -0.15582047 -0.039810598
0000b0 5b 9a a2 3e e1 7c 73 bd 09 0b 1b 3e 88 1b f1 3d
       0.3175839 -0.059445266 0.15140928 0.11772829
0000c0 28 be 9d be 74 fd c5 3d 00 48 1b be 4c 0f 82 be
       -0.3080914 0.09667483 -0.15164185 -0.25402296
0000d0 63 a0 61 3d c2 46 31 3e 61 f2 87 bd 65 0a dd 3c
       0.055084597 0.17312148 -0.06638027 0.026982496
0000e0 44 80 f4 3d 94 4b e0 3c 0e 5b 91 3d f6 b9 b0 bd
       0.11938527 0.027379788 0.070974454 -0.08629219
0000f0 54 cc ca bc be 85 1c 3e f0 62 2e 3e 36 11 84 3e
       -0.024755634 0.15285394 0.17029929 0.2579438
000100 52 f6 81 be 36 e8 3c be 7d 96 d5 3a b7 a0 c1 be
       -0.2538324 -0.18447956 0.0016295459 -0.37817928
000110 80 61 a5 3a 51 64 3f 3e 15 29 16 3e c7 bc 18 bd
       0.0012617558 0.18690611 0.14664109 -0.037289407
000120 43 4d 15 3d 1f 47 b9 3d c9 71 23 3e e6 e1 97 be
       0.036450636 0.090467684 0.15961374 -0.29664534
000130 5b 84 11 be 74 46 92 bd c2 a4 29 3e 6c 57 3b bd
       -0.14210646 -0.07142344 0.16566756 -0.04573767
000140 5d e7 03 3e ce 1b 48 be 6c 40 41 3d c0 8f 01 bd
       0.12881227 -0.19541857 0.047180578 -0.03163123
000150 6e 4c 13 3e 52 c5 17 3e 59 fa b5 3d 2d bb 2b be
       0.14384624 0.14821365 0.08885641 -0.1677062
000160 1f c3 8b bd f2 95 2b be b0 1f 7f bc 75 a5 84 3e
       -0.06824326 -0.16756418 -0.01557152 0.25907484
000170 9d a2 d2 bc 49 b9 80 3e 69 85 82 bd 13 e4 71 bd
       -0.025712306 0.2514136 -0.06373102 -0.0590554
000180 3b b0 3a 3d 10 ad 13 be 86 5a c3 3d 99 48 2b bd
       0.045578223 -0.14421487 0.0953875 -0.04181728
000190 c8 02 86 3c b7 c9 74 3c 14 23 fe 3d 6e 6a b1 3e
       0.016358748 0.014940671 0.12409034 0.34651512
0001a0 42 9c e1 bb 67 d2 ce 3d 38 af be bc 01 4c 45 be
       -0.0068850825 0.10098725 -0.02327691 -0.19267274
0001b0 10 22 b4 3d ea 26 c3 3c da e8 44 3d ee 36 7d be
       0.087955594 0.023822267 0.048073627 -0.24727985
0001c0 73 4a 13 bd 2b a3 8c 3e 87 d3 54 bd 66 e9 7d bd
       -0.035959672 0.27468237 -0.05195954 -0.061990164
0001d0 4a b0 1c 3e 3f cf 1c be 6f 51 b2 be 0c 43 d4 3d
       0.15301624 -0.15313433 -0.34827754 0.10364351
0001e0 9b 2a 8f bc 34 36 4c be 6c 38 29 be 0a 4d 9d 3d
       -0.01747637 -0.19942552 -0.1652543 0.0768071
0001f0 68 5c 33 be 53 9f e9 bd dd 7b e6 bd ca a9 a3 bd
       -0.17515719 -0.11407342 -0.11254094 -0.07991369
000200 1b 5c 07 bc 56 4a b3 bd 44 af 0c be 8b 64 04 3e
       -0.008261706 -0.08754413 -0.13738734 0.12928979
000210 a5 1f 20 bd a3 09 c4 3e b4 2a 16 3e 01 7b 39 bd
       -0.03909268 0.38288602 0.14664727 -0.04528332
000220 0c 95 82 3c ee 2e 7c 3d ab c2 85 3e 46 19 28 be
       0.015940212 0.061568193 0.26125082 -0.16415891
000230 3c 53 59 3c 6e ff 13 3e 53 e2 0b be 45 14 36 3c
       0.0132644735 0.14452907 -0.13660555 0.011113231
000240 87 12 92 3e 0a 1b af bd 19 f0 02 3e b3 90 35 be
       0.2852976 -0.08550079 0.12786902 -0.1773098
000250 83 95 b6 3d 3a 02 10 be 7a de 52 3e 0c 08 ac be
       0.08915236 -0.1406335 0.2059268 -0.3359989
000260 5e 45 f0 bd 9e 7d 54 bd 6d 26 1f 3e f2 19 81 be
       -0.11731981 -0.05187761 0.15542002 -0.25215107
000270 c8 bc c0 3c 6f c8 93 3e fc 43 9e bd fb 3e bf 3d
       0.023527518 0.28863856 -0.07727811 0.093381844
000280 9a 14 3a be 75 f0 1a 3c 03 27 f3 bc f4 68 5d 3e
       -0.18171921 0.0094567435 -0.029681688 0.21622068
000290 99 6b 82 3e 73 df 0b be ea 59 11 3e 3e ed 4b bd
       0.25472715 -0.13659458 0.14194456 -0.0497868
0002a0 5b 95 3f be 4d c5 33 be ac 1a f6 bc a1 01 97 3e
       -0.18709318 -0.17555733 -0.030042015 0.2949343
0002b0 f6 d8 82 bd a6 60 26 bd 10 e8 e1 bd 06 a7 a5 bd
       -0.06389038 -0.040619515 -0.110305905 -0.08088498
0002c0 e2 7b 37 ba bf f3 39 3d 51 73 3d 3d 6e 35 a4 bd
       -0.0006999356 0.04539847 0.046252552 -0.080180034
0002d0 cc 60 2e be 90 9e c9 bc 0b ac 42 3e 4c 7b 34 be
       -0.17029113 -0.024611741 0.19010942 -0.17625159
0002e0 9d 2e 96 bc 62 84 af bc 62 7a a8 bd cf ed b0 3e
       -0.018332774 -0.02142543 -0.08226468 0.34556434
0002f0 bd 67 b3 3e b9 f2 4c be 3a ef 86 bd 48 ba 28 3e
       0.35040084 -0.20014466 -0.065885976 0.1647731
000300 a3 ce 33 3c a2 41 a3 bc 10 bd 1e 3d a8 51 ef bd
       0.010974559 -0.019928757 0.038754523 -0.116854966
000310 07 16 81 3d 5c 98 23 be 44 cf 4a 3d 04 b1 af bd
       0.063030295 -0.15976089 0.04951407 -0.08578685
000320 4a ee da 3c e7 bb 53 3e d3 67 c8 3e e6 69 4e be
       0.026724953 0.20677148 0.39141712 -0.20157585
000330 85 37 16 be c4 12 89 bc 0d 18 71 be c8 2e f5 3d
       -0.14669617 -0.016732581 -0.23544331 0.119718134
000340 f0 e7 01 3d 33 ae f2 bc d0 01 15 be d7 e7 38 be
       0.031715333 -0.02962408 -0.14551473 -0.1805719
000350 8c f4 a1 3d e0 1d 49 bd 65 aa 6d be 92 16 66 be
       0.07907972 -0.049100757 -0.23209532 -0.22469547
000360 af e5 73 3e 91 6b 11 3e a9 07 0a 3d db cd e9 3d
       0.23818086 0.1420119 0.03369871 0.11416217
000370 22 d5 21 3e d2 28 9e 3c 8c 92 ce bd 17 57 bc bd
       0.1580396 0.019306574 -0.10086545 -0.091962986
000380 16 66 1b be e8 83 50 bb a5 00 15 be f2 a4 fe 3d
       -0.15175661 -0.0031816904 -0.14551027 0.124338046
000390 b5 22 d1 3d 26 51 72 be f2 61 55 3e fa d6 b1 3e
       0.10211698 -0.23663768 0.20838144 0.34734327
0003a0 b5 85 d3 bd a9 cb 01 bd 3c 80 9c 3d cf c7 39 be
       -0.10328237 -0.031688366 0.07641646 -0.18142627
0003b0 4a 83 55 3a fe 7c 38 3d 27 50 5c 3e 47 50 69 be
       0.0008144869 0.045041077 0.2151495 -0.2278453
0003c0 03 bd 9b bd 33 00 59 3d 4a 95 96 3d 66 bf b0 be
       -0.076044105 0.052978706 0.073526934 -0.34521025
0003d0 f4 b9 1e be 37 22 00 be 33 54 2a be d8 f3 1a 3e
       -0.15500623 -0.12513052 -0.16633682 0.15132082
0003e0 bb cb 47 3e 4e c2 08 be 27 90 cf bc 18 4a 9e 3e
       0.19511311 -0.13355371 -0.025337292 0.30915904
0003f0 be 46 1b 3e 0f 84 99 be 39 91 32 3e 57 1e ca 3d
       0.15163705 -0.29983565 0.1743821 0.09869068

model.input_block.4.weight f4 [40]
000000 d7 25 8d 3f 36 69 8e 3f 8f 6a 87 3f 9a 2d 8d 3f
       1.1027173 1.1125858 1.0579394 1.1029541
000010 ce d2 84 3f 7f 72 82 3f fc 59 81 3f 8e 42 8a 3f
       1.0376832 1.0191191 1.0105586 1.0801561
000020 50 a9 80 3f 26 6e 82 3f be e8 8a 3f 5c 46 92 3f
       1.005167 1.0189865 1.0852277 1.1427722
000030 c7 59 93 3f c8 57 8e 3f 87 3e 83 3f b4 95 87 3f
       1.1511773 1.1120539 1.0253457 1.0592561
000040 6e d8 91 3f 64 a5 8b 3f 60 88 86 3f 5b 74 82 3f
       1.1394174 1.0909848 1.0510368 1.0191759
000050 fa 88 76 3f a1 12 84 3f 13 0c 84 3f 57 6c 87 3f
       0.9630276 1.0318185 1.0316185 1.0579938
000060 40 99 80 3f 56 09 78 3f a2 5b 8c 3f 79 65 70 3f
       1.0046768 0.96889246 1.0965464 0.93904835
000070 89 a5 86 3f d3 ca 9b 3f 4f 4f 92 3f 95 57 73 3f
       1.0519267 1.2171272 1.1430453 0.95055515
000080 8d 04 94 3f 70 ed 83 3f 88 72 89 3f 44 f7 84 3f
       1.1563889 1.0306835 1.0738077 1.038796
000090 c3 94 67 3f 3d 75 86 3f db 21 9b 3f 1f 46 8b 3f
       0.9046137 1.0504528 1.2119707 1.0880774

model.input_block.4.bias f4 [40]
000000 99 b9 ca 3c 01 82 9e bb 7e b2 09 bb b8 b4 11 bb
       0.024746703 -0.004837275 -0.002101093 -0.002223296
000010 7a 1b 8d bb 5e a7 37 3c 7a 3d 97 bc 7b fe 72 bc
       -0.004306254 0.011209337 -0.018461931 -0.014831181
000020 31 d8 0c 3c 39 96 c1 3a 7b 1f fc bb 47 d7 36 3c
       0.008596466 0.0014769501 -0.0076941825 0.011159725
000030 19 a4 a3 bc ee 41 a9 3b 03 77 b5 bb bb c4 d6 bc
       -0.019975709 0.00516533 -0.005537869 -0.026216855
000040 28 03 b3 ba 6c 63 88 3b 06 70 f5 b9 51 5c 19 bc
       -0.0013657557 0.0041622426 -0.00046813505 -0.009360389
000050 fd bd 55 bb 03 17 32 bc df 83 08 bc 1e 33 48 3b
       -0.0032614463 -0.010869744 -0.008332222 0.0030548046
000060 02 f5 af 3c 74 a8 cb bb 54 9f 9f 3b a9 56 59 bc
       0.021479134 -0.0062151495 0.0048712883 -0.01326529
000070 62 8e dc 3a a0 7c f1 bb e7 a8 95 ba 18 ef 2b bc
       0.0016827101 -0.007369593 -0.0011418135 -0.010494016
000080 fc 27 28 bb 45 4d 23 bc 58 b3 e8 3b 33 72 97 3b
       -0.0025658598 -0.009967153 0.0071014576 0.004621768
000090 12 a4 76 bb 21 a0 8a ba 2e f7 30 3b 15 59 08 bb
       -0.0037634415 -0.0010576287 0.00270028 -0.002080505

model.input_block.4.running_mean f4 [40]
000000 98 5f aa b7 8e be d9 38 f0 21 7d 3b 4b 2b a0 b7
       -2.0310094e-05 0.0001038286 0.0038624965 -1.9093646e-05
000010 5e a1 4c bc c5 0b ec bc dd db 61 bc 82 fe 18 bc
       -0.012489645 -0.028814206 -0.01378533 -0.009338023
000020 e8 01 c9 ba e2 d4 6c bb f1 e8 92 3b 37 f3 1b 3b
       -0.0015335651 -0.003613763 0.004483335 0.002379609
000030 bb dd 9e bb 9f 1c c2 3a 0e 4a 5f bb 1a 70 da bb
       -0.0048482097 0.0014809555 -0.003407124 -0.0066661956
000040 b8 1a b5 3a 51 4b 9e 39 5f 83 bc 3a 34 80 0d 3c
       0.0013817167 0.00030192223 0.0014382413 0.008636523
000050 03 0b d5 3a 04 db a4 bc 0b 74 36 bc 0e 9a 9f 39
       0.0016253892 -0.020123966 -0.011136065 0.00030441623
000060 07 9b 14 3b 96 df 34 3b 7c 20 7a ba c3 d5 0c 3d
       0.0022675411 0.0027599088 -0.0009541584 0.034383547
000070 03 88 33 bc 69 88 1e 3a 17 a4 75 b7 60 bb b0 3c
       -0.010957721 0.00060475484 -1.4641343e-05 0.021573722
000080 5c 38 ec ba 78 af 06 3b 17 ce 12 3b dc 80 1c ba
       -0.0018022167 0.0020551365 0.002240067 -0.0005970129
000090 7b 01 b6 bc 62 4d 81 3a 1a d3 eb 3a cd ef 45 3b
       -0.022217503 0.0009864981 0.001799199 0.0030202747

model.input_block.4.running_var f4 [40]
000000 5e 99 4f 34 f9 2c 55 34 b6 62 5e 34 f8 ed 27 34
       1.9334172e-07 1.9853532e-07 2.0711272e-07 1.563966e-07
000010 89 94 8b 34 74 d9 55 34 d6 35 cc 34 04 b9 40 34
       2.599884e-07 1.991628e-07 3.8037132e-07 1.7948702e-07
000020 6b 60 a7 34 10 34 25 34 c3 97 28 34 58 d0 2d 34
       3.1176327e-07 1.5385763e-07 1.570143e-07 1.6187676e-07
000030 0d 64 8e 34 16 6b aa 34 d2 a4 9d 34 e3 1a d7 34
       2.6522358e-07 3.1742883e-07 2.936345e-07 4.0066433e-07
000040 65 9d 2c 34 50 77 df 33 56 5d a0 34 f0 7e 03 34
       1.6076008e-07 1.04059495e-07 2.9870233e-07 1.2246505e-07
000050 c4 c5 0b 34 ff 5e 9c 34 52 cb 38 34 9f 91 fe 33
       1.301733e-07 2.9126383e-07 1.7210303e-07 1.1854285e-07
000060 67 ee 66 34 18 da 22 34 54 65 30 34 10 48 27 34
       2.150715e-07 1.5166768e-07 1.642814e-07 1.5579303e-07
000070 25 d5 8e 34 d8 5e b7 34 f2 98 c4 33 a3 56 9f 34
       2.6604644e-07 3.4155414e-07 9.154782e-08 2.9679094e-07
000080 4c ef 73 34 a9 a6 2a 34 1a c5 5e 34 5f fe a3 34
       2.2718194e-07 1.5893114e-07 2.0747066e-07 3.0546195e-07
000090 bd 8b 3f 34 0d ec 14 34 f6 98 9f 34 a3 1b 5d 34
       1.7839098e-07 1.3869449e-07 2.9727352e-07 2.0592283e-07

model.channel_expansion.0.weight f4 [16, 40, 1, 1]
000000 59 47 f6 3c 9a a9 cc 3d 2d 0e c5 bd cf 3e bf 3d
       0.030063318 0.099932864 -0.096218444 0.09338152
000010 05 ae 53 be 7a d0 13 3e 4a 92 8c bd c0 cb 27 3e
       -0.20671852 0.14434996 -0.0686384 0.16386318
000020 c1 42 82 3d e2 cb 53 bb 2b d3 ab bd 75 97 3f bd
       0.063603885 -0.0032317569 -0.083898865 -0.0467753
000030 c1 31 f0 bd 1b f8 09 3d 44 08 e2 3d d3 f0 65 3d
       -0.1172824 0.033683877 0.11036733 0.05613787
000040 d0 e6 c0 3d c0 50 e1 bc 6f d3 88 3d e8 61 09 be
       0.09419024 -0.027504325 0.06680953 -0.13416255
000050 08 d2 0f be b0 a1 22 3d ef 3b 4d bd ab ed ff 3d
       -0.14044964 0.03970498 -0.050105985 0.124965034
000060 4b 60 7c be 2a 78 61 3d a2 4c 44 be db 5a 61 bd
       -0.24646108 0.055046238 -0.19169858 -0.055018287
000070 cd f8 dd bd 08 6c 79 3d f7 e3 9b be 2f e0 da bd
       -0.108384706 0.060894042 -0.3044736 -0.10687291
000080 39 26 00 3e 12 99 33 bd 66 45 eb 3d 47 02 80 be
       0.12514581 -0.04384715 0.11487846 -0.25001737
000090 14 14 d8 3d 31 ae 3b bd ba f6 91 3d 84 78 13 bd
       0.105507046 -0.04582042 0.071271375 -0.036003605
0000a0 84 cb 8f be e7 ba 92 bd 14 ae 8c bd a7 d8 76 be
       -0.28084958 -0.07164555 -0.0686914 -0.24106084
0000b0 07 bc e5 bc 87 8a 71 bd 26 69 15 3d 9f ae 9e bd
       -0.02804376 -0.05897 0.03647723 -0.0774815
0000c0 f8 8d a6 3d e3 e6 2a be 76 93 e3 bd b0 54 c9 bd
       0.08132547 -0.16689639 -0.1111211 -0.09830606
0000d0 48 09 0f 3d 78 56 9e bd 5c f8 2d 3e 88 c8 a4 bb
       0.03492096 -0.07731336 0.16989273 -0.005028788
0000e0 e2 05 01 bd c9 e2 8e 3d 55 df 2b bd ff 8b db 3d
       -0.03149975 0.069768496 -0.041961033 0.107200615
0000f0 7a 10 44 be 1c 00 6b 3e 8e 16 c0 3d bc 89 5d 3e
       -0.1914691 0.2294926 0.09379302 0.21634573
000100 85 7f a0 bd 88 48 62 be 99 68 6e 3c 60 74 22 3d
       -0.078368224 -0.22097981 0.014551305 0.039661765
000110 e9 58 4c 3d 2c 10 16 3e ee 09 37 3d 24 80 a6 3d
       0.04988948 0.14654607 0.044687204 0.0812991
000120 c4 dc f4 bc 0e a7 37 3e 2e 17 09 3e cb 67 3c 3c
       -0.029890426 0.1793482 0.13387749 0.011499356
000130 ce 9f 92 bc 54 52 fd bd 22 68 35 bd 84 87 ef 3c
       -0.017898466 -0.123692185 -0.044288762 0.029239424
000140 f4 75 c6 3d 5f 6c 98 be 1c 3f 02 be 98 f8 d9 bd
       0.096904665 -0.2977018 -0.12719387 -0.106431186
000150 f4 36 d1 3d 84 b1 02 be f2 f6 91 bd 2d a5 07 be
       0.102155596 -0.1276303 -0.07127179 -0.13246603
000160 19 a3 e5 3b 44 1f b0 3d d5 52 b4 3d 11 43 f2 3c
       0.007007968 0.085997134 0.088048615 0.029572995
000170 fd 01 57 3e 9a 8f c5 3c a9 ac c8 bd 6a c4 19 bd
       0.20996852 0.024116326 -0.09798557 -0.03754083
000180 e1 24 66 be 08 fe 29 be 61 60 02 3e 52 62 8d bd
       -0.22475006 -0.16600811 0.12732078 -0.06903519
000190 70 0e 74 3d 55 42 cb 3c 61 e4 b3 bd 86 3c bb bd
       0.05958408 0.024811903 -0.08783794 -0.09142403
0001a0 35 2c 58 3c 01 f7 76 bd 64 5b 1f 3e cf 47 81 3c
       0.0131941335 -0.060294155 0.15562207 0.015781311
0001b0 d3 b8 75 3d c8 40 f9 3d 03 6a e6 3d 1f dd 25 be
       0.059990715 0.12170559 0.11250689 -0.16197632
0001c0 8c 05 10 bd 5f f0 f1 bd 66 6e 97 3b fa ae 60 3e
       -0.03516154 -0.11813425 0.004621315 0.21941748
0001d0 e2 fd 87 3d 9b b0 bb bd 12 dd 0c be af 46 39 3e
       0.06640221 -0.09164544 -0.13756207 0.1809337
0001e0 a4 77 94 3c 66 d0 14 3d 52 05 4e bd 42 1e c4 3d
       0.018123455 0.036331557 -0.050298043 0.09576084
0001f0 a9 5d f2 bd a5 ac 93 3d d2 28 8a bc 7f f5 41 3e
       -0.118342705 0.07210664 -0.016865168 0.18941306
000200 64 c7 dc 3d 2a 6b cc bd f0 0d ee bd 06 3b b8 be
       0.10780218 -0.099813774 -0.11623752 -0.3598253
000210 04 23 7a be c5 3a b3 3d a6 9e 5a 3e df 85 cb bc
       -0.2442742 0.08751444 0.21349582 -0.024844108
000220 4d 85 db 3c 1f ed 27 3c 8a f9 87 ba 3a 9b e4 bc
       0.026796961 0.010249405 -0.0010374051 -0.027906049
000230 e7 77 10 be 08 da 96 bd 38 2f d7 bd 68 08 91 3c
       -0.14108239 -0.07365805 -0.10507053 0.017704204
000240 4a 60 b7 bd f2 94 95 3d 52 e5 e6 bd 80 b8 71 3d
       -0.089539126 0.073038 -0.11274208 0.059013844
000250 8a 92 a7 3d cf b9 b0 3c b0 54 ed bd 5b 79 4e 3c
       0.08182247 0.021572975 -0.115884185 0.012602176
000260 c6 50 17 3e 15 f0 94 bd b1 18 c0 bd d0 d1 e6 bd
       0.14776906 -0.072723545 -0.093797095 -0.11270487
000270 4c ad f4 3c af 73 e4 bd ea db 13 be d2 b5 a9 bd
       0.02986779 -0.111548774 -0.1443936 -0.082866326
000280 0f fc 3b 3e 6d 06 e9 bb 10 42 9b 3d 91 0d 94 3e
       0.18357871 -0.0071113617 0.0758096 0.289166
000290 1a ab 08 3e bc 48 ee bd 78 84 8c be bd d0 40 3d
       0.1334652 -0.11634967 -0.27444816 0.04707407
0002a0 9e 64 48 be 1d 47 11 be 68 f7 ae bb 32 08 6f 3e
       -0.19569632 -0.14187284 -0.0053395517 0.2334297
0002b0 a2 a9 cc ba d1 25 0a be e8 8c 9a bd ee c4 8e bd
       -0.0015614519 -0.13490988 -0.07546407 -0.06971155
0002c0 3f dc 20 3e 79 73 5c 3d 32 ae 20 bd fc f6 fe bd
       0.15709017 0.05382106 -0.039228626 -0.12449452
0002d0 9e 48 3b be 7a ed bf 3a 56 47 8d bd 97 1d 4c 3d
       -0.1828942 0.0014642917 -0.06898372 0.049832907
0002e0 d7 02 f0 3c 1d 87 56 3c cc d2 47 bd 17 7a 8f be
       0.02929823 0.013093737 -0.048785016 -0.28022835
0002f0 cf 81 7f bc 9c c3 a7 bc 89 d8 04 3c a1 2d 6d be
       -0.015594914 -0.020479016 0.008108267 -0.23161937
000300 42 06 71 3b 83 e8 57 bd f2 cf e7 bd de 34 3e 3d
       0.0036777412 -0.052711975 -0.11318959 0.046437137
000310 0b 30 0d 3d a8 96 a0 3d ce bf 0a bd e9 ee e8 3d
       0.034469645 0.078412354 -0.033874325 0.113736935
000320 c4 c4 65 3d 56 f6 c6 bb c5 41 18 3d ad de a7 3d
       0.056095853 -0.006071846 0.037172098 0.08196769
000330 2e 5b a0 bc a5 14 d8 bd 30 4c 3c bd fc 4e 4e 3e
       -0.019574728 -0.10550813 -0.045971096 0.20147318
000340 b1 25 26 bd 0b 47 61 bd 99 b6 56 bc a6 8d 55 be
       -0.04056329 -0.054999392 -0.013105058 -0.20854816
000350 cc a9 94 be ec db a2 3d 59 15 1b 3e 45 2d 4b bd
       -0.29035795 0.07952103 0.15144862 -0.04960372
000360 68 ad 1a be 64 5f 2e 3c 49 52 6d 3d 05 7d a1 bd
       -0.15105212 0.01064286 0.0579398 -0.07885174
000370 9d e3 4a bd c4 4a 20 be d1 a1 74 3c 13 5d 9f 3b
       -0.049533475 -0.15653521 0.014931158 0.0048633902
000380 71 29 96 bd 01 d5 13 3d db 87 44 3e b5 9b 90 bc
       -0.07332123 0.03609181 0.1919245 -0.017652372
000390 c3 8f 8a 3d 96 ce f6 3d 0d f0 0c 3d 4f 9e 84 3d
       0.067657016 0.12051122 0.034408618 0.064755075
0003a0 5c a8 11 3e 46 42 b6 3c c8 50 02 bd 2b a6 07 3e
       0.1422438 0.022248399 -0.03181532 0.13246982
0003b0 a5 81 c0 3d 10 61 e9 bd 9a be df bd 58 91 56 bd
       0.09399728 -0.11395466 -0.10925026 -0.052384704
0003c0 f6 00 36 bd 6d a4 b9 3d ac 13 1c 3e b2 9d 40 3d
       -0.04443451 0.09064565 0.15241879 0.04702539
0003d0 18 6f ad 3c a9 65 79 3d a9 e6 5c 3d 76 c2 f8 bd
       0.021171138 0.060887966 0.053930912 -0.121464655
0003e0 ed c9 c4 bd 9f c1 31 bd a9 21 07 be 48 08 25 3e
       -0.09608827 -0.043397542 -0.13196434 0.1611644
0003f0 14 dc e5 3d 17 5e 0b be ac cd 20 bd a4 54 02 bc
       0.11223617 -0.13610111 -0.039258644 -0.00795475

model.channel_expansion.1.weight f4 [16]
000000 81 a4 86 3f bf 8a 8d 3f 63 2b 90 3f 71 48 6c 3f
       1.0518953 1.1057967 1.126324 0.92298037
000010 b5 5d 84 3f 11 57 89 3f f9 22 90 3f a9 ce 87 3f
       1.0341097 1.0729696 1.1260673 1.0609943
000020 d8 1d 75 3f 3c 65 99 3f 81 2d 78 3f 3d 0c 8f 3f
       0.9574866 1.1984019 0.96944433 1.117561
000030 6c 60 62 3f 9a d1 8f 3f d5 4e 8b 3f 9e 05 8a 3f
       0.8842838 1.123584 1.0883433 1.0782964

model.channel_expansion.1.bias f4 [16]
000000 c0 f6 bc be 4c 45 c4 be 06 58 95 be d0 32 76 be
       -0.36907005 -0.3833412 -0.2916872 -0.24042821
000010 e4 33 87 be e8 f9 87 be 0f 3e d5 be 64 25 8b bd
       -0.26406777 -0.2655785 -0.4164891 -0.06794241
000020 5c 6f f2 3d 64 67 c6 be 70 2a 97 be 62 9f b4 be
       0.11837646 -0.38750756 -0.29524565 -0.3527785
000030 52 db 6c 3b 67 07 99 be 4f be 86 be 3a 4e 46 be
       0.0036141467 -0.2988846 -0.2631707 -0.19365779

model.channel_expansion.1.running_mean f4 [16]
000000 00 cc 51 bb 23 fb 54 bc 8e df b4 3b a9 af b3 bb
       -0.0032012463 -0.012999329 0.005519814 -0.005483587
000010 cc d8 3e 3c ba 13 d5 3a fa 73 3e ba db ae c2 3a
       0.011648368 0.0016256489 -0.00072652067 0.0014853136
000020 2b 0e fb bb d4 ad 3b 39 f1 45 67 bb f0 c8 da b9
       -0.007661601 0.00017898466 -0.003528949 -0.0004172991
000030 0e 2b 4a 3b b3 48 c6 3a bd 6e 27 bc c6 11 cd 3b
       0.0030848416 0.0015127867 -0.010219273 0.0062582223

model.channel_expansion.1.running_var f4 [16]
000000 d2 6b 7e 3c ff d5 41 3c 87 4a 71 3c e7 71 53 3c
       0.015528636 0.011830806 0.014727241 0.012905574
000010 cd e2 4a 3c 7f 80 17 3c 95 57 48 3c d5 71 95 3c
       0.012383175 0.009246944 0.012227912 0.018242756
000020 e4 c7 92 3c 22 b6 87 3c 13 4e 37 3c c0 7c 9b 3c
       0.01791758 0.01656634 0.011188048 0.018980384
000030 fe 7a 28 3c 05 f6 97 3c e1 c7 49 3c 0d b9 63 3c
       0.01028323 0.018549928 0.012315721 0.0138991

model.fe.0.weight f4 [16, 1, 1, 15]
000000 59 a0 28 be 16 22 b9 bd 42 4c 34 be 5e 80 7c be
       -0.16467418 -0.090397045 -0.17607215 -0.24658343
000010 b9 5a 34 be c6 9d fb 3b 8d a5 ae bd 64 dc 03 be
       -0.17612733 0.00767872 -0.0852767 -0.12877041
000020 b8 af 02 be f2 b8 0f be 3d 19 37 bd 06 b6 11 bd
       -0.12762344 -0.14035395 -0.044701803 -0.03557398
000030 b4 ec e9 bd 90 63 ff bd a8 89 bc bb dd c5 bb 3d
       -0.11422101 -0.12470162 -0.0057537146 0.09168599
000040 29 0c db 3d 57 c5 f8 3d e9 5f 87 3e a9 67 45 3e
       0.10695679 0.121470146 0.2644036 0.19277824
000050 a7 c7 21 3e 38 c0 d3 3d 15 1b 50 3e 34 be bd 3d
       0.15798818 0.10339397 0.20322831 0.09264794
000060 4c fe 49 3e ae 68 25 3e 34 be 11 3e 5a 9a d7 3d
       0.19725913 0.16153213 0.14232713 0.10527487
000070 2b af c6 3d eb 37 3e 3e d0 5a d6 bd f6 6b 97 be
       0.097013794 0.18576019 -0.1046654 -0.29574555
000080 c5 82 9b be 3b bf 4e be c4 44 1e 3c de f7 23 be
       -0.30373207 -0.20190136 0.00965995 -0.16012523
000090 8b 03 44 bd 95 31 15 be ce ec 5c be b3 65 06 be
       -0.04785494 -0.14569695 -0.21574709 -0.13124733
0000a0 33 e2 e2 bd a6 c5 5c be 6c 85 46 be cb 90 0f be
       -0.110783 -0.21559772 -0.19386834 -0.14020078
0000b0 9b d9 8f be 9f 76 77 3c dd 0c 61 3e 22 a8 0b 3e
       -0.28095707 0.015103965 0.21977563 0.13638356
0000c0 a2 34 67 3c fb a2 51 3d b7 21 b5 3b 28 4d e2 3d
       0.01411167 0.05118082 0.0055277008 0.11049873
0000d0 1c 95 1b 3e d4 b0 82 3e 5f 79 e4 bd 1f 57 7e 3d
       0.151936 0.25525534 -0.11155962 0.062094804
0000e0 21 e2 35 3e a2 75 49 3e 2c 94 97 bd 91 2c 25 3e
       0.17762043 0.1967378 -0.074013084 0.16130282
0000f0 ee dc 23 3e 60 e8 46 3e 31 e3 8b 3b bc 19 6b 3e
       0.16002247 0.19424582 0.0042690267 0.22959036
000100 67 fb 3e 3b 6a 02 17 3d 32 c2 c6 3d 60 12 93 3e
       0.0029141547 0.036867537 0.097050086 0.28724957
000110 1c 89 e8 bc f0 35 53 3e df cf c9 3d 2c 91 fd 3d
       -0.028385691 0.20626044 0.098541014 0.12381205
000120 93 4d 61 3e bc e8 9e 3d ba 70 1b bd f9 6c 4b be
       0.22002248 0.07759234 -0.0379493 -0.19865789
000130 a3 b0 28 be d5 cc 7d be a1 30 96 bd ce 49 17 be
       -0.16473632 -0.24785168 -0.07333494 -0.14774248
000140 85 37 20 be e5 42 2c bd d7 2d 19 be 59 00 ab bd
       -0.15646179 -0.042055983 -0.14958893 -0.08349676
000150 d8 73 bd bd 1f cc 0e be 24 85 03 bc 85 34 62 be
       -0.09250611 -0.13945054 -0.008027349 -0.22090347
000160 d1 06 03 be 19 74 b2 bd 91 b8 2f be cb 17 9e be
       -0.12795569 -0.0871355 -0.1716025 -0.30877528
000170 19 5c 3c be 3a 35 92 bd 81 06 16 bd 08 a0 46 be
       -0.18394507 -0.071390584 -0.036627296 -0.19396985
000180 b8 f9 f4 bd ec b1 87 bd 7d 10 2d be a9 7d 80 bd
       -0.119616926 -0.06625733 -0.16900821 -0.06273968
000190 4c 95 79 be dc 27 46 be 52 f8 5a be b8 f5 12 be
       -0.24373358 -0.19351143 -0.21383789 -0.14351547
0001a0 53 13 87 be f4 28 a0 bc 0b b1 4a be e0 17 c8 3d
       -0.2638193 -0.019550778 -0.19794099 0.09770179
0001b0 66 46 3e be c4 b2 0f 3e c9 31 91 be 07 77 5e 3e
       -0.18581542 0.14033037 -0.28358296 0.21725093
0001c0 69 a4 8a be 47 90 de 3d 84 20 9b bd 81 9c 39 3e
       -0.2707856 0.108673625 -0.07574561 0.18126108
0001d0 6b a3 97 be fa a9 54 bb d5 73 03 be 35 5c f8 bd
       -0.29616866 -0.0032449947 -0.12837155 -0.12126962
0001e0 53 23 6d 3e 60 c1 4f be ff 0d c4 3c 6e 2e 96 3d
       0.23158006 -0.2028861 0.023932455 0.073330745
0001f0 ea 85 2b be 69 0b 73 3e ce f0 03 be fb 78 9d bd
       -0.16750303 0.23734821 -0.12884828 -0.07689091
000200 65 78 5c 3e 4a ba 31 be 06 63 42 3e 70 bb a2 bd
       0.21530302 -0.1735622 0.18983087 -0.07945907
000210 92 09 ab 3d 07 18 6d 3e 25 5d 8d be cf b6 97 3e
       0.08351435 0.23153697 -0.27610126 0.2963166
000220 83 5b cd 3d d4 78 99 3e c2 94 7f 3e 2c ef 1a 3e
       0.1002722 0.29974997 0.2495909 0.151303
000230 e6 47 cb 3b 4f 20 88 3e 5c 93 b2 3d c7 43 41 3e
       0.0062036393 0.2658715 0.08719513 0.18873511
000240 14 19 cd 3d e3 08 79 3e cc a6 7a 3e e5 55 84 3e
       0.10014549 0.24319796 0.2447769 0.25846782
000250 aa f9 2e 3e d5 cc 75 3e db 17 74 3d 70 2b 05 bd
       0.17087427 0.24003918 0.059593063 -0.03251213
000260 65 db 7b be 05 b4 21 be 1b d8 54 be f7 a4 e3 bd
       -0.24595411 -0.15791328 -0.20785563 -0.11115449
000270 f2 f3 8f bc 7c 1b 04 3c 10 cc 4c be 18 7b 0a be
       -0.017572377 0.008063193 -0.19999719 -0.13523519
000280 f9 67 55 3c 3f cd 59 be 08 09 80 be 9a 2f 2b be
       0.013025277 -0.21269701 -0.2500689 -0.16717377
000290 04 75 40 be ad 5b 56 be 88 8b 39 be a1 44 82 be
       -0.18794638 -0.20933409 -0.18119633 -0.25442985
0002a0 64 98 66 be ac 2e 91 be 16 a4 2b be 63 82 1e be
       -0.2251907 -0.2835592 -0.16761813 -0.15479426
0002b0 5a 81 3e be e3 d7 05 be 61 fa 38 be a6 5e 28 be
       -0.18604031 -0.13070635 -0.18064262 -0.16442356
0002c0 ad 67 10 be 61 8d 4f be 1b c8 2a 3c 1e d0 0b bd
       -0.14102049 -0.20268776 0.010423685 -0.034134023
0002d0 5b aa 9a bd 46 4b 71 bc db 39 0a 3e 93 23 90 bd
       -0.07552024 -0.014727419 0.13498633 -0.07038035
0002e0 a8 c7 a7 3d 56 c7 98 3c 6b 71 f8 3c 85 db bb bc
       0.08192378 0.018649738 0.03032752 -0.022931824
0002f0 02 2a 13 3e 33 ff 1b 3c c4 f7 4f bd 07 d2 37 3e
       0.14371493 0.009521293 -0.050773397 0.17951213
000300 c1 e1 13 be a8 d0 5c 3d c7 41 cb 3d 08 4d 92 3e
       -0.14441587 0.053909928 0.099246554 0.28574395
000310 f0 e0 15 3e d8 60 7e 3e 7b 9b 25 3e eb f0 a9 3c
       0.14636588 0.2484163 0.16172592 0.020744761
000320 d7 fc 90 3d 30 f9 b4 3d 8c f2 92 3d 22 25 63 3d
       0.070794754 0.08836591 0.071751684 0.055455334
000330 56 a5 0d 3e da 58 4a 3e 8e 8f ca 3d bf ce 1e 3e
       0.13832602 0.19760457 0.09890662 0.15508555
000340 38 14 0f 3e cb 3d ed 3d 20 b4 88 3e 84 3e 5c 3e
       0.13972557 0.11584052 0.26699924 0.21508223
000350 e9 8a a5 3e 18 8f 5f bd 2a 77 28 3e e0 2b e5 3d
       0.32332543 -0.054579824 0.16451707 0.11190009
000360 2c cb d4 bb fd 91 40 3d b3 d7 27 3e f9 e3 e1 3d
       -0.0064939465 0.047014225 0.16390876 0.110298105
000370 d5 58 d6 bc 9f 93 cb 3d 6b fc 49 3e 8d e3 ac 3d
       -0.026165405 0.09940266 0.19725196 0.08441839
000380 df 47 ae 3d 80 cf 49 3e 41 9d 13 3e 3b 3e 21 3d
       0.08509802 0.19708061 0.14415456 0.03936599
000390 47 47 c3 3d 92 a4 90 3d 1f ac 2d 3e ad d7 05 3d
       0.095350794 0.07062639 0.1696019 0.032676388
0003a0 a8 ed b6 3d 70 cf eb 3d 32 ee 9c bd c9 85 ad 3d
       0.08932048 0.11514175 -0.0766262 0.08472783
0003b0 1a c9 1d 3e 80 a3 52 3d 09 0d 69 3d 82 da 2c 3e
       0.15408745 0.051425457 0.056897197 0.16880229

model.fe.1.weight f4 [16, 16, 1, 1]
000000 29 39 06 be e1 fd 45 be c8 4b 18 be b4 f7 19 3d
       -0.13107742 -0.19335128 -0.14872658 0.037589744
000010 63 ec 39 be ef ce 50 bd 1f 77 49 be 6c 20 7e 3e
       -0.1815658 -0.050978597 -0.19674347 0.24817055
000020 47 89 ea bc 55 cd 6e be 96 da 4d 3e 59 d4 8e bd
       -0.028629912 -0.23320515 0.20102915 -0.06974096
000030 7a 81 db bd 36 6f e7 bd 6f c5 47 3d ad 64 bf bd
       -0.10718055 -0.11300509 0.04877227 -0.09345374
000040 ac c1 d2 3c 11 27 84 be 8f d7 ca bd 72 42 1a 3e
       0.025727116 -0.25811055 -0.09904396 0.1506441
000050 5c 2c 9a bd b5 57 1e be 79 3c 2a be 69 d9 56 3c
       -0.07527992 -0.15463145 -0.16624631 0.013113358
000060 97 63 e1 bc 44 e1 90 be c5 c2 d7 3d 2f 33 bd bd
       -0.027513308 -0.28296864 0.10535196 -0.09238278
000070 93 c8 49 3d 8b ff 67 bd 75 13 e4 3c 65 7d 9d be
       0.049263548 -0.05664019 0.02784131 -0.3075973
000080 e7 9c 71 be c4 a1 08 be 58 ca 80 be 6b 42 18 be
       -0.2359501 -0.13342959 -0.25154376 -0.14869086
000090 de 19 22 be 94 9b 56 be d3 f5 5a be 7f fe ee 3c
       -0.1583018 -0.20957786 -0.21382837 0.029174088
0000a0 e6 32 5c bd 09 73 30 be fa 6e 03 3e 3c 26 92 3d
       -0.053759478 -0.17231382 0.12835303 0.07136199
0000b0 31 1b 40 be 91 a5 48 be 28 ab 14 bd 9c 4e 95 be
       -0.18760373 -0.19594409 -0.03629604 -0.29161537
0000c0 f2 54 59 be 4b 82 c9 bd 8f 82 24 be 11 88 f1 bb
       -0.2122381 -0.098393045 -0.16065429 -0.0073709567
0000d0 01 a7 d1 bd 0f b8 b3 bd 95 22 7b be 9b 6c 64 3e
       -0.102369316 -0.08775341 -0.24524911 0.22307055
0000e0 93 57 89 bd 4c f4 99 be 60 21 3b 3e 27 7d 99 bd
       -0.067061566 -0.30069196 0.1827445 -0.07494574
0000f0 fa f3 d7 bd 0a 10 97 be 14 0d 9b 3c 30 b5 4d be
       -0.10544582 -0.29504424 0.018927135 -0.20088649
000100 cf 3c 0d 3e 91 62 aa 3d d3 48 dc 3d 60 32 a7 bd
       0.13792728 0.08319581 0.107560776 -0.08163905
000110 55 e0 37 3d ae 9b 30 3e 22 58 d1 3d 88 01 df 3c
       0.044891674 0.17246887 0.10221888 0.02722241
000120 5e 48 d9 bd 95 80 e6 3d 10 1f 6c bd c0 f7 5e 3e
       -0.10609506 0.11254994 -0.05764681 0.21774197
000130 5f 67 35 bd 07 0d 2f 3e a4 1f 13 be 87 dc 40 3d
       -0.044288035 0.17094813 -0.14367539 0.04708531
000140 bf 83 46 bd 1f 24 84 be 30 64 89 bd 4b 6e 26 bd
       -0.048465487 -0.25808808 -0.067085624 -0.040632527
000150 6b b9 32 be 91 b6 21 be 1d ac 08 be 31 f6 b5 3e
       -0.17453544 -0.157923 -0.13346906 0.35539392
000160 51 a4 8b bb 52 e0 70 be 43 c7 b2 3d 7a 68 c6 bd
       -0.0042615314 -0.23523071 0.087294124 -0.09687896
000170 0c 5b 1a be bb 01 b2 bd de 2d 38 3d f9 d0 95 3d
       -0.15073794 -0.08691736 0.044965617 0.07315249
000180 d3 3d 57 3e 05 3d 24 3e 6b af ac 3d fa 8a 69 bd
       0.21019678 0.16038902 0.08431896 -0.057017304
000190 b0 9b 82 3d 9f 85 57 3e ec 76 6a 3d b2 57 0c 3d
       0.06377351 0.21047066 0.05724232 0.03426332
0001a0 a0 2a ee bd 00 98 d3 3d f7 68 97 bd f5 1d 8d 3e
       -0.11629224 0.10331726 -0.07393067 0.27561918
0001b0 8e ba 54 bd 76 c2 ef 3d 6e 50 e0 bd f4 05 a1 3d
       -0.051935725 0.11707012 -0.10952841 0.078624636
0001c0 68 c8 69 be d8 10 69 be 03 20 30 be 87 c0 93 3d
       -0.22830355 -0.22760332 -0.17199712 0.07214456
0001d0 be 93 3f be f2 ca e0 bc 7a 85 db bd d4 05 6e 3e
       -0.18708703 -0.027440522 -0.10718818 0.23244411
0001e0 90 28 1d bd 23 2b 8e be a7 2e 46 3e c8 29 00 be
       -0.03836876 -0.27767286 0.19353734 -0.12515938
0001f0 64 e2 e2 bd f3 15 c7 bd 39 d7 bf 3d 71 08 34 be
       -0.11078337 -0.09720983 0.09367222 -0.17581345
000200 73 08 d8 3d 1f d8 76 3d ed 03 bd 3d c1 49 bd bc
       0.105484866 0.060264703 0.092292644 -0.023106458
000210 c9 f6 83 3d c2 ae 3f 3e 47 e3 ca 3d 62 c7 53 3a
       0.06443555 0.18719009 0.09906631 0.00080787216
000220 38 a3 ab be 59 77 8c 3d ed 4a b7 bc e1 e1 f5 3d
       -0.33522964 0.06858701 -0.022374595 0.120059736
000230 90 4a 00 be 52 40 42 3e 07 b2 a1 bd 8a 2a 9c 3d
       -0.12528443 0.18969849 -0.07895284 0.07625301
000240 54 68 5c 3e 46 88 77 3d 82 3d 08 3e f7 8c 22 be
       0.21524173 0.060432695 0.13304713 -0.15874086
000250 d4 2e 9f 3c 64 e6 e6 3d ce cb ee 3d 8c 16 95 3d
       0.01943151 0.11274412 0.116599664 0.07279691
000260 9d 28 40 3e eb 24 3a 3e 96 26 c0 bc 4c f5 5e 3e
       0.18765493 0.18178146 -0.0234559 0.21773261
000270 45 9e b7 3c cd a4 1c 3e 65 5d 23 be 2e 47 f6 3c
       0.022414336 0.15297242 -0.15953596 0.030063238
000280 df 31 1f bd c7 d2 4f be 7f ab 1f be 4c 22 97 3c
       -0.03886592 -0.20295249 -0.15592764 0.018448971
000290 9c a4 18 be 71 50 b9 bd 90 cd 5c be df 3d 94 3e
       -0.14906543 -0.09048546 -0.21562791 0.28953454
0002a0 69 d1 d2 bc 1e 2d 7a be 3a 9e ec 3d b7 c4 39 bd
       -0.02573462 -0.24431273 0.11553617 -0.045353618
0002b0 86 77 e3 bd 01 73 13 be e5 33 52 3d 5d 39 19 bd
       -0.11106782 -0.1439934 0.05131902 -0.03740822
0002c0 44 bb 77 bd 3c 82 2d be 2d f9 9e bd a8 71 ae 3c
       -0.060481325 -0.16944212 -0.0776237 0.02129443
0002d0 14 bd fd bd 23 a1 c7 bd 45 e2 31 be c5 67 35 3e
       -0.123895794 -0.09747531 -0.17371471 0.17715366
0002e0 6e 61 26 bd 54 95 7f be 75 9b 26 3e da b2 2f be
       -0.04062026 -0.24959308 0.1627024 -0.1715807
0002f0 66 41 90 bd ac ad 47 be 8e db fa 3c 80 a0 09 be
       -0.07043724 -0.19499844 0.03062227 -0.13440132
000300 de 5c 90 3d 35 66 85 3d cc 8c 29 3e 13 b2 ff bd
       0.07048963 0.06513635 0.16557616 -0.12485137
000310 8e 3c 40 3d 85 ad 0d 3e 1b a0 3f 3e 53 e6 df 3c
       0.04693275 0.13835724 0.18713419 0.027331507
000320 95 ce 18 be 03 f9 03 3e b4 99 a2 bc a1 78 1f 3e
       -0.14922555 0.12887959 -0.019848682 0.1557336
000330 5a 58 76 bd cb 1a 52 3e 78 fa 25 be e7 87 95 3d
       -0.060142852 0.20518033 -0.16208827 0.07301312
000340 b7 9b 85 3e e0 db 63 3d 18 ea ee 3d 13 ff 80 3c
       0.26095363 0.05562961 0.116657436 0.015746629
000350 7f b1 d9 3d 53 f2 69 3e 08 69 0b 3e 7d 29 22 3d
       0.10629558 0.22846346 0.13614285 0.039590348
000360 96 24 58 be 46 9c 92 3d 3e 8b 15 3c 9d d3 85 3e
       -0.21107706 0.07158713 0.009127436 0.2613801
000370 c4 ef fb bc 16 02 1f 3e d7 6c b2 bd be ad 19 3e
       -0.030753978 0.1552814 -0.08712166 0.15007684
000380 ce ae 0d 3e 9a 27 b7 3d 76 b1 23 3e 7c 58 fc bd
       0.13836214 0.089431 0.15985665 -0.123215646
000390 9c cc 2f 3d 04 ff fe 3d 91 2d 05 3e b4 7c 96 3c
       0.04291974 0.12450984 0.13005663 0.01837001
0003a0 ba 25 b0 bd 38 e3 d3 3d e3 3f 17 bd b7 0b 81 3e
       -0.08600946 0.10346073 -0.03692616 0.2520425
0003b0 62 5d 10 be e9 53 83 3e 8a ed 34 be a3 64 a0 3c
       -0.14098123 0.25649956 -0.17668739 0.019579237
0003c0 b7 b6 4d 3e e1 8b bf 3d 67 f1 89 3e f3 d1 9d be
       0.20089231 0.09352852 0.26941988 -0.3082424
0003d0 b0 25 85 3d b4 7a 9b bc aa 5d 02 3e 02 89 c9 3d
       0.06501329 -0.018979408 0.12731043 0.09840585
0003e0 07 3c 97 3e f3 40 45 3e 5b 5e e9 bd 38 b1 f8 3d
       0.29537985 0.19263057 -0.1139495 0.12143177
0003f0 0a 8d 0d 3e 82 9c ff 3d 1b 09 47 be 8c d2 65 bd
       0.13823333 0.12481023 -0.19437067 -0.056108996

model.fe.2.weight f4 [16]
000000 fe 22 b9 3f b2 cd 9f 3f e5 59 af 3f b6 94 cf 3f
       1.4463804 1.2484648 1.3699309 1.6217258
000010 88 28 bb 3f eb de ac 3f b7 bd bf 3f 08 e0 bc 3f
       1.4621744 1.3505529 1.4979771 1.4755869
000020 67 ff c9 3f 85 1c b9 3f 57 d9 bb 3f 0f f0 c2 3f
       1.5781068 1.4461828 1.4675702 1.522951
000030 27 c5 bf 3f 9b c8 a6 3f 39 a3 bd 3f 21 aa b9 3f
       1.4982041 1.302997 1.4815437 1.4505044

model.fe.2.bias f4 [16]
000000 a0 e0 a8 bd 47 72 47 bd 3c 87 4a bd c7 1d 7a bd
       -0.08245969 -0.048692968 -0.049445376 -0.061063554
000010 92 e0 ad bc f5 a5 8d bd 28 be cb bc 5d aa 67 bd
       -0.021225248 -0.069164194 -0.024870947 -0.056558955
000020 10 a3 c3 bc 8f 1c 0c 3c a6 a0 a5 bd 4b f7 a5 bd
       -0.023881465 0.008551731 -0.08087282 -0.08103808
000030 35 6b c0 bb 5e d1 71 bd 6f 8a 17 bc 4e bc 25 3b
       -0.005872155 -0.05903756 -0.009249314 0.002528924

model.fe.2.running_mean f4 [16]
000000 dc c6 fb 3b ca 62 54 3d f8 84 5c bc cc fb 88 bc
       0.007683618 0.051852025 -0.013459437 -0.016721629
000010 3e 26 65 3d 99 c3 fd 3c 02 f4 4a 3d 46 fc 8c 3c
       0.055944674 0.030977057 0.04954911 0.017210137
000020 f6 36 e8 3c 93 08 b0 3d 82 0d 43 3c b1 24 7f 3c
       0.02834652 0.085953854 0.011905076 0.015572713
000030 50 fc 83 3d a3 f1 e5 3d 00 5a 90 3d 09 c3 87 3d
       0.06444609 0.11227729 0.07048416 0.06628997

model.fe.2.running_var f4 [16]
000000 8d 7b b0 3d 8a 88 8d 3d 93 41 95 3d 0d a1 fb 3d
       0.086173154 0.069108084 0.07287898 0.122865774
000010 01 f4 67 3d ee a8 d0 3d e8 5e 7b 3d ac f6 d1 3d
       0.056629185 0.10188471 0.061369807 0.10252127
000020 14 ce c2 3d d5 7d a6 3d a8 8b be 3d a1 42 ab 3d
       0.095119625 0.08129469 0.09303981 0.08362318
000030 39 60 8e 3d 6f fe da 3d e6 b5 97 3d d0 b9 e9 3d
       0.06951947 0.106930606 0.07407741 0.11412394

model.classifier.0.weight f4 [1, 16]
000000 56 22 2b 3f 0b 45 a3 3e 25 de 0c 3f 12 61 0a 3f
       0.6684927 0.31888613 0.55026466 0.5405437
000010 d0 1a 1d bf 32 c8 c2 3e e5 e7 e3 be 67 9c 12 3f
       -0.6136904 0.38043362 -0.4451286 0.572699
000020 0b 57 0f bf 2a 04 07 bf 87 07 35 3f a5 65 18 3f
       -0.5599219 -0.5274073 0.7071461 0.595301
000030 81 e5 10 bf ed 1c 8a be 73 10 ef be df c6 ca be
       -0.56600195 -0.26975194 -0.46692237 -0.39604852
