eeg_online/lightning_logs/dreyer_source/version_2/checkpoints/epoch=99-step=9800.ckpt (torch, 67146 bytes, 50 tensors)

model.input_block.1.weight f4 [40, 1, 1, 25]
00000000: b005 893e db7c 863e 58c0 ebbd 5158 3dbe
00000010: 6c49 35be d780 a1bd ebe9 0abe 4447 763d
00000020: 39cb 80bd 17d5 863d 459e 4b39 7143 3c3d
00000030: 8163 d8bd 408a 84bd a750 1ebd d05a fc3c
00000040: eca5 b73d c2d2 fb3d a642 0ebe 058b c5bd
00000050: d30e 733d 2522 1b3e faf8 73bd 1995 ee3d
00000060: 58c9 cbbd 47b4 943e 94b7 ce3e d623 c4bc
00000070: 6ff5 5cbc e0c8 283d b35c d63c a7a7 9e3e
00000080: 7f01 243d f866 b03d a761 543b 8cd8 febd
00000090: b112 19be 02d1 923d 507c cbbc e8c0 873c
000000a0: e418 85b9 d728 b7bc 0e47 513e 9d77 723d
000000b0: 03aa 1d3e e1cb 5a3e b535 d83e e44a ba3e
000000c0: de8f ac3d 8bce 8e3d d480 b83e c73e ac3e
000000d0: f407 f53d 0b55 45bb 48f9 923d b72f 35be
000000e0: 1206 683b 18e1 1dbe 579b d7bd d860 54bd
000000f0: 52b9 0a3e ea9d c13d dd01 17be 5cd7 cfbb
00000100: 83ff dc3c 5598 c1bd 2cf0 a9bc 8a76 993d
00000110: 52fd 553e 7b9a a13e 849b b7bc d757 e63c
00000120: 6a40 e33d 97f0 cc3d dd43 13ba 0a97 f9bd
00000130: 2994 52be 1c98 b0be 47a4 90bd 288a 0fbe
00000140: 6f40 1bbe 189a 6f3e eddb 543e 70ce 1cbe
00000150: 1c34 a23d 4b82 7f3c 9f58 f93c 65c7 99bc
00000160: 69ef 143e 42a5 8dbd a411 ce3d 517c f53d
00000170: 6c8d 303e ddc0 013e 8924 ffbd 53f1 56bd
00000180: 4ddb 163e 7290 633c d930 9abe d138 c8be
00000190: 0c2d a43e 2837 303e a99e e2bd b9ef cfbd
000001a0: 1b42 79be 05cd 1bbd 83fb 1ebe c31d 02be
000001b0: 92b2 293d b2de c13d 3d79 adbc f0e5 233e
000001c0: d144 e2bd b21a 233e 77b7 b53d fc7d 68be
000001d0: 1c59 ccbd 947d 9bbc 3286 df3c 9c0c 873d
000001e0: 221b da3d 0101 143d c9cb b7bd f5a9 9b3d
000001f0: 2cf3 78be 007e 9b3d 28c7 163e 0c14 c33d
00000200: f6a3 ea3d 866f 703b 95aa b53d 61ca f23d
00000210: d00c f2bd a8d8 5fbd a8b6 713d da35 04be
00000220: 0946 fbbd 275b 30be 2582 15be 9cb9 a8bd
00000230: bc45 87bc 583e 28bd d7e8 b53d 79be 11bd
00000240: e8cf 01be b603 703c e2f1 8f3e c3c2 223e
00000250: e06f 6e3d 08f9 80bc 9c19 5cbe 4886 01be
00000260: 4d51 803d bf21 803e 68ec 813e f9df 94bd
00000270: b6b8 513e b6d5 e4bd 6974 58bc c8a0 34bd
00000280: f782 bd3c c966 4e3d 57a7 93bd 57cd 85bd
00000290: 2cfc 683d 584d 773d fd70 7dbd 796c b33d
000002a0: 3e92 2dbe c76d af3b 559f 513e b1d1 41bd
000002b0: 12b1 5b3e 3b38 d53d 1a6e 18be 54ad cf3d
000002c0: 8f8e 3c3d 4b30 d1bc e745 123e 2f77 83be
000002d0: 5518 cabd 2c7b eabd 22a1 213e 90dd fb3d
000002e0: 59de 1d3e 3ca6 613d b939 0ebe 42c1 1cbe
000002f0: 809f 68be e2af 0e3e 0f61 833e db7e 773e
00000300: 78ac abbd 9334 23bc 8ea2 45be bfeb 05be
00000310: ba97 60bd c330 4b3e a56e c13b 0ae7 713d
00000320: 9c30 42bd f225 ad3d 0419 3dbe dcdc 20be
00000330: fd12 f2bd b51c 233e 2fbb 16bd 0e62 523e
00000340: ff1e c03d cd03 9c3c 4c80 1ebd 1b00 d2bd
00000350: 8ab3 60bd cf22 08be b17c b9bd c861 75bd
00000360: 4bf8 69be 3546 1abe 461e 1b3e ba3a 0dbe
00000370: e176 ea3c ac78 6f3e f594 9d3d 2a41 06bd
00000380: 0e7d 7ebe f71f 9ebd a99d a2be 52ea 48be
00000390: 63e4 23be 1490 abbd 45ac 09bd 0d59 003e
000003a0: 719f 0fbd 2781 c13d e828 c33c 7581 5ebe
000003b0: fa22 d13c 2dbb 31be a9ea c0bd adfd 543d
000003c0: bc97 313d cf92 ce3d 29d9 12be 3bd7 dcbd
000003d0: 4e6e 00bd d2b0 b1be cfc1 31bc 4107 95be
000003e0: 437a 58bd e499 993c dae9 09be 578b abbb
000003f0: e45a 003e e3d2 eabd 1a75 44be 1456 20be
0.26762152 0.26267132 -0.11511296 -0.18490721 -0.1770379 -0.078859024 -0.13565795 0.060126558
-0.06288762 0.065836124 0.00019418549 0.045962755 -0.10565854 -0.064716816 -0.038651135 0.030805022
0.08967194 0.12296058 -0.13892612 -0.096456565 0.05934031 0.15149744 -0.059563614 0.11649532
-0.09950513 0.2904379 0.40374434 -0.02394287 -0.01348625 0.041207194 0.02616725 0.30987284
0.04004049 0.0861339 0.0032406838 -0.12443647 -0.14948536 0.07168771 -0.02483955 0.016571477
-0.00025386282 -0.022358341 0.20437261 0.059196103 0.15396886 0.21366836 0.42228475 0.36385262
0.08425878 0.06972989 0.36035788 0.33641645 0.119644076 -0.0030110504 0.07176453 -0.17693983
0.0035404009 -0.15417898 -0.105276756 -0.05185017 0.13547257 0.09453948 -0.14746805 -0.0063428115
0.026977306 -0.09452883 -0.020744406 0.07493313 0.20897415 0.31563172 -0.022413023 0.028118057
0.110962704 0.10006826 -0.00056177174 -0.121870115 -0.20564331 -0.3449105 -0.070625834 -0.14017546
-0.15161298 0.23398626 0.2078702 -0.15313125 0.07920095 0.015595029 0.030437766 -0.018771837
0.14544453 -0.06916286 0.100619584 0.11986602 0.17241448 0.12671228 -0.124581404 -0.05247624
0.14732094 0.013889419 -0.30115393 -0.39105847 0.32065618 0.1720854 -0.11065418 -0.10153145
-0.24341623 -0.03803732 -0.15525632 -0.12706666 0.041430064 0.09466304 -0.021175975 0.16005683
-0.11048282 0.15928152 0.08872884 -0.22704309 -0.09977934 -0.018980779 0.027285669 0.06594202
0.106497064 0.03613377 -0.08974416 0.07600776 -0.24311513 0.07592392 0.1472441 0.09525308
0.11457054 0.0036687567 0.088704266 0.11855007 -0.1181885 -0.05464998 0.059012085 -0.12911168
-0.122692175 -0.17222272 -0.14600427 -0.08238527 -0.016512744 -0.04107508 0.08882301 -0.03558204
-0.12676966 0.014649322 0.2811423 0.15894608 0.05821216 -0.015743747 -0.21494144 -0.1264888
0.06265507 0.25025746 0.25375676 -0.07269282 0.20480618 -0.111735746 -0.013211348 -0.044098645
0.023133738 0.050390992 -0.07209652 -0.06533306 0.056881115 0.060376495 -0.061875332 0.08760924
-0.16950318 0.0053536627 0.20470937 -0.047319118 0.21454266 0.10411116 -0.1488575 0.101404816
0.046034392 -0.025535723 0.14284478 -0.25676867 -0.09867922 -0.114492744 0.15784124 0.12298119
0.1541685 0.055090174 -0.13889207 -0.15308097 -0.22717094 0.13934281 0.25659987 0.24169485
-0.08382505 -0.009961265 -0.19300291 -0.13078211 -0.054832198 0.1984282 0.0059030824 0.059058227
-0.04740964 0.08454503 -0.18466574 -0.15709251 -0.11820028 0.1592892 -0.036799606 0.20545217
0.09380912 0.019044781 -0.038696572 -0.10253926 -0.05485872 -0.13294528 -0.09056986 -0.059907705
-0.22848623 -0.15065844 0.15148267 -0.13791934 0.028621139 0.23385876 0.07694427 -0.03277699
-0.24852392 -0.077209406 -0.3176091 -0.19620636 -0.16005091 -0.0837709 -0.033611555 0.1253397
-0.035064165 0.09448462 0.023823217 -0.21729071 0.025529373 -0.17356558 -0.09419758 0.051999737
0.043357596 0.10086595 -0.14340653 -0.107832395 -0.031355195 -0.34705216 -0.01084943 -0.29107097
-0.052850973 0.018750139 -0.13468114 -0.0052351165 0.12534672 -0.11466005 -0.19185296 -0.15657836

model.input_block.2.weight f4 [40]
00000000: 9e3a 7e3f 7e8d 953f bd9a 893f 22f0 913f
00000010: 5efa 823f 6cb8 6b3f 1e02 6c3f a9be 8b3f
00000020: b175 853f 353e 903f 4d69 923f 4a47 943f
00000030: cc48 8e3f 88a8 863f d763 783f 0e02 843f
00000040: 09c0 833f dbdc 703f 6357 8a3f 66a5 863f
00000050: 2836 6f3f bc19 8c3f 0e0f 913f 9d94 5d3f
00000060: 4d52 833f 278d 7a3f 55d2 8e3f 59d2 6e3f
00000070: 9fb2 8c3f 6e62 8e3f 3dee 8e3f 8c71 823f
00000080: 3f97 933f 8d57 8f3f 9297 8a3f bf91 813f
00000090: b8e6 603f 6c07 853f 0491 7e3f 77ab 883f
0.9930819 1.1683805 1.0750347 1.1401408 1.0232656 0.9207828 0.9219073 1.091756
1.0426542 1.1268984 1.1438385 1.1584256 1.1115966 1.0520182 0.97027344 1.0313127
1.029298 0.94087 1.0807918 1.0519226 0.9344201 1.0945354 1.1332719 0.8655489
1.0259491 0.9787163 1.1157938 0.93289715 1.0992011 1.1123788 1.1166455 1.0190902
1.1530532 1.1198593 1.0827506 1.0122603 0.8785205 1.039289 0.99440026 1.0677327

model.input_block.2.bias f4 [40]
00000000: 2009 bcbd fb1d 323d 39ab d6bd c12b 0e3d
00000010: 17ae 3abc 22a5 413d 6b5b c5bc 3012 cabd
00000020: 0346 063c c911 633d 25f1 bcbd ee02 b43c
00000030: e309 01bd 898f 2fbd 8943 aabc b4c2 f4bd
00000040: f3f6 8ebd 06f1 15bd 36a4 823d f31d 803d
00000050: a6ba 353b b997 693c 2e8e 67bd c76f 593d
00000060: 4ec5 96bb 58dc 2abd cdbc ba3d 6c4c 9cbc
00000070: 770b b0bc a6f0 903c 4116 a63c ace1 ce3d
00000080: dbf8 32be e67f 8a3d af36 e4bd bd17 443d
00000090: 990a 0fbd b169 483d 655e 183b 40fc e0bc
-0.09181428 0.043485623 -0.10481877 0.034709696 -0.011394045 0.047276624 -0.024091443 -0.0986675
0.008195403 0.055436883 -0.09225682 0.021974053 -0.03150357 -0.042861495 -0.020784156 -0.11951199
-0.069806956 -0.03660681 0.06378977 0.06255712 0.002772966 0.014257365 -0.056532077 0.053085115
-0.0046011573 -0.041714042 0.09118042 -0.01907941 -0.021489842 0.017692875 0.020274283 0.10101637
-0.17477743 0.06762676 -0.111432426 0.0478742 -0.034922216 0.04892892 0.0023249623 -0.027464032

model.input_block.2.running_mean f4 [40]
00000000: 3a0d 97af 59bb a731 bb15 5a31 6339 d7b0
00000010: c1f8 5c2f d4c2 292f acca 3130 05b0 d72f
00000020: 2d7f 10b1 13ef a5b1 8acb 95b0 d263 fab0
00000030: 918d a4b0 52b8 8431 036a f2b0 5413 3bb0
00000040: 2498 28b1 9264 71b0 3879 a031 497c 07b1
00000050: 1f17 832f 077b 2e31 0811 92b0 447d ee30
00000060: 1680 92b0 999e 98b0 9f44 1c30 2450 71ae
00000070: 3867 bd2f 5c1d 5431 1c5f 10b1 d7b1 5331
00000080: 923b 4f31 c930 2731 a9dd 63b1 8eec e42f
00000090: 654a 4b30 8fc8 51b1 5d6a aab0 06cb 2ab0
-2.7476138e-10 4.8816386e-09 3.1735528e-09 -1.5659619e-09 2.0097259e-10 1.5439677e-10 6.468024e-10 3.9233342e-10
-2.102705e-09 -4.8293116e-09 -1.0899026e-09 -1.8218265e-09 -1.1972806e-09 3.8626604e-09 -1.7637948e-09 -6.805767e-10
-2.45337e-09 -8.781821e-10 4.670394e-09 -1.9715733e-09 2.384519e-10 2.5390265e-09 -1.0627739e-09 1.7352382e-09
-1.0659302e-09 -1.1104532e-09 5.6849986e-10 -5.4868235e-11 3.445224e-10 3.086675e-09 -2.1008821e-09 3.0805631e-09
3.0156326e-09 2.432943e-09 -3.3158847e-09 4.164104e-10 7.395669e-10 -3.0527507e-09 -1.2399358e-09 -6.2134153e-10

model.input_block.2.running_var f4 [40]
00000000: 722e 982d 1cb3 ae2e 9761 532e c87e 9d2e
00000010: 60da b12d 070f 3d2e 1ba7 5f2d 6843 8b2d
00000020: bff1 b12d e21d 1e2e 4560 932e 02c7 282e
00000030: 2b21 e22d ab11 d92d 6586 ec2d d244 f02d
00000040: 3d8e bc2d 0cbb f32d f492 572e f2c8 182e
00000050: eb03 802d e4c9 692e 30c4 862e a05c 722d
00000060: 6c79 032e c7b2 9e2d 1cd2 222e 54ef 662d
00000070: f255 162e dd7f 4f2e 85e7 b92d 0ed1 262e
00000080: af9f 952e fda2 a92e 95c2 3b2e b40a c62d
00000090: 45f7 f12d 2283 242e 17dd 132e 86f8 d12d
1.7301025e-11 7.94442e-11 4.8062523e-11 7.162054e-11 2.0219548e-11 4.298697e-11 1.2713187e-11 1.5832405e-11
2.0229927e-11 3.5951582e-11 6.701887e-11 3.8375532e-11 2.5707955e-11 2.467789e-11 2.6889777e-11 2.7315403e-11
2.1436292e-11 2.7708967e-11 4.901586e-11 3.4739274e-11 1.4553655e-11 5.315738e-11 6.1284644e-11 1.3776674e-11
2.9893796e-11 1.8041913e-11 3.702115e-11 1.3127128e-11 3.4182386e-11 4.7179916e-11 2.113488e-11 3.7929708e-11
6.804101e-11 7.714183e-11 4.26917e-11 2.2514747e-11 2.7508338e-11 3.7405752e-11 3.3620298e-11 2.3870916e-11

model.input_block.3.weight f4 [40, 1, 27, 1]
00000000: c743 543d 50ce dabd b635 153c dbb4 06be
00000010: 2785 49bc dce6 803d fb7d 6dbe c9d7 473d
00000020: 79ac 20bd 0597 21bd 76e8 aa3d 2315 0e3e
00000030: 11cb 173e f402 cebd 278d 263d 2f80 cc3d
00000040: a88a 213e 4797 113c 4b58 4fbe 83d9 1a3e
00000050: fbd5 1f3e b0e6 b9bd 995a c33d c951 1c3b
00000060: b0f2 1bbe c8b0 90bd 3e42 76be fa0d e23d
00000070: fa27 ad3c 869e 5e3e 3291 303e e808 67bc
00000080: a3db c2bd 83e3 83be 93c1 023d 6893 14bc
00000090: e6e2 9abe ceeb 9b3c 613f bebd 89c4 2c3e
000000a0: 94f2 51bd aff1 393e f09e 23be 87e8 f0bd
000000b0: 129a c63d 13c7 093d f3f1 883d 1687 a53c
000000c0: bd4f 42be 3a07 e03d 97c5 7dbd c154 23be
000000d0: fdda eb3d 7a0a 423e e80e 56be bfbd 41be
000000e0: c971 87bc f750 b0bd 316a 04bc 8dfe 9a3c
000000f0: b7f0 383e 0a4b 563e 179d 383d f264 d23e
00000100: f837 a4bd aad7 10be a1b8 9cbd 8ed2 ebbd
00000110: 16c5 143e a4a3 193e 75c1 113d 0b43 96bd
00000120: 8d31 8cbd 1ac7 863b 37dd 663e 2389 9bbd
00000130: 2ee9 dfbd c51c a6bd 7fdf 4d3e 9d24 d7bd
00000140: 1950 17be b8ee abbd e471 193e 9995 263d
00000150: 8049 043d 2bd6 343d 4a2e 283e 364c 043e
00000160: d078 7fbd 0968 77be 223c 9cbe 997d 0d3e
00000170: 7f94 773d 4ee2 133e e20c 9bbd d4e1 3c3d
00000180: 1fe1 87bd cc2d 3abe 6f98 a23d 45b2 693e
00000190: 1d3b 28be e1ac 26bb f113 983d c5f8 3b3d
000001a0: 83b1 acbd f60b 223e 95ba c5bd 489b fabd
000001b0: 15a8 1b3e a086 133e 54a0 673d 012b a2bd
000001c0: f9a1 1dbd 8e4c c03d caf9 4bbe 28a1 9abe
000001d0: ec72 013e 8fd2 2ebe 7178 243c d608 053e
000001e0: 3fdb f63d 2c35 03be 44cb 19bc b27e 0d3e
000001f0: 6452 1fbe 06aa 0bbe b187 45be a1b2 eb3c
00000200: dfcb 843e 7507 ad3c 7521 053d acdd fb3d
00000210: 5cb9 babd 34f7 2c3e 320c 39be e646 9fbd
00000220: 200f 4a3d 6154 303c 4b72 093e dab3 d3bd
00000230: 05d8 bd3c 647e 083e 43ad b5bc 090e 13be
00000240: fd8f 0d3d 4dcc e2bd 791c a83c fb78 39be
00000250: 3666 253b 40ec 78be 66d3 8c3e 3652 91bd
00000260: f9ac 9dbd 9523 3c3e 17a5 523e 2be5 e7bd
00000270: d58d f6bc 569b 343e 94a2 84bc 09c7 163e
00000280: 4f5a a5bd d26f 4abe c1b6 e7bc 5788 0d3e
00000290: 9c26 e03d a0db 47be 151f 543b e428 663d
000002a0: 4dc7 f93c 886a 9d3c 94cc 64bd cad4 dc3d
000002b0: a400 d3bc 9093 c5bd 66d3 aebc f26e df3d
000002c0: a0ea dc3d 6cba 973a d5f8 61bd c1c5 eb3b
000002d0: cc80 97bd 57df 68bd 2dfe 033e bf06 acbd
000002e0: 067e 55bd 7925 f6bd 301b 6b3b 0f57 523e
000002f0: 3882 bc3e 6513 4abd 40aa a93d 52a7 4f3e
00000300: 8186 1d3e 513b 653e 6b5f e8bc 8938 9bbe
00000310: abd2 ce3e 94b0 c2bd d5cd a63c b59c 83bd
00000320: 806f a9bd 3864 0d3e ded9 4c3e cdb4 7bbd
00000330: 5958 51be 95ae f6bd 0d18 08bc 03e2 073e
00000340: 57af 5e3c 2593 06bd c3ee f1bc 93ec bc3b
00000350: 3e09 633d 4ff8 5cbe a07d 32be e948 1bbe
00000360: b391 9abc 6001 253d 1de8 15be 369f 863d
00000370: 4a41 623e d0d3 763d 05f6 8bbc 79f3 07be
00000380: cfa0 3dbd 3631 cabc 6d83 12be 9549 4a3d
00000390: a7d8 6c3d 7040 6dbe a8eb c43d dd92 743e
000003a0: fc6a cbbd 58d3 c9bd 1f04 6d3e 0a6f 53be
000003b0: 5dae 953d 2c13 36bd 3598 de3d 4c76 d6bd
000003c0: 6ffd 77be 5774 7c3d 71d8 0b3e 80e4 5abe
000003d0: 1125 7ebe 0b5c 8cbe 6356 50be 975f 0ebe
000003e0: b20a 733e 5e6b 333e 6a8f 4b3d 2983 803e
000003f0: 2f68 b33e c09b 44bd 7072 283d 809e 263d
0.05182245 -0.10683882 0.009107044 -0.13154928 -0.012299812 0.06294033 -0.23192589 0.048789773
-0.039226983 -0.039450664 0.0834512 0.1387525 0.14823557 -0.10059157 0.040661957 0.099853866
0.1577555 0.008886165 -0.20248525 0.15122037 0.15608971 -0.09077203 0.095387645 0.0023852459
-0.15229297 -0.07064968 -0.24048707 0.11037822 0.021137226 0.2174016 0.17242888 -0.0141012445
-0.09514549 -0.25759515 0.031922888 -0.0090683475 -0.30251235 0.019033339 -0.09289432 0.16871847
-0.05125673 0.18158601 -0.15978599 -0.11763101 0.09697355 0.033637118 0.06686773 0.020206016
-0.1897573 0.10938878 -0.061956014 -0.159503 0.11516378 0.18949309 -0.20904124 -0.18920039
-0.01653375 -0.08609193 -0.008081959 0.018920207 0.18060575 0.20927063 0.045071688 0.4109264
-0.08018488 -0.1414477 -0.07652403 -0.115147695 0.14528307 0.1500383 0.035584886 -0.07337006
-0.068453886 0.00411309 0.22545324 -0.07594516 -0.10933147 -0.08110956 0.20104788 -0.1050503
-0.14776649 -0.08395141 0.14984852 0.04067001 0.032296658 0.04414956 0.16423908 0.12919697
-0.062371075 -0.2416078 -0.30514628 0.13817443 0.06044435 0.14441797 -0.075708166 0.046113804
-0.06634735 -0.18181533 0.07939231 0.2282191 -0.164288 -0.0025432634 0.074256785 0.045891542
-0.08432295 0.15824875 -0.09654728 -0.12236649 0.15200837 0.14406824 0.056549385 -0.079183586
-0.038484547 0.09389602 -0.19919506 -0.30201077 0.12641495 -0.17072509 0.010038481 0.12991652
0.120535366 -0.12813252 -0.009386841 0.13817862 -0.15558773 -0.13639078 -0.19290043 0.0287717
0.2593679 0.02112172 0.03250261 0.1229814 -0.09117386 0.16891176 -0.18071058 -0.07777195
0.04933083 0.010762305 0.13422506 -0.10337038 0.023174295 0.13329464 -0.022177344 -0.14360823
0.034561146 -0.110741235 0.02052139 -0.18112557 0.0025237924 -0.24308872 0.27505034 -0.070957586
-0.076990075 0.18372948 0.2057079 -0.11323007 -0.030096928 0.17637381 -0.016190805 0.14724363
-0.080738656 -0.19769219 -0.028285386 0.13821541 0.10944864 -0.19517374 0.003236716 0.05619134
0.030490542 0.019215837 -0.055859163 0.10782774 -0.025757141 -0.09647286 -0.021341037 0.10909833
0.10786939 0.0011575944 -0.055168945 0.007195205 -0.07397613 -0.05685362 0.12889929 -0.08399724
-0.05212214 -0.12018866 0.003587436 0.20541023 0.368181 -0.049334902 0.08284426 0.20278671
0.1538334 0.22385909 -0.028365811 -0.3031657 0.40395102 -0.09506336 0.02036182 -0.06426374
-0.0827322 0.13807762 0.20004985 -0.061451722 -0.20443858 -0.12045018 -0.008306515 0.1326981
0.013591609 -0.03285517 -0.029532796 0.0057655065 0.055428736 -0.21579097 -0.17430735 -0.15164532
-0.018868303 0.040284514 -0.14639325 0.06573336 0.22095218 0.060260594 -0.017085085 -0.13276471
-0.046295937 -0.024681669 -0.14307947 0.04938658 0.057823803 -0.23169112 0.0961526 0.23884149
-0.09932515 -0.09854764 0.23146103 -0.20647827 0.07308648 -0.044451877 0.10868875 -0.10471782
-0.24217771 0.061634388 0.13656785 -0.21376228 -0.24818827 -0.27413973 -0.20345454 -0.13903652
0.23734549 0.17521426 0.049697317 0.25100067 0.35040423 -0.048000097 0.04112476 0.0406785

model.input_block.4.weight f4 [40]
00000000: da47 7e3f 6d32 953f d07c 893f 1ab3 913f
00000010: 2a94 823f e3a4 6c3f 7192 6b3f d2ee 8c3f
00000020: 8052 853f 47cd 8f3f abd9 913f 9a28 943f
00000030: be04 8e3f 5f85 863f ee8e 783f bca9 833f
00000040: 7599 833f 32c6 703f 4afe 893f 522f 863f
00000050: 72d3 6e3f f5c3 8b3f 1ef3 903f 05c8 5d3f
00000060: b3ff 823f 4348 7a3f 8597 8e3f 8794 6e3f
00000070: 6b97 8c3f a667 8e3f 9fd4 8e3f bf2d 823f
00000080: 6e4d 933f ed0c 8f3f c85a 8a3f d38f 813f
00000090: 0bb8 603f f59f 843f 351e 7e3f 7d6b 883f
0.99328387 1.1656014 1.0741215 1.1382782 1.0201466 0.924391 0.92020327 1.1010382
1.0415802 1.1234521 1.1394552 1.1574891 1.1095197 1.0509452 0.97093093 1.0286174
1.0281206 0.9405242 1.0780728 1.0483191 0.9329139 1.0919176 1.1324193 0.8663333
1.0234283 0.9776651 1.113999 0.93195385 1.0983709 1.1125381 1.1158637 1.0170211
1.1508005 1.117582 1.0808954 1.0122017 0.8778083 1.0361315 0.9926484 1.0657803

model.input_block.4.bias f4 [40]
00000000: a4bf a83a 314d 65bc 023a d3bc 86b1 98bc
00000010: 54e0 f4bc ba23 eeb9 e90c 2bbc fd74 1abc
00000020: 8ab4 19bc 388a 6abc 5825 78bc bda8 bebc
00000030: 463e fbb9 cf42 f2ba 20ea 3f3b 9ac4 1cbd
00000040: 7c2e c2bb 05d3 70bc 1981 88bb 62d4 07bb
00000050: 75a9 0a3b 6466 733b 6417 6eba f7f9 25bb
00000060: fa60 bb3a 83e4 da3b af68 81bb 1c03 73bc
00000070: f00b 15bc 033e abbc 63fc 253c c6ee fa3c
00000080: 7ecc bbbc 94b0 67bc 93df 5f3b 5b39 e7bb
00000090: 29f5 8dbc 48d5 1cbc 0bd8 ebbb ef2f 57bc
0.0012874496 -0.013995455 -0.025784496 -0.018639337 -0.029892124 -0.00045421516 -0.01044009 -0.009427306
-0.009381423 -0.0143151805 -0.015145622 -0.02327382 -0.00047920848 -0.0018483045 0.0029283836 -0.03827343
-0.0059259515 -0.0146987485 -0.0041657803 -0.0020725955 0.0021158133 0.0037139887 -0.0009082465 -0.0025325993
0.0014295869 0.0066800728 -0.003949247 -0.014832284 -0.009097084 -0.020903593 0.010130974 0.030631434
-0.022924658 -0.014141221 0.003416036 -0.007056398 -0.017328816 -0.009572335 -0.007197385 -0.013133987

model.input_block.4.running_mean f4 [40]
00000000: 988e 753c efcd f53a ccd4 93bb f7cf dc3a
00000010: b1f4 6a3a 05d8 5cbb a081 51bc 26c5 95ba
00000020: 45e2 78ba 8ad4 a83b a5da 8a3a 7bae 69ba
00000030: 21a8 bd3a 6adb dcbb a42a 973a 97be 8a3b
00000040: 5188 9b3b fc07 e4b9 2234 693b 0969 043c
00000050: 918d 49ba b246 1a38 51f3 77bb a2ad ebbc
00000060: da5b 1fba 9bf5 8e39 0d95 85bb 74e8 66bb
00000070: b0a1 8b3a 9a03 e23a 16e2 bc39 410e 21bb
00000080: 09e0 443b d934 913b 649a c8ba d86d 87bb
00000090: 703a e93b 0a78 b2bb b556 1338 68b4 82bb
0.01498761 0.001875339 -0.0045114513 0.0016846646 0.00089628535 -0.0033698094 -0.012787253 -0.0011426553
-0.0009494166 0.0051522898 0.0010593726 -0.0008914244 0.0014469662 -0.0067400234 0.0011533094 0.004234146
0.004746475 -0.00043493498 0.0035584052 0.008081683 -0.00076886365 3.67823e-05 -0.0037834237 -0.028769318
-0.00060790556 0.0002726734 -0.004076606 -0.0035233768 0.0010653045 0.0017243505 0.000360266 -0.0024575146
0.0030040762 0.0044313488 -0.0015304801 -0.0041329674 0.007117562 -0.0054464387 3.5128283e-05 -0.0039887913

model.input_block.4.running_var f4 [40]
00000000: cc78 0435 d474 3735 0642 1335 a870 1c35
00000010: 5aee 4b35 5392 d834 978d 9834 339f ca34
00000020: 2531 d834 7050 2435 2302 2d35 745c a934
00000030: a9aa d534 3b64 0335 50db a534 3555 a634
00000040: 0205 a034 732d d634 4b6b b334 a78b 0535
00000050: be6d 3a34 ce72 cc34 cc2a d134 b203 f434
00000060: 43aa 7f34 66b8 7934 0eaf b834 968a 8434
00000070: 2b47 0d35 6451 1635 eed7 0235 442c 0035
00000080: 4c6c 0f35 27ba 0d35 820a a134 c244 3135
00000090: 19ba 8d34 f9e2 1c35 7146 f034 8c21 0c35
4.9349615e-07 6.834282e-07 5.4857844e-07 5.8278465e-07 7.597024e-07 4.03396e-07 2.8415226e-07 3.7741265e-07
4.0268893e-07 6.1211813e-07 6.445063e-07 3.1545972e-07 3.9798513e-07 4.894716e-07 3.0893216e-07 3.0981906e-07
2.9805966e-07 3.9893675e-07 3.3419414e-07 4.974958e-07 1.7362524e-07 3.8081492e-07 3.8960422e-07 4.545123e-07
2.3810667e-07 2.3257016e-07 3.440004e-07 2.468775e-07 5.2630156e-07 5.5997793e-07 4.8742993e-07 4.774813e-07
5.3429244e-07 5.279748e-07 2.9996232e-07 6.6037694e-07 2.63987e-07 5.844482e-07 4.4754736e-07 5.220288e-07

model.channel_expansion.0.weight f4 [16, 40, 1, 1]
00000000: 42a8 aa3d b3c6 36bd 8976 e73c 213d 9a3e
00000010: 20bb 5cbd 7297 e6bd 87ca 5a3d c0a5 843e
00000020: 7423 03bd 0bdd 05be feaa 8dbe 49d1 1a3d
00000030: 52b1 813d 2dc8 73be 7008 b0bc 7141 853d
00000040: 94d4 d33d fa46 d43b f443 17bd c258 113e
00000050: 4436 0bbe 350e a93d 7b21 efbd 8b41 ae3c
00000060: c343 423e fbf4 ed3d cca4 26bd fd35 12be
00000070: 1e09 bc3d 96e5 973d 33de 9ebc 7f13 dbbc
00000080: 8519 ff3d 4193 ea3d 2345 b0bd 83bf 5c3d
00000090: 1808 0fbe 54c3 d7bc 843a da3d 09b3 ec3d
000000a0: 693d 8b3d 5009 e2bd 7cd5 fa3c 8f0b 57bb
000000b0: 9cfd 41be 400c 4c3d e324 0e3e 8f29 fb3d
000000c0: 91a7 b7bc 06fe 44be ebf7 a9bd 7aff 4b3d
000000d0: 3b9f 9bbd 4431 6f3d 25ea d7bd f85b 7d3d
000000e0: 7848 a23d 526a edbd d271 4d3d 919a 533d
000000f0: 20e1 dabd a684 cd3c 466e 2dbe 891e 25be
00000100: f0f4 e1bd 13d3 983a 0e61 423e be25 5dbd
00000110: fa57 88be 254a 403d 17f4 2b3e 29cc 09bd
00000120: ce26 903d 8cee 84bd a463 1fbd b591 14be
00000130: 52c5 a83d b1bb 23be ac68 d6bd fab7 843d
00000140: d170 e3bd 3fa6 073e 7e60 dfba efe1 d93d
00000150: 6696 4dbe 3b40 e7bd 60bc 243d 90ed 0fbd
00000160: 28d2 92bd e549 0a3d 31d2 53bd 45ed 003e
00000170: fc2f 873d 4aed 74bd ad6f 42bd fc6c 883e
00000180: 8196 433e 8f77 0d3e ff6a 903c e87f e9bc
00000190: 8a2e 47bd 64b2 f2bd d75b 02be 0b0a 22be
000001a0: 8fa0 39bd d6c8 913d 9fa5 4a3e f688 ac3d
000001b0: dcb9 603d e6e6 8e3c f234 1dbe 907d f63b
000001c0: 6ef2 b8bd 562e 87bd 588b da3d 4ea8 55be
000001d0: 1620 84bd 6c89 48bc a2f8 99bd 8b7e 563d
000001e0: 6bc7 a43b a7be 61be e229 053e ea17 18be
000001f0: 577a 56bd 617d 943d eebf b7bd 8cab 92bc
00000200: 0ca1 ed3d 009a 32be 8723 a13d c205 8dbe
00000210: cffd 3f3e 31d1 8ebd 4f5a 353e ff6d 6b3d
00000220: 641d d93d 5b3e e9bd dd76 f33d feeb 07be
00000230: 8e14 78bc a594 f13d 565f 663e 644d 46bd
00000240: 49ed 0ebd b35f 0ebe ecd7 423e e79c 423d
00000250: f7a6 c23d 6548 753d 847a 85bd 9b7b 31ba
00000260: d35e 153e a133 ddbd 1d51 b1bd 10d3 3b3d
00000270: dcb9 023d ad7e f33d f8e1 2b3e 1877 24bd
00000280: 2db6 97bc b86c 953d 8311 12be 669c 10be
00000290: b60f edbc 4046 4b3e 060c 41be 99ec ba3c
000002a0: 574a a3bd a0b7 2c3e f874 353e 1336 ad3d
000002b0: 8794 3e3d 8e8f 91bd 46af 11bd 250f 39ba
000002c0: ccc0 dabc d52a 9bbd 413c 92be d0af 603d
000002d0: af01 c03d 4a5d 4bbe 2cdd a63d 70f2 c5bc
000002e0: b17d 4bbd 77a9 84bd 590d b23d ae37 953d
000002f0: edc5 043d 7718 79be ae4d a63c 8502 fd3c
00000300: 9ab7 77bd 534a eebd ab2d 2a3c b6ad 913c
00000310: 1ccf 413d 788c edbd 0b5e 583d 11a3 afbc
00000320: 2d5a 013d 564b a33d e2d0 23bd 3a70 9abe
00000330: 78c6 7d3d 23d1 a03c 1d17 88bd 9efb c0bc
00000340: 0755 713d 4afa e53d 6161 153e 52e5 07be
00000350: 2933 be3d 97b5 a03d 2b22 d7bd a561 4a3c
00000360: f95d 803d 0c71 c83d 3020 cd3d e2b8 34be
00000370: cec8 b53d 09b8 80be e9e8 223e 1a26 083e
00000380: 5700 1cbc 9c8b eabd cc50 6f3d eb16 913e
00000390: a497 063e 594c 60be ff77 24bd 7046 43bd
000003a0: 3351 3bbd 1194 ecbd d1a7 783c 4d96 0bbd
000003b0: da1c 933d ce7d a93d 86df 62bd 82bc c8bd
000003c0: f77e 36bd 3c1b 04be 4cf2 193d 201c 6dbd
000003d0: 66c9 d23a 68c4 ee3d 06e5 133e 85c4 e43e
000003e0: ee05 153d 36d1 32bd ec7c cb3d 5fda 49be
000003f0: f341 133e 6d1b db3d 4fdd e53c 6b2b f3bc
0.08332874 -0.044623088 0.028254764 0.30124763 -0.053889394 -0.11259355 0.0534158 0.25907707
-0.032016233 -0.13072602 -0.2766952 0.037797246 0.06332649 -0.2380683 -0.021488398 0.065066226
0.103432804 0.0064781876 -0.03693004 0.14194015 -0.1359492 0.08254663 -0.11676308 0.021271488
0.18971162 0.11618992 -0.040684506 -0.14278407 0.091814265 0.07416837 -0.019393062 -0.026742695
0.12456039 0.11453868 -0.08606937 0.053893577 -0.13967931 -0.026338257 0.10655692 0.11557586
0.067988224 -0.110369325 0.030619375 -0.0032813286 -0.189444 0.04981637 0.13881259 0.12263786
-0.02241877 -0.19237527 -0.0829924 0.04980419 -0.0759873 0.058396593 -0.105427064 0.061855286
0.079239786 -0.115925446 0.050157376 0.051661078 -0.106874704 0.025087666 -0.16936597 -0.1612493
-0.11033046 0.0011659585 0.18982336 -0.053991072 -0.2662962 0.04694571 0.16792332 -0.033641968
0.070386514 -0.06490812 -0.038913384 -0.14508708 0.08240761 -0.15989567 -0.10469183 0.06480403
-0.111055024 0.13247012 -0.0017042307 0.106387965 -0.20076904 -0.11291548 0.04021871 -0.035138667
-0.071689904 0.033761878 -0.051714126 0.12590511 0.06600949 -0.05979661 -0.047469784 0.26645648
0.19100381 0.13815139 0.017629145 -0.028503373 -0.048628367 -0.118504316 -0.12730347 -0.15824144
-0.045319136 0.071183845 0.19789742 0.08424561 0.05486475 0.017444085 -0.15352228 0.0075222924
-0.09030615 -0.06600635 0.10671109 -0.20864984 -0.064514324 -0.012239795 -0.07518126 0.052366775
0.0050286553 -0.22045384 0.13004258 -0.14852872 -0.052362766 0.07250477 -0.089721546 -0.017904066
0.11602983 -0.17441559 0.078681044 -0.27543455 0.18749164 -0.06973494 0.17710231 0.057477947
0.10601309 -0.113888465 0.11887906 -0.13273618 -0.015141619 0.1179593 0.22497305 -0.04841365
-0.03489426 -0.13903694 0.1902768 0.047512915 0.09504502 0.059883494 -0.065175086 -0.0006770433
0.14586954 -0.10800863 -0.08658049 0.04585558 0.03191553 0.11889396 0.16785419 -0.04015264
-0.018519485 0.07296127 -0.14264493 -0.14122161 -0.028938156 0.19851017 -0.18852243 0.022817897
-0.079731636 0.16866922 0.17720401 0.084575795 0.046528365 -0.07107459 -0.035567544 -0.00070594467
-0.02670326 -0.07576529 -0.28561595 0.054855168 0.09375321 -0.19859806 0.08147654 -0.024163455
-0.049680416 -0.06477635 0.08693952 0.07286011 0.03241532 -0.24325739 0.020300712 0.03088499
-0.06047783 -0.1163527 0.010386865 0.017783027 0.047316656 -0.11599058 0.05282406 -0.02144006
0.03158014 0.079733536 -0.039994128 -0.30163747 0.061956853 0.019630974 -0.066450335 -0.02355748
0.05891898 0.112293795 0.14587928 -0.13271073 0.09287102 0.078471355 -0.10504564 0.012352382
0.06267924 0.09787187 0.10015905 -0.17648652 0.08876191 -0.25140408 0.1590916 0.13295785
-0.009521565 -0.114524096 0.058426663 0.28337798 0.13143784 -0.21904124 -0.0401535 -0.047674596
-0.045731734 -0.11551679 0.015176729 -0.034078885 0.071832374 0.082759485 -0.05538895 -0.0980158
-0.044554677 -0.12901014 0.037584588 -0.05788815 0.001608175 0.11658555 0.14442834 0.44681183
0.036382608 -0.04365655 0.09935936 -0.19712208 0.14380626 0.106985904 0.02805963 -0.02968379

model.channel_expansion.1.weight f4 [16]
00000000: e75d 843f 5fb5 593f 6d3b 933f e524 913f
00000010: 412c 8d3f f9b3 773f 77cd 763f c7f2 6a3f
00000020: a2e9 973f 9851 8a3f dece 7a3f 6f6a 903f
00000030: 8672 903f 947e 443f 6776 7c3f b44b 903f
1.0341157 0.85042375 1.150251 1.1339384 1.102913 0.9675899 0.96407264 0.917767
1.1868174 1.080615 0.97971904 1.1282481 1.128495 0.7675564 0.9861817 1.1273103

model.channel_expansion.1.bias f4 [16]
00000000: 92b5 d9be 4573 96be 0305 1fbf 6fda 4dbe
00000010: 92ee bfbe 5282 cb3e 945d 993e 1d76 263e
00000020: e4ae b8be 26a8 58be 882b 31bd 814c aebe
00000030: bea8 c2be 6aef c33c d2d1 c73d a29a a8be
-0.4252134 -0.2938482 -0.6211702 -0.20102857 -0.37486702 0.39747864 0.29954207 0.16255994
-0.3607093 -0.21157894 -0.043254405 -0.34042743 -0.38019365 0.023917872 0.09756817 -0.32930475

model.channel_expansion.1.running_mean f4 [16]
00000000: 8b10 02bb 54e5 bbbb 8dc5 73bc 94aa 603b
00000010: cdcc 6e3b 5da9 5abb 5c93 51bb c957 8bbc
00000020: 16ca b83b d4a1 1f39 dffa 29bb fa14 3a3c
00000030: 9052 52bc e7bc e73b 4cec afbb c456 5ebc
-0.0019846286 -0.005734125 -0.014878643 0.003428136 0.0036437989 -0.0033365109 -0.0031978702 -0.017009633
0.005639325 0.00015223707 -0.0025936884 0.01135754 -0.012837067 0.0070720795 -0.005368745 -0.013570491

model.channel_expansion.1.running_var f4 [16]
00000000: a265 373d 8df4 c53c e6fe d63c 680a 853d
00000010: a99e 3c3d 9bf9 5a3d 0ef7 043d 001f 2b3d
00000020: 1353 643d 9c1e af3c 1e4b 303d f3a5 693d
00000030: 83f5 3b3d 1d07 033d 8064 fe3c e93a 163d
0.04477466 0.024164462 0.026244592 0.064961255 0.046049748 0.0534607 0.032462172 0.04177761
0.05574329 0.0213769 0.043040387 0.057043027 0.045888435 0.031989206 0.031053782 0.036677275

model.fe.0.weight f4 [16, 1, 1, 15]
00000000: 96de 8bbe ea60 12bd 9981 6ebe 5d4b 84bd
00000010: a41f 9bbd c7e1 32be 6282 4ebe 82c6 32be
00000020: c6f0 74be a9b0 61bc a761 1cbe 5c9c 56be
00000030: 1ce0 473d c0ca 0cbe 2f49 f6bd e7b5 38be
00000040: 6ba7 18be 43e8 e7bd 6a5f 3d3d 226f 073c
00000050: c84a c33d 2ba2 15be a7ce aebc ee79 ffbd
00000060: 7d3b b23d c286 6dbd 1439 40bd 376e 1a3d
00000070: 4b2c e93d aef9 3f3d 39ad 68be d1e2 46be
00000080: ab4c 86be f3ac 2abe 1889 5fbe 7b37 90bd
00000090: 0c4a 4bbe b5e0 aabd a4f5 59be e7cb c5bd
000000a0: 9104 0cbe 2079 3abe b066 eabd 4968 4fbe
000000b0: 6ef6 ffbd 89f5 193e 0535 983e d85a 883e
000000c0: de5b 373e d392 0c3e f51e 853d 7c67 133e
000000d0: bc48 1f3d 2902 143e 5ba7 683d cf6d 403e
000000e0: e528 4a3e 2de1 793e 42f8 d83d 8266 6a3e
000000f0: d9c4 81be ad0d b0bd 17ba 62be 0d8e 0abe
00000100: 7801 f4bd 1cc6 67be f694 08be bcad b4bc
00000110: acfc 01be e48b 06be dd52 313c 3f8c 90bd
00000120: f94b 36be 866e 10be c258 2cbe ca05 4c3e
00000130: fc92 f7b9 d3d4 aa3d ac47 3d3e d8e5 56be
00000140: 3153 9a3e 296a 13be 40dd 263e e9f9 b4bd
00000150: 624f 7d3e 2e93 39be b072 863e 6fe0 fcbd
00000160: fbcd 923d 7631 2c3d 4380 94bc 2217 173e
00000170: 3591 1bbe e7ba 723e 87bf f4bd 0532 2e3e
00000180: 201d c3be ad9a 6c3e c020 52be bf2f 403e
00000190: df65 4fbe 6582 863e 83f1 62bd 7f3c 303d
000001a0: ee53 69bd 6e08 dbbc b364 0dbd 0053 953d
000001b0: 1e75 93bb 7145 263e 3ad3 a33d 3c32 d7bd
000001c0: fd33 993e d157 673e d721 e5bc 1ec3 ce3d
000001d0: e661 1c3e 35a5 a23d e675 c03d 8e18 afbb
000001e0: b0f5 45be 76c0 85be 6194 abbe ba27 29be
000001f0: 6b7b 3cbe a775 33be da80 87be 2c46 083c
00000200: f076 23be 5c73 d1bd e60e 5dbe 853e f1bd
00000210: 17eb 4ebe c198 1dbe 7ebe 28be f5ad cabd
00000220: bf83 b3bd 74db 6dbe 7f6e 2cbd b3a5 82bd
00000230: 9cea a5bd 149c d83c 022d 42be 30e1 c7bc
00000240: ee3b b3bb 0635 57be c974 363c 496f 08be
00000250: 51ee 72be 997b f2bd f848 d4bd ce7f 14bd
00000260: 68ca a2bd ab14 d7bc 252e adbd 72c0 98bd
00000270: 8b8d c83d 8ab9 acbd 9b82 d33d 89c8 26be
00000280: 5f28 9b3d 30ce 31be 9326 5e3d dc90 9fbd
00000290: d66d d93d 55d8 c33e 7075 413e 0066 a33e
000002a0: 08a5 5d3e 601f b13d 6140 293e c35b 243e
000002b0: 560b a13d 6284 6a3e e584 c23d 65d1 143e
000002c0: 56cc 0d3e 99ca 893c bdb5 083e 1f98 143e
000002d0: 96ba b53e 2492 153e ec79 803e b10c 883e
000002e0: 3ce6 f53d e39c 6f3d 570e 173e 19fa 16be
000002f0: 4667 043e af08 1fbd 0ac9 413d 8e6a 79bd
00000300: 12a1 ef3d b09d 08be 549a 123e f639 133e
00000310: a80b 38be bd18 3d3e 5a1f f6bd 6a6b 9fbc
00000320: 0daa 063e e33f 88bd faf4 a23e 3e6d 8bbd
00000330: 2279 bc3d bcab e8bd 4ca6 983d dd5f 093e
00000340: 64f1 ab3e ce45 103d d7e5 373e a61a a2be
00000350: 2e78 483e 00e6 67be c391 f73d adf7 61be
00000360: 7f5e 623e 0916 11be b4c8 693e 7b8e e4bd
00000370: 8e8b 873c 51d2 ba3d 009d 98bd 1cfa 9f3c
00000380: baa5 d5bb b31b 143e af41 873e 01af 7b3e
00000390: 9a9d e73d 69fc d73d 50a5 0d3e 680d 973d
000003a0: df6f 443e 0e7a eb3c 7bb2 2d3e bf18 1c3e
000003b0: bce3 053e 5001 63bd c4f8 d73d b4ad 77bd
-0.27318257 -0.035736956 -0.23291625 -0.06459687 -0.07574394 -0.1746894 -0.20166925 -0.17458537
-0.23919973 -0.013775029 -0.15271626 -0.20958084 0.04879771 -0.13749218 -0.120256774 -0.1803814
-0.14907615 -0.11323597 0.046233572 0.008266242 0.09535748 -0.14612643 -0.021338774 -0.12474428
0.08702753 -0.057989843 -0.046929434 0.037702765 0.11385401 0.046868972 -0.22722329 -0.19422461
-0.26230368 -0.16667537 -0.21829641 -0.07041832 -0.19852465 -0.08343641 -0.2128511 -0.09658032
-0.13673617 -0.18210268 -0.11445367 -0.20254625 -0.124981746 0.1503507 0.2972795 0.26631808
0.17906138 0.13727884 0.06500045 0.14394945 0.038887724 0.14453949 0.056800228 0.18791889
0.19742163 0.24402304 0.105942264 0.22890666 -0.25345495 -0.085963584 -0.221413 -0.1353075
-0.11914343 -0.22634166 -0.13338074 -0.0220555 -0.12694043 -0.13139302 0.010822979 -0.07058
-0.17802419 -0.14104661 -0.16830733 0.19924083 -0.00047221023 0.08341374 0.18484372 -0.20986116
0.30141595 -0.14395966 0.16295338 -0.08836729 0.24737313 -0.18122551 0.26259375 -0.12347495
0.07168194 0.042039357 -0.018127566 0.14754918 -0.15192111 0.2370411 -0.119505934 0.17011268
-0.38108158 0.23105879 -0.20520306 0.18768214 -0.20253704 0.26271358 -0.055406105 0.043026444
-0.056964807 -0.026737418 -0.034519862 0.072912216 -0.0045000454 0.16237427 0.07999273 -0.10507628
0.29922476 0.22592093 -0.027970238 0.100958094 0.1527172 0.07941667 0.09397487 -0.0053435033
-0.19332004 -0.261234 -0.33511642 -0.1651906 -0.18406455 -0.1752535 -0.26465493 0.0083175115
-0.1596334 -0.10227081 -0.21587715 -0.11779503 -0.20206867 -0.15390302 -0.16478917 -0.09896461
-0.08765363 -0.23228246 -0.042097565 -0.06379261 -0.08101389 0.026441611 -0.18962482 -0.02439937
-0.0054697907 -0.2101632 0.011136242 -0.13323702 -0.23723723 -0.11839981 -0.1036548 -0.036254697
-0.07948762 -0.026254972 -0.08456067 -0.07458581 0.09792622 -0.08433826 0.103276454 -0.16287436
0.075760596 -0.1736381 0.054236006 -0.077913016 0.10616653 0.38250986 0.18892455 0.31913757
0.21644986 0.086485624 0.16528465 0.1605063 0.0786349 0.22902063 0.09498004 0.14533003
0.13847479 0.016820239 0.13350578 0.14511155 0.35493916 0.1460653 0.2509302 0.26572183
0.12006804 0.05849923 0.14751564 -0.14743842 0.1293002 -0.03882664 0.047310866 -0.060892634
0.117006436 -0.13341403 0.14316684 0.14377579 -0.17973197 0.18466468 -0.120176986 -0.019460399
0.13150807 -0.066528104 0.31827527 -0.06807946 0.09202792 -0.11360881 0.074535936 0.13415475
0.33582604 0.03522282 0.1795877 -0.31660956 0.19577095 -0.22646332 0.12088349 -0.22067137
0.2210636 -0.14168562 0.22830468 -0.111599885 0.016546037 0.09122146 -0.074518204 0.019528441
-0.0065200003 0.14463691 0.264173 0.24578477 0.11309357 0.1054619 0.13832593 0.07375604
0.191833 0.028744724 0.16962616 0.15243815 0.13075155 -0.055421174 0.10545495 -0.06046839

model.fe.1.weight f4 [16, 16, 1, 1]
00000000: 6b92 13be 836d ffbd 18eb 583e d4c6 91be
00000010: 1ae1 81bb 4d6f ce3c dbd3 343e 0100 4fbd
00000020: cda2 4c3e 14ec cdbd 4a77 263e 5b3d 773e
00000030: 039a 3d3d 44bc 11bc 55f9 f5bd 5d53 893d
00000040: 94c7 673e 95be cbbb a5be 12be 1d04 443e
00000050: 1ae5 383e 58bc 683e b284 d4bc 23cc 2ebe
00000060: 0b95 57be 0622 923d c93d e03d 9e3f 81be
00000070: 4dbc d9bd 69ff 413b 71ae 803e 3a82 2ebe
00000080: 6f9a b7bd d2e6 a3bd c8c6 573e d53e 6cbe
00000090: 4238 693d 3cf0 15be 2941 76be 9380 06be
000000a0: 5b10 193e deaf b8bd 9314 a9bd d521 863e
000000b0: faac 103e 0df5 b6bd 9a5a e23d d43a b13d
000000c0: 740b 08bd 149a d8bd 9be2 633e 0861 28be
000000d0: e3c6 b1bd 425d f6bd 0168 c1be d4ca 9ebd
000000e0: ac58 913e 91b3 2dbe 58cd 1bbd 0caa 8b3e
000000f0: c42d 293e 7419 65bd b074 e73d 28fb 2f3d
00000100: 5d6e 4a3e a44b 6bbd 1aa0 11be 35f1 f93d
00000110: 6146 2d3e e154 c3bd 53fe 873c 4bfc c2bd
00000120: a43b e6bd 16b6 983c 0b38 10be 6507 cebd
00000130: 451a 2fbe 8a1b 9d3c 5051 07bd fd62 24be
00000140: 6328 f9bd 0ef5 66bc e9b0 493e dcde 4dbe
00000150: f28c 35bd 7e8f e63a 5d22 623e 6f6c 4dbd
00000160: bb29 003e aab0 58bd 0022 143e 1779 193e
00000170: 73b2 8c3d 8bbc 233b a219 b5bd f431 523d
00000180: 1d15 07be 727c 7c3d 523a 1b3e 014f f9bd
00000190: 9b99 b43d 7bcb 87be e19b ffbd 5545 78be
000001a0: 56f0 753d d9a0 073e 0781 533e 98a7 913d
000001b0: 5cf2 8d3e d40d d0bd 173c 013e ae6c 763e
000001c0: 4706 673e 7d7a 933d 828d 7abe 9b31 0a3e
000001d0: 50c6 453e ad39 18be 9a2d afbc 7e37 0bbe
000001e0: a698 03be 75fd a73d 7ef3 85bb 807c c0bd
000001f0: fc17 5cbe c7af 043e 7d40 98bd 939b 3cbe
00000200: 7645 d33d 494a 323e 9bbb 12be 37d9 5e3e
00000210: 4986 793e d105 5bbe aed2 59bd 7254 e7bd
00000220: 888b 3fbe 7b30 e33d ac1b babc f558 89bd
00000230: 23ae 83be c179 4a3e 36bd 7fbe dd86 00be
00000240: f330 3a3e 9cd8 13bd 3d18 1dbe 975d 383e
00000250: 238e 133e dcc7 493e 461f 8ebc 01de 0ebe
00000260: f698 2dbe 19da 253d 952b ed3d 7580 54be
00000270: 29af bebd 33e5 d7bc a111 7a3e 6b4d fabd
00000280: 8eda 36bd 4ca0 22be 119d 0a3e 6eb4 7bbe
00000290: f129 0abb 05fa 3cbe 2f40 88be 3e75 e0bd
000002a0: 7a48 9e3e 08f9 00be 45ad 66be 05a4 6d3e
000002b0: 7089 263e 4528 bebd fa43 223e cdf3 4f3e
000002c0: 4950 54bd 1e93 88bd b4f1 603e b0fd 40be
000002d0: ccf0 95bd 36f4 2e3e 6135 8f3e b404 f53d
000002e0: 4f7f 523e e8cc 9bbe 154b d63d 705a 883e
000002f0: c583 c0bd e15f 093d 8e12 49be 9edf 6cbb
00000300: 8ade 74be 3021 00be 2caa 213e 747b 29be
00000310: 30e2 233d 800a 8ebd f937 a4be b9fb 2abe
00000320: 813f 7e3e 5c98 82bd 470c 1ebe 6724 603e
00000330: 09b5 4b3d 4773 cbbd e909 6f3d 1cdd 513d
00000340: bf0a 84be bb47 6b3d 82fc d93d 8a1c 2bbe
00000350: 890c 79bd 300c 20be b292 b6bd 0e2e 66be
00000360: 71b0 503e b161 1b3d 38cb d13c c352 4a3d
00000370: 771e 123e 19ad acbd e18a a13d d2e1 f63d
00000380: d404 28be b6c8 083d 6d71 113e 185c 19be
00000390: e6cd 44bd ab0a 11be b23c 8ebe 8159 23be
000003a0: 02c2 7c3e aac9 d7bc 21ad 2cbd 1db3 603e
000003b0: 6462 e63d 4b2f b4bd a69d 093e e501 fc3c
000003c0: 2217 0e3e ed77 5fbc 4ec5 86be 3e04 a73d
000003d0: 672f 9c3d dc68 84be b6df 78bd 7807 ccbd
000003e0: 1f2f 41be 77c2 153e edb1 893d 54e5 afbd
000003f0: c075 8fbe 57d6 823e f0ec 51be f746 b3bd
-0.14411323 -0.124720596 0.21183431 -0.28472006 -0.003963602 0.025199557 0.17658941 -0.050537113
0.19983979 -0.10054794 0.16256443 0.24144499 0.046289455 -0.008894984 -0.12010447 0.067053534
0.22634727 -0.0062177875 -0.14330538 0.19142194 0.18056145 0.22728097 -0.02594218 -0.1707006
-0.21052949 0.07135396 0.109492846 -0.2524385 -0.10631619 0.00296017 0.25133088 -0.17041865
-0.08965003 -0.0800301 0.21071923 -0.23070844 0.056938417 -0.14642423 -0.24048294 -0.13134985
0.14947645 -0.09017919 -0.08255877 0.26197687 0.14128485 -0.089334585 0.11052437 0.08653799
-0.033214048 -0.10576263 0.22254412 -0.16443264 -0.08680513 -0.12029506 -0.3777466 -0.0775353
0.28387964 -0.1696303 -0.038037628 0.27278173 0.16521364 -0.055932477 0.11301553 0.04296413
0.19768663 -0.057445183 -0.1422123 0.1220421 0.16921379 -0.09537674 0.016600763 -0.09520777
-0.11241844 0.018641513 -0.14083879 -0.10060004 -0.17099865 0.01917817 -0.03303653 -0.16053386
-0.12165906 -0.0140965115 0.19696392 -0.20104545 -0.04432387 0.0017590371 0.22083421 -0.05015224
0.12515919 -0.052902855 0.14466095 0.14987598 0.06869974 0.0024984207 -0.0884278 0.05131717
-0.13191648 0.061642118 0.15158966 -0.12173272 0.088183604 -0.2652243 -0.124809034 -0.24245198
0.060043655 0.13244952 0.20654689 0.07112044 0.27723968 -0.101588875 0.12620579 0.24064896
0.22560988 0.07201097 -0.24468043 0.13495485 0.19313931 -0.14865752 -0.02138405 -0.13595387
-0.128512 0.0820264 -0.0040878644 -0.093987465 -0.21493524 0.12957679 -0.07434175 -0.18418722
0.10315983 0.1741115 -0.14329378 0.21762548 0.24367632 -0.21388938 -0.053179435 -0.112954035
-0.1870557 0.11093231 -0.022718273 -0.0670642 -0.25718793 0.19773008 -0.24974522 -0.12551446
0.18182735 -0.036095247 -0.15341277 0.18004452 0.1440969 0.19705147 -0.017348897 -0.13951875
-0.16952881 0.040491197 0.11580578 -0.20752127 -0.09310753 -0.026354408 0.24420787 -0.122217976
-0.044642024 -0.15881461 0.13536479 -0.24580547 -0.0021082128 -0.1845475 -0.26611468 -0.10959862
0.3091467 -0.12594998 -0.22527035 0.232071 0.16263366 -0.092850246 0.15846244 0.20307846
-0.05183438 -0.066686854 0.21967202 -0.18846774 -0.07321319 0.17085347 0.27970412 0.11963788
0.20556377 -0.3042977 0.104635395 0.26631498 -0.09400133 0.033538703 -0.19635984 -0.0036144028
-0.23913017 -0.1251266 0.15787572 -0.16551 0.04001063 -0.069355965 -0.32073954 -0.16697587
0.24828912 -0.063767165 -0.15434371 0.21888886 0.049733195 -0.09934097 0.05835906 0.051236257
-0.2578945 0.057441454 0.10643865 -0.16710106 -0.06080297 -0.15629649 -0.08914699 -0.22478506
0.20379807 0.037934963 0.025609598 0.049395334 0.14269434 -0.08431453 0.07887817 0.120547906
-0.16408092 0.033394538 0.14203425 -0.14976537 -0.048047923 -0.14164226 -0.27780682 -0.15952112
0.24683383 -0.026341278 -0.042157296 0.21943326 0.11249235 -0.08798083 0.13439044 0.030762622
0.13876012 -0.013639432 -0.26322407 0.08155106 0.07626229 -0.2586125 -0.060760222 -0.09962362
-0.18865632 0.14624964 0.0672339 -0.08588663 -0.28019524 0.25554153 -0.2050054 -0.0875377

model.fe.2.weight f4 [16]
00000000: de88 ab3f ad40 cf3f 8a5e ac3f 76f0 ad3f
00000010: 0dc6 ba3f 738f a13f c9da a93f 205a d33f
00000020: ffc0 c73f 5ec6 cc3f 84a1 b03f bc3a b43f
00000030: d04c a93f 2bd3 ab3f d354 b43f e03e cd3f
1.3401144 1.6191612 1.3466351 1.3589008 1.459169 1.2621902 1.3269893 1.6511879
1.5605773 1.5998037 1.3799291 1.4080424 1.3226566 1.3423818 1.4088386 1.6034813

model.fe.2.bias f4 [16]
00000000: db62 bebd 482c 1bbd 8e78 d9bd 0f39 d7bd
00000010: 4265 cf3c eedd bdbd a95c 36be ff47 bdbb
00000020: 6608 543d 56ea ed3c f36a a9bd 4d7a 06be
00000030: a8bb d0bd 36dd e7bd f181 9abd a7c2 bf3d
-0.09296199 -0.037884027 -0.10618697 -0.1050893 0.025316838 -0.09270845 -0.17808785 -0.005776405
0.051765822 0.029042404 -0.08272352 -0.13132592 -0.101920426 -0.113214895 -0.075443156 0.09363299

model.fe.2.running_mean f4 [16]
00000000: e729 ee3c 4788 ce3d c006 7cbd 0b15 84bc
00000010: 521d d63a 72fd c13c 569a 4abe bf86 7bbd
00000020: bb26 4abd 88b0 773d a12a b5bd c506 483e
00000030: 1c82 a4bd 33d5 34be ef86 e3bd da3d 29be
0.029072715 0.100845866 -0.061529875 -0.016123315 0.0016335642 0.023680422 -0.19785437 -0.0614078
-0.049353343 0.060471088 -0.088460214 0.19533832 -0.08032629 -0.17659454 -0.11109721 -0.16527501

model.fe.2.running_var f4 [16]
00000000: 6477 943d ca2d a53d 127c b93d ab75 0a3e
00000010: f28a 223d e392 523d de19 f03d 5394 8b3d
00000020: b43b db3d de76 783d 3035 0e3e 526e 143e
00000030: 6a6b e13d 7f89 9d3d 1427 cf3d b8c8 ce3d
0.072493345 0.08065374 0.09056868 0.1352145 0.03968329 0.051409613 0.11723684 0.068154
0.10704747 0.060660236 0.13887477 0.14495209 0.11006816 0.07692241 0.101148754 0.10096878

model.classifier.0.weight f4 [1, 16]
00000000: 67e0 fb3e 1f4a 15bf 6518 283f cc55 2f3f
00000010: fdc8 02bf d475 113f 3f2e 3f3f b758 12bf
00000020: d711 40bf 0711 31bf 0e64 0e3f 10d0 1b3f
00000030: 12ea 423f 9804 253f 1c8c 233f 8a74 e7be
0.49194643 -0.58316225 0.65662223 0.6849029 -0.51087934 0.56820416 0.7467994 -0.5716662
-0.7502722 -0.69166607 0.5562142 0.60864353 0.7613841 0.64460135 0.63885665 -0.452061

exp_avg f4 [40, 1, 1, 25]
00000000: fcdf 47bb 8714 30bb 3394 0abb 473b b4ba
00000010: 0806 06ba a45c d939 eb65 ab3a 2235 053b
00000020: 28a6 203b 34c6 223b 9c30 0d3b cbe0 cf3a
00000030: b18c 773a 994c bf39 7c66 dab8 3862 feb9
00000040: 2d9c 57ba 8fb7 93ba c3ed b1ba a36d bdba
00000050: 4c2b afba bea8 85ba a943 0aba 365d c538
00000060: f9fe 503a f5f4 9c3a ad09 b43a dc08 cf3a
00000070: 98b6 df3a ebb5 dc3a 8fae c63a be28 a63a
00000080: 6f69 833a 3109 413a c714 e739 6777 b738
00000090: e7a1 9fb9 4ffd 2cba 4ea4 67ba 3f3c 6dba
000000a0: 0553 3fba a861 e9b9 66f4 42b9 cab7 b0b8
000000b0: 1e15 57b9 d2d5 06ba 95c4 68ba 68ae 9aba
000000c0: 9f31 a7ba f3c4 94ba 7a3b 19ba 47fa bbb9
000000d0: 8aad 0bb9 66bf 4637 f920 2138 2437 21b8
000000e0: 3f48 16b9 4005 4eb9 ee67 21b9 ac87 9db7
000000f0: b110 3639 df54 c939 0729 1a3a ebe0 4d3a
00000100: d973 7f3a 5d3f 963a 31dc a63a 50f3 ab3a
00000110: dd46 a03a b7fe 823a 6843 343a 3e89 c239
00000120: 37e0 1139 11a8 4638 6919 ce38 1787 8a3a
00000130: 584f 9c3a d17a 9f3a 82cf 8d3a 81e7 513a
00000140: cfdb dd39 6c7c 4a37 483b d0b9 07d8 4bba
00000150: a4ea 8dba 5140 a2ba 254c 99ba 5c2e 62ba
00000160: 01f4 ceb9 4e94 b038 2a38 dd39 8db1 0b3a
00000170: bf53 df39 ebbc 3839 799f 08b9 6e76 e5b9
00000180: dec7 3aba aa82 74ba eeba 8bba 1ad0 8eba
00000190: cd8d 2a3a bf38 0c3a 2ba7 f939 8313 1e3a
000001a0: b1fc 7c3a 6b25 c33a 3737 053b 2a8a 1f3b
000001b0: ad66 2a3b 9e33 273b 43bd 1d3b 2dea 173b
000001c0: e0cb 1c3b d54e 2d3b 9ed2 443b 7314 5b3b
000001d0: 2975 673b 1508 633b 4616 493b 2063 173b
000001e0: 9030 9d3a 23cb 49b9 455f e1ba 718a 50bb
000001f0: e14e 8fbb b84a cdb9 304c e3b9 4e11 efb9
00000200: d7d6 ffb9 c522 13ba 6a63 35ba 7635 64ba
00000210: 42e2 8bba 0854 a2ba 010b afba abc2 abba
00000220: 4a86 93ba 9631 49ba 2ff7 8ab9 01a1 a139
00000230: 8cd4 5d3a f50a a33a 5831 bc3a cf7a b93a
00000240: d712 a13a b417 7a3a ca6d 303a 4ce3 ec39
00000250: 2595 b139 1645 ba39 84b7 8dba 013d caba
00000260: dfd5 01bb 6f38 16bb f3d1 1bbb 915f 0fbb
00000270: 524f e6ba 07bc 9cba 4ee3 27ba 3565 4cb9
00000280: 280e e738 6f9b a139 0460 ec39 3fa0 113a
00000290: edb7 1c3a dec4 0a3a 0041 ac39 bde5 d337
000002a0: 1adc a2b9 4d55 1fba 0332 58ba 8cbc 7aba
000002b0: 01d5 83ba 3026 7bba 7d44 4cba 605e 0a3b
000002c0: 3fec 8f3a 2bc3 9039 1bc5 d3b9 dc18 89ba
000002d0: 26b3 e5ba 74ea 25bb a2fb 59bb 05a0 82bb
000002e0: 7bfe 8cbb 297c 85bb 0f71 51bb ef47 e5ba
000002f0: c48a 38b8 0092 ca3a 52cc 2b3b 4b2c 403b
00000300: dace 203b 99bd b63a 5415 cd38 cfce 8bba
00000310: 6757 eeba 814b 02bb 00dd cdba 59ba 39ba
00000320: e92c 59bb 21e7 2fbb 0d4b f5ba d24a 6aba
00000330: fe27 4e39 a891 a93a 46df 153b 25ad 493b
00000340: fd96 6d3b 15b5 813b f2a0 873b 1fda 893b
00000350: 63b2 873b 0288 7d3b 6003 583b 0252 1c3b
00000360: 173e 9b3a 16ba 38b9 2092 c7ba 7b07 30bb
00000370: d7a1 67bb 7f80 82bb 5ab1 82bb 664e 68bb
00000380: 9d08 30bb 235d 10bb 7e8d f5ba f148 d2ba
00000390: 7d0e c3ba 153c cfba 499f f3ba bd08 12bb
000003a0: a81a 26bb 6e67 2bbb b31d 1bbb bac9 e9ba
000003b0: 43f7 7aba 5585 e5b7 b7ac 653a da51 db3a
000003c0: b3c8 183b 13c8 393b bd4a 4f3b bffb 573b
000003d0: 8641 543b 6669 473b def1 363b 9e3f 283b
000003e0: 3120 1d3b dc59 123b 5ce2 903a de7a d73a
000003f0: d34b 063b a1f6 143b 54a3 123b 9fdc f53a
-0.0030498495 -0.0026867704 -0.0021145463 -0.0013750576 -0.0005112593 0.00041458488 0.0013076639 0.002032586
0.00245131 0.0024837377 0.0021543866 0.001585984 0.0009443267 0.0003648743 -0.00010414139 -0.00048519834
-0.0008224871 -0.0011269915 -0.0013574887 -0.001445223 -0.0013364344 -0.0010197384 -0.00052743644 9.411054e-05
0.0007972564 0.0011974858 0.0013735794 0.0015795487 0.0017067967 0.0016838884 0.0015158224 0.0012676937
0.0010025928 0.00073637353 0.00044075234 8.7483604e-05 -0.0003044747 -0.0006599025 -0.0008836434 -0.000904981
-0.00072984427 -0.00044513983 -0.00018592327 -8.4265674e-05 -0.00020511865 -0.0005143556 -0.00088793907 -0.0011801245
-0.0012755877 -0.0011350199 -0.00058453495 -0.0003585389 -0.00013320721 1.1846283e-05 3.84161e-05 -3.8436745e-05
-0.00014332029 -0.00019647647 -0.00015392873 -1.8779036e-05 0.0001736309 0.0003840094 0.00058807473 0.0007853645
0.00097447407 0.0011462976 0.0012730417 0.0013118777 0.001222815 0.0009994124 0.00068764994 0.00037104817
0.00013911804 4.7363403e-05 9.8275785e-05 0.0010568824 0.0011925502 0.001216734 0.0010819288 0.0008007214
0.00042316175 1.20691075e-05 -0.0003971702 -0.0007776026 -0.0010827375 -0.0012378787 -0.0011695666 -0.0008628124
-0.0003947318 8.419958e-05 0.0004219425 0.00053288863 0.0004259627 0.00017617985 -0.00013029379 -0.0004376652
-0.00071251194 -0.0009327332 -0.0010660568 -0.0010895759 0.00065061153 0.0005349032 0.0004761753 0.0006030129
0.0009650691 0.0014888471 0.00203271 0.0024343827 0.002600114 0.0025512944 0.0024069108 0.002318035
0.002392523 0.0026444693 0.0030032764 0.0033428937 0.0035317636 0.0034642268 0.0030683442 0.0023099855
0.0011992622 -0.00019244528 -0.001719453 -0.0031820799 -0.004373417 -0.00039156317 -0.00043353578 -0.00045598525
-0.00048797458 -0.0005612786 -0.0006919416 -0.0008705476 -0.0010672288 -0.0012384662 -0.001335472 -0.001310428
-0.0011255231 -0.00076749304 -0.00026505577 0.0003082827 0.0008462153 0.0012439179 0.0014357967 0.001415098
0.001228894 0.0009540275 0.0006730227 0.00045182777 0.00033871192 0.00035528158 -0.0010812138 -0.0015429558
-0.0019811315 -0.002292182 -0.0023776263 -0.002187703 -0.0017571247 -0.0011957892 -0.00064044155 -0.00019492659
0.00011017575 0.0003082412 0.00045084965 0.00055551896 0.0005978335 0.0005293618 0.00032854825 2.526014e-05
-0.00031063036 -0.00060780795 -0.00082471984 -0.0009564839 -0.0010057987 -0.00095805805 -0.0007792188 0.002111338
0.0010980441 0.00027611232 -0.0004039191 -0.0010459679 -0.0017524704 -0.0025316747 -0.0033261557 -0.003986361
-0.0043027974 -0.004073639 -0.0031958257 -0.0017492751 -4.3998254e-05 0.0015454888 0.0026214314 0.0029323276
0.0024537356 0.0013942003 9.7791344e-05 -0.0010666492 -0.0018184007 -0.001988143 -0.0015706122 -0.0007084958
-0.003313834 -0.0026840644 -0.0018714383 -0.00089375407 0.00019660589 0.0012937086 0.0022868677 0.0030773368
0.0036253326 0.0039583542 0.004139059 0.0042069103 0.0041411384 0.0038685803 0.0032960996 0.0023852591
0.0011844066 -0.0001761693 -0.0015226044 -0.0026859927 -0.0035344267 -0.003982603 -0.003988427 -0.003544712
-0.0026860603 -0.002202817 -0.0018734185 -0.0016043467 -0.0014881637 -0.0015810753 -0.0018586899 -0.002228304
-0.0025345478 -0.0026154178 -0.0023668825 -0.0017836608 -0.0009573588 -2.7361015e-05 0.0008761393 0.0016732768
0.0023312985 0.0028348013 0.003163024 0.003295645 0.0032387688 0.0030427813 0.002791516 0.0025672684
0.0023975486 0.0022331392 0.0011053788 0.0016439816 0.0020491972 0.002273001 0.0022375183 0.0018757767
