eeg_online/lightning_logs/lee_source/version_0/checkpoints/epoch=99-step=8300.ckpt (torch, 63818 bytes, 50 tensors)

model.input_block.1.weight f4 [40, 1, 1, 25]
0.2025833 0.35043177 0.07061197 0.04671805 0.057507392 0.122886315 0.0048879925 0.12332357
-0.07406656 -0.00079137785 -0.09068944 -0.031280886 -0.14072494 -0.04836221 0.016403185 0.09925796
0.14807133 0.1617515 -0.112608775 -0.06303589 0.123740725 0.26590413 0.112648904 0.34049314
0.16184966 -0.0808179 0.02028694 -0.37244183 -0.30544356 -0.1971921 -0.18009624 0.11093358
-0.16537575 -0.117644206 -0.16430938 -0.20980215 -0.12741469 0.18680365 0.13863094 0.17874393
0.11030506 -0.006582449 0.10427478 -0.15512058 -0.15397052 -0.14696132 0.059295364 0.03879813
-0.17139526 -0.09449529 0.32565632 0.33219898 0.14875972 0.048659436 0.13401309 -0.11391987
0.06411644 -0.09525236 -0.046226177 0.011075014 0.2096089 0.18638328 -0.038564388 0.11127968
0.13562518 -0.015505119 0.011481148 0.05350935 0.14011575 0.21604525 -0.13201645 -0.07141356
0.038833708 0.0642733 -0.004645991 -0.11038221 -0.20923996 -0.3595558 -0.095160834 -0.1792121
-0.20882636 0.15871228 0.118170865 -0.2533509 -0.029864091 -0.10158586 -0.08991945 -0.13215213
0.05205837 -0.1358453 0.050058454 0.057706982 0.07036623 -0.02699651 -0.31764957 -0.24777469
0.0075028534 0.0009109437 -0.12658934 -0.011266434 0.21951638 0.17557316 -0.04075658 -0.004403873
-0.14997722 0.032602325 -0.11083663 -0.102004275 0.056133367 0.10339476 -0.019161504 0.15204677
-0.13242486 0.12316942 0.044152386 -0.27129942 -0.13450393 -0.03691569 0.028849889 0.081917256
0.12202672 0.030167568 -0.13939983 -0.03017633 -0.40227675 0.09739279 0.057661947 -0.08759449
-0.13388634 -0.26704133 -0.14809829 -0.039094474 -0.17996474 -0.0353349 0.12576096 -0.050637867
-0.05557493 -0.12034532 -0.10392429 -0.04331362 0.01841044 -0.014985635 0.09935182 -0.048523366
-0.17019898 -0.06648939 0.15439329 -0.023747595 -0.18894728 -0.32464093 -0.3469006 -0.21824984
0.0075877183 0.23180099 0.2694041 -0.030952478 0.252595 -0.08437001 -0.025286788 -0.097723596
-0.058674477 -0.036231667 -0.13798362 -0.094810314 0.06622124 0.09402447 -0.0307954 0.08858299
-0.21301003 -0.07592507 0.11061572 -0.12319425 0.18199247 0.12520805 -0.07938995 -0.095245145
-0.17928512 -0.1677549 0.15238285 -0.11948374 0.083788894 0.012407399 0.17007242 0.050913505
0.06543696 0.025876708 -0.097878814 -0.09387811 -0.22055401 0.04716943 0.09261747 0.065641925
-0.21994698 -0.08297549 -0.25222927 -0.24494126 -0.26967052 -0.08337966 -0.2343782 -0.04069061
0.07176255 0.122402035 -0.20145412 -0.20795342 -0.19331343 0.06034006 -0.15618803 0.07824186
-0.018667778 -0.054492593 -0.05700635 -0.06163758 0.03594756 -0.014379275 0.027542628 0.026973361
-0.19951837 -0.19157414 0.048603054 -0.2729558 -0.08877224 0.18784474 0.13989693 0.1513287
0.04334091 0.07131534 -0.21340652 -0.16443866 -0.20330144 -0.18423215 -0.155633 0.022461409
-0.09042397 0.09211031 0.05927802 -0.17224227 0.052200988 -0.17865427 -0.12520275 0.015587505
0.02219682 0.10759342 -0.10221106 -0.028750554 0.08448102 -0.20178002 0.14382397 -0.16033114
0.011968787 -0.021107007 -0.39249605 -0.18414097 0.047180135 -0.08785085 -0.07702744 0.009322342
00000000: ff71 4f3e cb6b b33e 029d 903d 6d5b 3f3d
00000010: df8c 6b3d d2ab fb3d 742b a03b 1191 fc3d
00000020: 35b0 97bd 7874 4fba 63bb b9bd 6320 00bd
00000030: 331a 10be 7417 46bd f95f 863c c247 cb3d
00000040: 03a0 173e 2fa2 253e 6e9f e6bd f618 81bd
00000050: c76b fd3d 9624 883e 78b4 e63d 1e55 ae3e
00000060: ebbb 253e db83 a5bd cc30 a63c b2b0 bebe
00000070: 1963 9cbe baec 49be 266b 38be 2531 e33d
00000080: 4358 29be 72ef f0bd b840 28be 60d6 56be
00000090: ff78 02be 7549 3f3e 45f5 0d3e a608 373e
000000a0: 9fe7 e13d 96b1 d7bb 048e d53d eed7 1ebe
000000b0: 73aa 1dbe 077d 16be b2df 723d caea 1e3d
000000c0: 3d82 2fbe bf86 c1bd 6dbc a63e fc15 aa3e
000000d0: 7854 183e 1e4f 473d ba3a 093e d24e e9bd
000000e0: 7b4f 833d ab13 c3bd a957 3dbd fa73 353c
000000f0: b7a3 563e 42db 3e3e b1f5 1dbd 9ae6 e33d
00000100: 54e1 0a3e 2f09 7ebc 6d1b 3c3c 9f2c 5b3d
00000110: 817a 0f3e f73a 5d3e 522f 07be 4641 92bd
00000120: 1810 1f3d b8a1 833d 663d 98bb 1110 e2bd
00000130: 0043 56be b317 b8be afe3 c2bd 6083 37be
00000140: 94d6 55be 7985 223e 9103 f23d 36b7 81be
00000150: 8aa5 f4bc 3f0c d0bd b027 b8bd e352 07be
00000160: 283b 553d 081b 0bbe 180a 4d3d 285e 6c3d
00000170: 2c1c 903d c927 ddbc f7a2 a2be a6b8 7dbe
00000180: 7fda f53b 66cc 6e3a a3a0 01be d996 38bc
00000190: e7c8 603e 73c9 333e 5ff0 26bd 5d4e 90bb
000001a0: a193 19be 048a 053d 51fe e2bd 9ee7 d0bd
000001b0: 1aec 653d a2c0 d33d 96f8 9cbc 26b2 1b3e
000001c0: 629a 07be 4040 fc3d 22d9 343d c2e7 8abe
000001d0: 66bb 09be e834 17bd 9a56 ec3c 3cc4 a73d
000001e0: 25e9 f93d fa21 f73c d4be 0ebe 5a34 f7bc
000001f0: 38f7 cdbe df75 c73d ef2e 6c3d bd64 b3bd
00000200: 8019 09be a4b9 88be 14a7 17be 8721 20bd
00000210: ad48 38be 54bb 10bd 7bc7 003e a769 4fbd
00000220: 8aa2 63bd 9b77 f6bd 42d6 d4bd 9f69 31bd
00000230: 7ed1 963c 4f86 75bc f878 cb3d 70c0 46bd
00000240: a448 2ebe 972b 88bd 4619 1e3e 518a c2bc
00000250: 657b 41be 5637 a6be f59c b1be e37c 5fbe
00000260: 65a2 f83b 3d5d 6d3e 56ef 893e 0d90 fdbc
00000270: 2254 813e 2fca acbd 3d26 cfbc 4f23 c8bd
00000280: a654 70bd a867 14bd 944b 0dbe e92b c2bd
00000290: 009f 873d e78f c03d a246 fcbc 006b b53d
000002a0: 4d1f 5abe 9a7e 9bbd 7f8a e23d 444d fcbd
000002b0: 3c5c 3a3e 8a36 003e 3397 a2bd e30f c3bd
000002c0: 8596 37be f1c7 2bbe 400a 1c3e e4b3 f4bd
000002d0: 8399 ab3d 6748 4b3c 7727 2e3e ae8a 503d
000002e0: d003 863d 64fb d33c b074 c8bd 2b43 c0bd
000002f0: e9d8 61be bb34 413d 3aae bd3d 466f 863d
00000300: c839 61be 0eef a9bd 3224 81be e2d1 7abe
00000310: 4112 8abe f5c2 aabd d700 70be 32ab 26bd
00000320: 3ef8 923d ebad fa3d fd49 4ebe bef1 54be
00000330: f5f3 45be 2427 773d c1ef 1fbe 453d a03d
00000340: 2bed 98bc a033 5fbd 7e7f 69bd b077 7cbd
00000350: c03d 133d 0d97 6bbc 14a1 e13c 3df7 dc3c
00000360: 8b4e 4cbe 032c 44be ff13 473d ddc0 8bbe
00000370: 38ce b5bd 5f5a 403e 2441 0f3e e9f5 1a3e
00000380: 3d86 313d c70d 923d 3d87 5abe 9c62 28be
00000390: 412e 50be 5aa7 3cbe 425e 1fbe fd00 b83c
000003a0: 3430 b9bd 55a4 bc3d 82cd 723d 4760 30be
000003b0: b4d0 553d 25f1 36be 2635 00be bc62 7f3c
000003c0: 1bd6 b53c f059 dc3d 0854 d1bd 4886 ebbc
000003d0: 6304 ad3d 6c9f 4ebe 9746 133e d92d 24be
000003e0: bb18 443c 9ae8 acbc 3ef5 c8be 738f 3cbe
000003f0: f53f 413d 25eb b3bd 90c0 9dbd bdbc 183c

model.input_block.2.weight f4 [40]
1.0996132 1.1181675 1.0388691 1.1185533 1.0448215 1.0108966 1.0449519 1.0888898
1.0283357 1.0128257 1.0774246 1.1742178 1.1690506 1.1238649 1.0309377 1.0707381
1.1327835 1.0610214 1.0553632 1.019398 0.9620178 1.0892767 1.0452905 1.0543734
1.0003679 0.97786415 1.1053712 1.0324665 1.0672157 1.2228602 1.1183075 0.94552994
1.145327 1.0276005 1.0579804 1.036017 0.9119512 1.047573 1.2412196 1.1049327
00000000: 20c0 8c3f 1d20 8f3f aaf9 843f c12c 8f3f
00000010: b6bc 853f 0f65 813f fcc0 853f be60 8b3f
00000020: 81a0 833f 46a4 813f 0de9 893f c54c 963f
00000030: 73a3 953f ceda 8f3f c4f5 833f f20d 893f
00000040: 0dff 903f 8dcf 873f 2416 873f a27b 823f
00000050: cc46 763f 6b6d 8b3f 14cc 853f b5f5 863f
00000060: 0e0c 803f 4e55 7a3f ce7c 8d3f dd27 843f
00000070: 869a 883f af86 9c3f b324 8f3f 400e 723f
00000080: 139a 923f 6a88 833f e76b 873f 349c 843f
00000090: a275 693f df16 863f 49e0 9e3f 6f6e 8d3f

model.input_block.2.bias f4 [40]
0.0876085 0.02322561 -0.0855376 0.09998635 -0.024324201 0.09575454 0.044988133 -0.06753076
0.010325775 -0.053553034 -0.043692186 0.18524118 0.031193187 0.045493536 -0.023254316 0.006117621
0.004766985 0.015769955 -0.036193967 -0.04825665 0.04265565 0.0062181135 0.0106081925 -0.0043835277
0.057954654 0.08092971 0.1635658 -0.015306597 -0.063646525 0.13992672 0.09535771 -0.014429175
-0.14301896 -0.0036114317 -0.030491434 -0.11403119 0.059241574 0.082763925 0.031689547 -0.06333264
00000000: 166c b33d a243 be3c 562e afbd a5c5 cc3d
00000010: 8c43 c7bc f51a c43d 7a45 383d 914d 8abd
00000020: 702d 293c 6d5a 5bbd 94f6 32bd ddaf 3d3e
00000030: db88 ff3c 6e57 3a3d d67f bebc 5376 c83b
00000040: 5e34 9c3b fe2f 813c 2040 14bd c4a8 45bd
00000050: b1b7 2e3d 51c1 cb3b fccd 2d3c b2a3 8fbb
00000060: dc61 6d3d 7abe a53d cb7d 273e 85c8 7abc
00000070: 1c59 82bd f348 0f3e e74a c33d 5968 6cbc
00000080: 9073 12be c5ad 6cbb 2cc9 f9bc 2f89 e9bd
00000090: 4ba7 723d 2280 a93d e6cc 013d 8bb4 81bd

model.input_block.2.running_mean f4 [40]
-2.0616362e-09 4.4200448e-09 -6.4462498e-09 5.976701e-09 -7.574343e-10 3.3427405e-09 1.6230669e-09 1.0198008e-09
4.1563823e-09 4.5254858e-09 5.6368434e-09 5.5263163e-09 4.363439e-09 -2.0933226e-09 -2.0390334e-09 -6.8843637e-09
-3.5291812e-09 5.124055e-09 -1.1548299e-09 4.1200154e-09 2.627227e-10 3.1169247e-09 9.744204e-10 -6.767462e-09
2.0160411e-09 -1.0955292e-09 -5.1416005e-09 -5.959439e-09 4.4634576e-09 -4.6037534e-09 -5.0104423e-09 4.1745243e-09
-5.1133053e-09 -4.1640953e-09 1.0198171e-09 1.9743414e-09 -4.4233426e-09 2.8837694e-09 -6.3972494e-09 8.819889e-10
00000000: b0ac 0db1 20df 9731 d07d ddb1 9e5b cd31
00000010: b333 50b0 1db6 6531 9712 df30 0d29 8c30
00000020: edcf 8e31 987e 9b31 33ae c131 fee1 bd31
00000030: 37ed 9531 1fda 0fb1 0e1f 0cb1 818b ecb1
00000040: 0386 72b1 aa0f b031 f7b7 9eb0 0a90 8d31
00000050: ef6e 902f 8531 5631 5fec 8530 3a87 e8b1
00000060: 928a 0a31 8291 96b0 ffa9 b0b1 c8c3 ccb1
00000070: fd5c 9931 0b2f 9eb1 5128 acb1 816f 8f31
00000080: 1cb1 afb1 c513 8fb1 a029 8c30 fbac 0731
00000090: 22fc 97b1 cf2b 4631 cdce dbb1 7470 7230

model.input_block.2.running_var f4 [40]
4.808533e-11 5.2448636e-11 1.6744882e-11 2.2915177e-11 1.554315e-11 1.4149288e-11 1.9367157e-11 4.8517423e-11
1.591059e-11 1.5350601e-11 1.2122677e-11 2.636679e-11 1.468471e-11 3.100649e-11 4.6963863e-11 1.8232815e-11
1.566103e-11 1.6329991e-11 4.317537e-11 8.226425e-12 9.7509344e-12 2.2468997e-11 2.4447036e-11 1.1608548e-11
1.6782955e-11 9.587295e-12 1.0805148e-11 8.2237064e-12 1.4634413e-11 5.3522783e-11 2.4368974e-11 9.933517e-12
2.0127325e-11 8.812941e-12 4.037719e-11 4.050581e-11 1.7762352e-11 1.1550591e-11 4.5157753e-11 1.9660749e-11
00000000: 457b 532e eaab 662e 1f4a 932d 6490 c92d
00000010: 10b8 882d baea 782d f65a aa2d c361 552e
00000020: 77f3 8b2d 7b06 872d af43 552d bcec e72d
00000030: 072b 812d 345e 082e 9c8c 4e2e a660 a02d
00000040: 81c1 892d dfa3 8f2d 25e3 3d2e 86b8 102d
00000050: 4e8a 2b2d afa3 c52d d509 d72d 4138 4c2d
00000060: db9f 932d 57a9 282d 0f16 3e2d 48ac 102d
00000070: c5b9 802d 4c65 6b2e 0d5a d62d 95c0 2e2d
00000080: b50a b12d f509 1b2d ad94 312e 7d25 322e
00000090: 433d 9c2d 3d33 4b2d 1c9b 462e 12f0 ac2d

model.input_block.3.weight f4 [40, 1, 20, 1]
0.12573855 -0.050159156 0.1712405 -0.104776755 -0.058745135 0.075465575 -0.079372406 -0.38211673
-0.060176004 -0.08593596 0.15332036 0.062000558 0.057694897 0.12352117 -0.049778786 0.095314965
0.27612275 -0.08317741 -0.18127841 0.004119155 0.07305394 -0.068282954 -0.12489299 0.24425709
-0.08652531 -0.12786172 -0.10596757 0.033198453 -0.09967873 0.14760369 0.29089993 -0.059339773
0.098721385 0.024484763 0.007159418 0.09779835 -0.16192721 -0.09119141 -0.33438906 0.21214838
-0.27147007 0.1707807 -0.15466851 -0.053985786 0.29515615 -0.054222703 0.15712142 0.16439952
-0.27097183 0.07539457 -0.1547706 -0.2387436 0.038013235 0.18205841 -0.0663728 0.04096125
0.10902845 0.012894109 0.059551414 -0.10103602 -0.017648727 0.1833422 0.17635201 0.26220518
-0.26381922 -0.17958628 -0.005329186 -0.36906323 0.008882957 0.16859224 0.15701309 -0.037976354
0.043591697 0.07584048 0.15212213 -0.3131715 -0.12798052 -0.06813833 0.16567186 -0.05441274
0.11014598 -0.21751037 0.06464047 -0.033055812 0.15806332 0.13566224 0.08890751 -0.14650762
-0.06505621 -0.12941654 0.000190002 0.23742919 -0.062672384 0.28995287 -0.05268929 -0.0381808
0.040977083 -0.163288 0.05487692 -0.06316916 0.028043393 0.03743732 0.13741195 0.34099504
-0.039836127 0.11700497 -0.014891319 -0.17849244 0.12028289 -0.021130811 0.03748267 -0.22644325
-0.0239358 0.2556083 -0.043691788 -0.06097321 0.17268981 -0.1594613 -0.35146457 0.09240768
-0.02668316 -0.18897346 -0.19227168 0.06699859 -0.14488511 -0.107823245 -0.10375065 -0.08027189
-0.0073813903 -0.0757463 -0.11470628 0.12180118 -0.011633173 0.4043478 0.14246179 -0.05085442
0.032671094 0.098235354 0.28299308 -0.18296619 0.042114373 0.15346748 -0.13640149 0.025184494
0.30432937 -0.102816015 0.10979881 -0.17387165 0.08134479 -0.1546473 0.19338533 -0.34649175
-0.122951485 -0.043454483 0.14263724 -0.24683902 0.03149023 0.28696445 -0.064454384 0.08675861
-0.09540163 0.041124664 -0.027177874 0.22052097 0.30792856 -0.1299163 0.17911501 -0.04814374
-0.1868778 -0.17301652 -0.046650507 0.27086413 -0.09487075 -0.03526082 -0.0994881 -0.08913894
0.025472771 0.036661074 0.006953122 -0.12159203 -0.17393522 -0.037047554 0.18350983 -0.1936461
-0.043113735 0.024377724 -0.08627354 0.350054 0.34081608 -0.1815957 -0.06365564 0.14882417
0.042581085 0.001076352 0.050270393 -0.107778646 0.06522379 -0.16730475 0.026824605 -0.10109933
0.043234073 0.20738356 0.39083117 -0.18014216 -0.13189527 -0.006247856 -0.24394248 0.11622184
0.014387238 -0.038901437 -0.14983884 -0.17657225 0.094813935 -0.03992847 -0.2393561 -0.22954656
0.23921132 0.14403856 0.02423225 0.1133081 0.13816123 0.018274121 -0.085049175 -0.081765935
-0.15698007 0.003716958 -0.11755163 0.09681021 0.093462214 -0.25537872 0.23910806 0.39578378
-0.10402381 -0.0039499714 0.07381897 -0.18766353 -0.014470439 0.025248677 0.18518376 -0.22184473
-0.07037354 0.054122753 0.07475931 -0.35411748 -0.15528478 -0.09754636 -0.16861236 0.14835595
0.19392763 -0.14768767 -0.024460616 0.35136542 0.13917251 -0.30139363 0.18584181 0.10601377
00000000: 9bc1 003e b073 4dbd ab59 2f3e 3295 d6bd
00000010: bd9e 70bd b28d 9a3d 008e a2bd cea4 c3be
00000020: 1d7b 76bd 31ff afbd 0300 1d3e 4cf4 7d3d
00000030: 7c51 6c3d abf8 fc3d d7e4 4bbd 7e34 c33d
00000040: f65f 8d3e eb58 aabd 0ca1 39be faf9 863b
00000050: 4e9d 953d efd7 8bbd e5c7 ffbd 881e 7a3e
00000060: 2f34 b1bd 2fee 02be 8605 d9bd 1afb 073d
00000070: 5d24 ccbd 6c25 173e d6f0 943e 430e 73bd
00000080: 702e ca3d 4594 c83c 8d99 ea3b 804a c83d
00000090: 3fd0 25be 90c2 babd 0b35 abbe 6d3d 593e
000000a0: 20fe 8abe 23e1 2e3e 6c61 1ebe 3320 5dbd
000000b0: b51e 973e a018 5ebd 70e4 203e 5958 283e
000000c0: d2bc 8abe 7868 9a3d 2f7c 1ebe 3479 74be
000000d0: c4b3 1b3d 856d 3a3e 76ee 87bd fcc6 273d
000000e0: 4f4a df3d d041 533c 2fec 733d f9eb cebd
000000f0: 1094 90bc 0fbe 3b3e 9f95 343e c23f 863e
00000100: 5013 87be 77e5 37be 74a0 aebb dbf5 bcbe
00000110: d289 113c 72a3 2c3e 0ac8 203e 188d 1bbd
00000120: 358d 323d 4152 9b3d e7c5 1b3e 0458 a0be
00000130: 530d 03be 1c8c 8bbd e2a5 293e e5df 5ebd
00000140: 3794 e13d 0abb 5ebe 3962 843d 8865 07bd
00000150: 5adb 213e 0beb 0a3e 2415 b63d 1806 16be
00000160: 313c 85bd c585 04be 463b 4739 a320 733e
00000170: 615a 80bd b474 943e bad0 57bd 7863 1cbd
00000180: 96d7 273d f834 27be 9fc6 603d d55e 81bd
00000190: 42bb e53c e057 193d b8b5 0c3e e796 ae3e
000001a0: 352b 23bd 4da0 ef3d b8fa 73bc b9c6 36be
000001b0: e056 f63d 861a adbc 6e87 193d bde0 67be
000001c0: 0315 c4bc 17df 823e 29f6 32bd 0bbf 79bd
000001d0: 99d5 303e d349 23be 2af3 b3be 3d40 bd3d
000001e0: a496 dabc 4282 41be dee2 44be 8f36 893d
000001f0: c35c 14be 6fd2 dcbd 397b d4bd 9765 a4bd
00000200: 97df f1bb e020 9bbd 20eb eabd e672 f93d
00000210: 1099 3ebc ad06 cf3e 81e1 113e b94c 50bd
00000220: 20d2 053d 9e2f c93d 78e4 903e 7d5b 3bbe
00000230: 1f80 2c3d 9426 1d3e d5ac 0bbe b64f ce3c
00000240: 0fd1 9b3e 3491 d2bd 33de e03d 690b 32be
00000250: 1998 a63d dd5b 1ebe ce06 463e 5e67 b1be
00000260: fdcd fbbd 54fd 31bd 7f0f 123e 5ec3 7cbe
00000270: e6fb 003d 01ed 923e a900 84bd 80ae b13d
00000280: ee61 c3bd 5672 283d 22a4 debc 40d0 613e
00000290: d0a8 9d3e c708 05be ed69 373e 5f32 45bd
000002a0: e55c 3fbe 3e2b 31be 9a14 3fbd b4ae 8a3e
000002b0: 994b c2bd a66d 10bd 6bc0 cbbd 7a8e b6bd
000002c0: 46ac d03c ec29 163d 04d7 e33b 3e05 f9bd
000002d0: 131c 32be 2dbf 17bd 00ea 3b3e 2a4b 46be
000002e0: 0798 30bd cbb3 c73c 2fb0 b0bd 473a b33e
000002f0: 727f ae3e 39f4 39be e35d 82bd 5d65 183e
00000300: 8169 2e3d 6114 8d3a 54e8 4d3d 0dbb dcbd
00000310: 0d94 853d f051 2bbe 46bf db3c 2a0d cfbd
00000320: 3616 313d 5b5c 543e 061b c83e 3077 38be
00000330: 8e0f 07be d1ba ccbb 0fcc 79be b705 ee3d
00000340: 73b8 6b3c 1d57 1fbd 5a6f 19be 5bcf 34be
00000350: cf2d c23d 098c 23bd c419 75be 410e 6bbe
00000360: d0f3 743e d87e 133e b682 c63c 140e e83d
00000370: 237a 0d3e 9cb3 953c 432e aebd e674 a7bd
00000380: 62bf 20be 3598 733b e9be f0bd 6e44 c63d
00000390: 1e69 bf3d 00c1 82be bed8 743e 2ca4 ca3e
000003a0: 6f0a d5bd c36e 81bb 662e 973d de2a 40be
000003b0: 6c15 6dbc 50d6 ce3c d0a0 3d3e 442b 63be
000003c0: 0120 90bd d2af 5d3d 691b 993d e34e b5be
000003d0: f902 1fbe 63c6 c7bd b8a8 2cbe 9fea 173e
000003e0: f794 463e 703b 17be a161 c8bc 2be6 b33e
000003f0: 3d83 0e3e 4450 9abe 514d 3e3e bf1d d93d

model.input_block.4.weight f4 [40]
1.0975882 1.1170388 1.0386889 1.117444 1.0440209 1.0072436 1.0445136 1.0872138
1.027275 1.0130479 1.0768278 1.1725323 1.1680086 1.1208472 1.0202743 1.0693251
1.1313314 1.0608116 1.0536062 1.0190011 0.9600033 1.0899414 1.0449591 1.0543631
0.9990324 0.9772481 1.1044842 1.0323257 1.0661054 1.2165165 1.1173313 0.94477475
1.1444001 1.0279307 1.0557276 1.0342875 0.9105713 1.047792 1.2395736 1.1031914
00000000: c57d 8c3f 21fb 8e3f c2f3 843f 6808 8f3f
00000010: 7aa2 853f 5ced 803f 9fb2 853f d229 8b3f
00000020: bf7d 833f 8eab 813f 7ed5 893f 8a15 963f
00000030: 4e81 953f ec77 8f3f 5998 823f a5df 883f
00000040: 78cf 903f adc8 873f 91dc 863f a16e 823f
00000050: c7c2 753f 3383 8b3f 38c1 853f 5ff5 863f
00000060: 96c0 7f3f ee2c 7a3f bd5f 8d3f 4023 843f
00000070: 2476 883f d0b6 9b3f b604 8f3f c2dc 713f
00000080: b47b 923f 3c93 833f 1522 873f 8863 843f
00000090: 331b 693f 0c1e 863f 59aa 9e3f 6035 8d3f

model.input_block.4.bias f4 [40]
0.021598738 -0.0021281803 -0.00026278794 -0.0056038797 -0.0034633868 0.010415945 -0.016650133 -0.013579804
0.0040041166 0.0013568858 -0.004130591 0.015775604 -0.021945111 0.0042967787 -0.0052243625 -0.030927148
-0.0041564764 0.0075446935 0.0019016934 -0.004754705 -0.0036211733 -0.017691739 -0.012199208 -0.0007845324
0.024052542 -0.007926479 0.0073158466 -0.01668464 0.0072261523 -0.008850472 0.01142616 -0.015144902
-0.004373922 -0.0042396784 0.014093231 0.0020277747 -0.0019815408 -0.0056542936 -0.0054642544 -0.0028576348
00000000: d6ef b03c f178 0bbb cdc6 89b9 c0a0 b7bb
00000010: fdf9 62bb a4a7 2a3c dc65 88bc d47d 5ebc
00000020: f734 833b 88d9 b13a e959 87bb d73b 813c
00000030: 3cc6 b3bc fecb 8c3b 2131 abbb ee5a fdbc
00000040: 0d33 88bb 7a39 f73b 3e42 f93a 5bcd 9bbb
00000050: 3551 6dbb 44ee 90bc 30df 47bc 14a9 4dba
00000060: d609 c53c 10de 01bc c5b9 ef3b 3aae 88bc
00000070: 5cc9 ec3b 9201 11bc ca34 3b3c 5322 78bc
00000080: 1e53 8fbb 00ed 8abb 4ce7 663c 6ae4 043b
00000090: bddc 01bb a747 b9bb 7d0d b3bb 2847 3bbb

model.input_block.4.running_mean f4 [40]
0.00078981154 -0.00071347575 0.0052080792 -0.004349607 -0.005090996 0.020973612 -0.0062274686 -0.0044269627
-0.00060817477 -0.004183241 0.002128188 0.007573011 -0.004141051 -0.00089321675 -0.00074614503 -0.0015966713
-0.0001729364 0.0007047851 -0.0003988889 -0.004163399 -0.011806988 0.00057598425 -0.000945295 -6.2340077e-06
0.005222889 -0.022624994 0.050464623 -0.00085863407 0.010785654 -0.005826658 -0.0035304222 -0.0055650636
0.0021615105 0.00092209567 0.001001789 0.0018717593 0.012271216 0.0035843223 -0.001051432 0.001107681
00000000: 5b0b 4f3a 8c08 3bba 89a8 aa3b 2687 8ebb
00000010: 5fd2 a6bb dad0 ab3c cb0f ccbb 0e10 91bb
00000020: eb6d 1fba 9213 89bb 1279 0b3b 0527 f83b
00000030: a7b1 87bb c326 6aba f298 43ba 6647 d1ba
00000040: 4356 35b9 54c1 383a f621 d1b9 1f6d 88bb
00000050: 1972 41bc a6fd 163a accd 77ba b82d d1b6
00000060: c524 ab3b 0d58 b9bc feb3 4e3d f515 61ba
00000070: 50b6 303c 8ded bebb a85e 67bb 235b b6bb
00000080: 21a8 0d3b cbb8 713a 764e 833a d255 f53a
00000090: 360d 493c f3e6 6a3b 34d0 89ba 9b2f 913a

model.input_block.4.running_var f4 [40]
1.7495229e-07 2.0016405e-07 1.9033284e-07 1.9214669e-07 1.9986787e-07 2.1984583e-07 3.8688842e-07 1.8340145e-07
2.8718125e-07 1.4589838e-07 1.7294734e-07 2.538512e-07 2.8258683e-07 3.35893e-07 2.9381744e-07 3.857556e-07
1.4338686e-07 1.4363033e-07 3.063022e-07 1.0051732e-07 1.7315864e-07 5.0220797e-07 1.4016648e-07 9.662367e-08
2.1012444e-07 1.4184488e-07 1.870744e-07 1.0033418e-07 1.9780666e-07 3.1948667e-07 1.2215268e-07 2.1328766e-07
2.2296412e-07 1.26972e-07 1.676347e-07 2.508813e-07 1.8616932e-07 1.2525481e-07 3.6720013e-07 2.1236691e-07
00000000: 85da 3b34 adec 5634 4b5e 4c34 e150 4e34
00000010: 439b 5634 c30e 6c34 8ab5 cf34 02ed 4434
00000020: e42d 9a34 3ea8 1c34 67b3 3934 0b49 8834
00000030: 70b6 9734 c854 b434 f6bd 9d34 d919 cf34
00000040: e1f5 1934 ce38 1a34 db71 a434 fbdb d733
00000050: 7ced 3934 78cf 0635 ab80 1634 6d7f cf33
00000060: 919e 6134 064e 1834 9fde 4834 4c77 d733
00000070: ae64 5434 ea85 ab34 1329 0334 1104 6534
00000080: e967 6f34 cc55 0834 13ff 3334 ddb0 8634
00000090: d5e5 4734 c87d 0634 9a23 c534 f906 6434

model.channel_expansion.0.weight f4 [16, 40, 1, 1]
0.033413958 0.045926083 -0.11681442 0.10536751 -0.18145739 0.13674107 -0.069174126 0.14642686
0.05790308 0.0212739 -0.07873724 0.0055283643 -0.12684481 0.007475211 0.086400725 0.03417618
0.11427949 -0.066254295 0.048671257 -0.17740141 -0.15766098 0.0015783915 -0.096415125 0.12816471
-0.22271127 0.018171066 -0.1834168 -0.04620114 -0.15102853 0.07958468 -0.33199364 -0.022302885
0.12996972 -0.047054414 0.11512788 -0.21565087 0.088605255 -0.055069834 0.13866484 -0.016103448
-0.2801401 -0.043566044 -0.03474181 -0.22641256 -0.0071986746 -0.092665225 -0.041925646 -0.050580207
0.1269374 -0.19105375 -0.09281919 -0.10245721 -0.004913203 -0.090639204 0.18180837 -0.020825302
0.060751792 0.078864045 -0.04979554 0.055497155 -0.1763872 0.29891992 0.07827043 0.25149554
-0.06423541 -0.09462608 0.008968368 -0.05472658 0.05291032 0.14957294 0.029912775 0.021070976
-0.062931955 0.14293571 0.092181236 0.0043316977 0.017422093 -0.024419691 -0.05018378 0.058040913
0.079603985 -0.27695498 -0.069727786 -0.111352086 0.02607648 -0.14337505 -0.08550071 -0.13134305
-0.021922456 0.051531997 0.090238295 -0.00491364 0.19393413 0.03970305 -0.082018286 -0.03622268
-0.21557215 -0.11666333 0.11702942 -0.036597952 0.09219909 0.016263539 -0.08442545 -0.07181476
0.0122941425 -0.07309927 0.15069234 0.18367146 0.11806325 0.094295114 0.10277319 -0.19035366
-0.041624162 -0.111257486 0.0078846915 0.23610228 0.08626219 -0.08018888 -0.17105848 0.1752663
0.039909508 -0.03341804 0.0026575762 0.06445989 -0.09803201 0.07226114 -0.027103841 0.18202347
0.12409549 -0.07387099 -0.107964985 -0.34235036 -0.269653 0.094353236 0.17778035 -0.040325623
0.008396567 -0.012750646 0.018154126 -0.044616934 -0.12263158 -0.106085345 -0.15144798 0.016971529
-0.13508584 0.08964757 -0.14476307 0.044442635 0.1083388 0.047063958 -0.12561655 0.008654194
0.14832988 -0.06290062 -0.03799178 -0.07378525 0.041912254 -0.16771413 -0.14317158 -0.06652056
0.25878948 -0.022069797 0.040876146 0.3958305 0.121502765 -0.046016544 -0.21974492 0.017500546
-0.16402218 -0.10399522 0.0089161545 0.25056306 0.004251452 -0.11085156 -0.11594494 -0.056051563
0.13125178 0.03531934 -0.034243368 -0.11607915 -0.11596694 -0.03599738 -0.09102467 0.041442554
0.027293155 -0.1413064 -0.030155182 0.033799022 -0.030837627 -0.052954387 0.012886797 -0.19052379
0.09086571 -0.08585123 -0.17047739 0.06555728 0.05519868 0.07150745 -0.0003770687 0.095747404
0.07838886 0.019780971 0.009007898 0.06948864 -0.047948316 -0.10348767 -0.043113615 0.22384965
-0.011613418 -0.044078644 -0.018916786 -0.20630196 -0.31568435 0.07152858 0.12537369 -0.054972265
-0.1243734 0.039013512 0.07149433 -0.094010174 -0.05618383 -0.12670611 -0.02753133 0.0053332243
-0.09482493 0.06787329 0.18983555 -0.12385002 0.082803555 0.13164975 0.025168337 0.019431908
0.12784883 0.017763091 -0.023761662 0.11600294 0.08068217 -0.11458136 -0.10682476 -0.027153673
-0.026954852 0.11651269 0.15240134 0.07458659 0.065652505 0.031208688 0.06375404 -0.08875695
-0.08425822 -0.0702753 -0.14719337 0.16201615 0.105776034 -0.11081134 -0.040757675 -0.028070467
00000000: 13dd 083d fd1c 3c3d 663c efbd ecca d73d
00000010: f7cf 39be da05 0c3e 2aab 8dbd ecf0 153e
00000020: c82b 6d3d 9a46 ae3c fd40 a1bd 4827 b53b
00000030: 9be3 01be 9df2 f43b ddf2 b03d 52fc 0b3d
00000040: 5e0b ea3d 55b0 87bd 835b 473d b7a8 35be
00000050: e171 21be 08e2 ce3a 4b75 c5bd 9c3d 033e
00000060: 6c0e 64be 7ddb 943c 9dd1 3bbe 683d 3dbd
00000070: 39a7 1abe 4bfd a23d 12fb a9be 8ab4 b6bc
00000080: c816 053e 21bc 40bd 2ac8 eb3d 95d3 5cbe
00000090: ac76 b53d e890 61bd 28fe 0d3e 61eb 83bc
000000a0: 866e 8fbe 4f72 32bd 6e4d 0ebd b2d8 67be
000000b0: dce2 ebbb 44c7 bdbd 3aba 2bbd 312d 4fbd
000000c0: e1fb 013e 98a3 43be fd17 bebd 16d5 d1bd
000000d0: effe a0bb 0ca1 b9bd f92b 3a3e d399 aabc
000000e0: dfd6 783d 7983 a13d 68f6 4bbd fc50 633d
000000f0: d99e 34be 080c 993e 3f4c a03d 06c4 803e
00000100: db8d 83bd 51cb c1bd 10f0 123c fa28 60bd
00000110: 7eb8 583d a629 193e a30b f53c 0a9d ac3c
00000120: 78e2 80bd bd5d 123e 84c9 bc3d eaf0 8d3b
00000130: c7b8 8e3c ce0b c8bc 828d 4dbd 4fbc 6d3d
00000140: 6a07 a33d 0bcd 8dbe 71cd 8ebd 900c e4bd
00000150: 589e d53c e9d0 12be ff1a afbd cb7e 06be
00000160: b996 b3bc 3713 533d dbce b83d 9a02 a1bb
00000170: ab96 463e aa9f 223d 34f9 a7bd 3c5e 14bd
00000180: f2be 5cbe 2fed eebd 1fad ef3d bce7 15bd
00000190: e0d2 bc3d 1d3b 853c 40e7 acbd 9e13 93bd
000001a0: 5f6d 493c 12b5 95bd 184f 1a3e 5f14 3c3e
000001b0: 25cb f13d cc1d c13d c07a d23d 12ec 42be
000001c0: 197e 2abd f7da e3bd cb2e 013c ccc4 713e
000001d0: 3baa b03d 113a a4bd f429 2fbe 0279 333e
000001e0: 2778 233d 5be1 08bd bb2a 2e3b 8c03 843d
000001f0: 02c5 c8bd a6fd 933d e008 debc 5c64 3a3e
00000200: c725 fe3d ac49 97bd bf1c ddbd 8c48 afbe
00000210: f50f 8abe 453c c13d 0d0c 363e 7b2c 25bd
00000220: c191 093c 16e8 50bc f6b7 943c 3fc0 36bd
00000230: 4426 fbbd 4643 d9bd 2e15 1bbe e007 8b3c
00000240: f153 0abe 2599 b73d c53c 14be 7b09 363d
00000250: bce0 dd3d 23c6 403d a0a1 00be 52ca 0d3c
00000260: cae3 173e 0ad2 80bd 459d 1bbd b91c 97bd
00000270: 2fac 2b3d 41bd 2bbe 929b 12be ee3b 88bd
00000280: 0e80 843e b8cb b4bc bf6d 273d 4caa ca3e
00000290: 71d6 f83d d87b 3cbd d004 61be 4e5d 8f3c
000002a0: 6ef5 27be 72fb d4bd 1015 123c cd49 803e
000002b0: c44f 8b3b 2506 e3bd 8a74 edbd 5396 65bd
000002c0: de66 063e 03ab 103d c642 0cbd e8ba edbd
000002d0: 1380 edbd fd71 13bd 246b babd abbf 293d
000002e0: e595 df3c a0b2 10be 0008 f7bc d870 0a3d
000002f0: 319f fcbc b3e6 58bd 2523 533c ab18 43be
00000300: cd17 ba3d c5d2 afbd a091 2ebe e542 863d
00000310: 0318 623d 7f72 923d 4eb1 c5b9 3717 c43d
00000320: 578a a03d b40b a23c dd95 133c 0f50 8e3d
00000330: 7465 44bd 58f1 d3bd e797 30bd d838 653e
00000340: 3546 3ebc cf8b 34bd 60f7 9abc d240 53be
00000350: 61a1 a1be 937d 923d f661 003e 992a 61bd
00000360: 7bb7 febd a2cc 1f3d 9f6b 923d 6888 c0bd
00000370: 0421 66bd 3fbf 01be 6289 e1bc 54c2 ae3b
00000380: 9333 c2bd 2701 8b3d 4064 423e 14a5 fdbd
00000390: e994 a93d 31cf 063e d42d ce3c aa2f 9f3c
000003a0: ceea 023e e783 913c d1a7 c2bc f392 ed3d
000003b0: b23c a53d a2a9 eabd f1c6 dabd 6171 debc
000003c0: 6cd0 dcbc 359e ee3d 190f 1c3e dbc0 983d
000003d0: d274 863d 5da9 ff3c 7a91 823d 34c6 b5bd
000003e0: 938f acbd 7fec 8fbd dcb9 16be 90e7 253e
000003f0: 1ba1 d83d 0ef1 e2bd 85f1 26bd 09f4 e5bc

model.channel_expansion.1.weight f4 [16]
1.0374656 1.0993459 1.1273237 0.89776146 1.0272048 1.0795379 1.1293741 1.0867752
0.9462933 1.2094598 0.9421156 1.1095392 0.92744297 1.1173813 1.1023875 1.0872049
00000000: accb 843f 5eb7 8c3f 254c 903f b2d3 653f
00000010: 727b 833f 4c2e 8a3f 558f 903f 731b 8b3f
00000020: 4740 723f 94cf 9a3f 7d2e 713f 6105 8e3f
00000030: e76c 6d3f 5a06 8f3f 091b 8d3f 8829 8b3f

model.channel_expansion.1.bias f4 [16]
-0.3836896 -0.35135898 -0.28789338 -0.2632576 -0.24430303 -0.2716823 -0.440887 -0.110443965
0.08206473 -0.37424245 -0.20261973 -0.35744065 -0.053381383 -0.3051866 -0.25220573 -0.1942563
00000000: f772 c4be 53e5 b3be c366 93be b3c9 86be
00000010: 932a 7abe f119 8bbe f1bb e1be 7230 e2bd
00000020: 8e11 a83d b59c bfbe 8c7b 4fbe 7602 b7be
00000030: 70a6 5abd 6b41 9cbe 1c21 81be 20eb 46be

model.channel_expansion.1.running_mean f4 [16]
-0.007972501 -0.0105480105 0.0060483823 -0.006704079 0.012168438 0.005430232 -0.0031849714 1.3248606e-05
-0.002890952 0.0014487993 -0.0045817834 0.0034654124 0.006146717 0.0009253214 -0.010009512 0.006101362
00000000: 189f 02bc 90d1 2cbc 8231 c63b e4ad dbbb
00000010: 215e 473c 16f0 b13b f4ba 50bb 5446 5e37
00000020: 2076 3dbb a3e5 bd3a c922 96bb f91b 633b
00000030: 666a c93b 4591 723a f0fe 23bc efed c73b

model.channel_expansion.1.running_var f4 [16]
0.013580485 0.0111456 0.013366786 0.013692609 0.012007213 0.009869842 0.012126738 0.017110754
0.016794918 0.01573252 0.010059432 0.019338071 0.01114872 0.01721587 0.012276626 0.01225256
00000000: af80 5e3c 099c 363c 5d00 5b3c f756 603c
00000010: e7b9 443c 1eb5 213c 3aaf 463c da2b 8c3c
00000020: 7f95 893c 7ce1 803c 51d0 243c e06a 9e3c
00000030: 1fa9 363c 4c08 8d3c e723 493c f6be 483c

model.fe.0.weight f4 [16, 1, 1, 15]
-0.15902539 -0.077871464 -0.18354638 -0.23484653 -0.17762317 0.017921152 -0.09929634 -0.11511084
-0.14290376 -0.14930691 -0.04154215 -0.044889197 -0.1283166 -0.13994616 -0.0044765603 0.071413554
0.10188432 0.0893727 0.25777203 0.16341679 0.1660968 0.07711381 0.21019284 0.06970486
0.21758303 0.15464154 0.14220582 0.11452711 0.107264474 0.20798221 -0.10417926 -0.31659442
-0.30916727 -0.19934098 0.012114749 -0.18515876 -0.033738002 -0.14778812 -0.21687649 -0.13186875
-0.098212 -0.21364495 -0.19200042 -0.118702956 -0.27772212 0.010773638 0.19369891 0.13063362
0.015651131 0.036747858 -0.02423005 0.115610525 0.13791619 0.23581809 -0.09865508 0.061467204
0.15993758 0.20864837 -0.06444936 0.16488773 0.14900452 0.19909406 -0.006795792 0.23757823
-0.015228699 0.028483981 0.08073062 0.28974265 -0.053894598 0.21484053 0.088389024 0.14086032
0.1998922 0.07857605 -0.045111325 -0.21414194 -0.16271356 -0.25512922 -0.08213795 -0.15639521
-0.14960244 -0.051131513 -0.15446055 -0.0909061 -0.075892344 -0.1499982 -0.0043212594 -0.21626483
-0.11952281 -0.08155946 -0.17571576 -0.3091656 -0.18121478 -0.08510916 -0.02856924 -0.20085502
-0.11724659 -0.07269603 -0.157882 -0.059686296 -0.24879564 -0.18483685 -0.21541153 -0.14477135
-0.25799438 -0.047664084 -0.22698829 0.08962062 -0.16249418 0.14170168 -0.30989495 0.2037315
-0.25240868 0.07771161 -0.06630499 0.17195953 -0.29466373 0.012645677 -0.12062864 -0.13431884
0.20493329 -0.18207702 -0.024319075 0.1056951 -0.16408591 0.201593 -0.09511678 -0.117125385
0.21468955 -0.16998462 0.16189262 -0.052431185 0.037060637 0.24774069 -0.25996566 0.295031
0.10751373 0.306355 0.24070081 0.15580966 0.0061726854 0.2636352 0.08896503 0.19219893
0.10151615 0.24841551 0.2494241 0.26707712 0.18208404 0.24710289 0.04062229 -0.008104155
-0.23767883 -0.19727491 -0.19251817 -0.10109591 -0.04366839 0.017305076 -0.169353 -0.15372464
0.0127841765 -0.17013727 -0.26733518 -0.13853037 -0.17558944 -0.22324288 -0.1840114 -0.24928617
-0.20869829 -0.2866934 -0.16562754 -0.13483803 -0.1738214 -0.124998875 -0.17046575 -0.15500431
-0.13505644 -0.20106336 0.010021341 -0.019557802 -0.038159903 0.024649521 0.17228727 -0.08032357
0.16249877 -0.038224585 0.111007154 -0.08381246 0.20865875 -0.011787413 0.005230729 0.11246119
-0.07798772 0.08294952 0.033645537 0.2724335 0.14545862 0.23640841 0.14712177 0.018150192
0.062373582 0.085148335 0.05806036 0.059818324 0.13414446 0.19126505 0.10594081 0.14400475
0.15015736 0.111758165 0.2921203 0.22037628 0.34559253 -0.041932184 0.1773027 0.10785623
0.012140181 0.043172535 0.1784036 0.10787277 -0.0280928 0.104660295 0.17767674 0.10826379
0.09763651 0.20791046 0.13498467 0.04829462 0.09359481 0.08498308 0.15581991 0.03851522
0.09567768 0.11718934 -0.057439994 0.08811432 0.17483336 0.044997454 0.06631385 0.17386825
00000000: 8dd7 22be 137b 9fbd 95f3 3bbe 9c7b 70be
00000010: d9e2 35be 61cf 923c e15b cbbd 3bbf ebbd
00000020: 5d55 12be e9e3 18be 1a28 2abd bcdd 37bd
00000030: 6d65 03be 0c4e 0fbe 1cb0 92bb 4541 923d
00000040: baa8 d03d 0909 b73d b2fa 833e bb56 273e
00000050: 4815 2a3e d8ed 9d3d cb3c 573e 6cc1 8e3d
00000060: 16ce 5e3e 5a5a 1e3e 679e 113e 308d ea3d
00000070: 7aad db3d 4af9 543e f05b d5bd aa18 a2be
00000080: 2c4b 9ebe 0b20 4cbe f17c 463c 429a 3dbe
00000090: dc30 0abd c555 17be df14 5ebe 9a08 07be
000000a0: 6023 c9bd bec5 5abe c29b 44be 891a f3bd
000000b0: 9831 8ebe ea83 303c 0259 463e d2c4 053e
000000c0: cd36 803c ec84 163d 197e c6bc 36c5 ec3d
000000d0: e739 0d3e 4c7a 713e ad0b cabd 09c5 7b3d
000000e0: adc6 233e eba7 553e 07fe 83bd 54d8 283e
000000f0: a494 183e 50df 4b3e 3caf debb b547 733e
00000100: cb81 79bc 3d57 e93c 1856 a53d 2659 943e
00000110: 95c0 5cbd 28ff 5b3e 4e05 b53d b03d 103e
00000120: 8ab0 4c3e 7bec a03d a7c6 38bd 0648 5bbe
00000130: 629e 26be 4ca0 82be f137 a8bd 1126 20be
00000140: 6231 19be 476f 51bd e82a 1ebe fa2c babd
00000150: 726d 9bbd 2199 19be 5a99 8dbb 8774 5dbe
00000160: 60c8 f4bd a508 a7bd d5ee 33be f44a 9ebe
00000170: 5e90 39be b64d aebd 0a0a eabc f0ac 4dbe
00000180: fb1e f0bd a8e1 94bd d2ab 21be 9e79 74bd
00000190: 49c4 7ebe df45 3dbe d794 5cbe f13e 14be
000001a0: d717 84be 6a3b 43bd 9e6f 68be 048b b73d
000001b0: e064 26be 3f1a 113e 8daa 9ebe fe9e 503e
000001c0: b63b 81be 4427 9f3d e9ca 87bd 2916 303e
000001d0: 2ade 96be d02f 4f3c 260c f7bd e18a 09be
000001e0: 08da 513e 6672 3abe cc38 c7bc ac76 d83d
000001f0: 2306 28be 656e 4e3e 96cc c2bd 6fdf efbd
00000200: 94d7 5b3e 7310 2ebe 2ec7 253e 15c2 56bd
00000210: e5cc 173d bcaf 7d3e 381a 85be 4e0e 973e
00000220: 2930 dc3d 90da 9c3e 467a 763e 918c 1f3e
00000230: 3d44 ca3b 31fb 863e 4c33 b63d cccf 443e
00000240: b3e7 cf3d a360 7e3e 0869 7f3e 55be 883e
00000250: 3d74 3a3e 8a08 7d3e 8f63 263d 4ac7 04bc
00000260: 1462 73be 6f02 4abe 7c23 45be 5f0b cfbd
00000270: a0dd 32bd 60c3 8d3c df6a 2dbe fe69 1dbe
00000280: b974 513c 7738 2ebe 28e0 88be e8da 0dbe
00000290: b8cd 33be c899 64be 7c6d 3cbe e044 7fbe
000002a0: 01b5 55be 7ac9 92be 449a 29be fb12 0abe
000002b0: 3dfe 31be 69ff ffbd 938e 2ebe 73b9 1ebe
000002c0: 3c4c 0abe 8ee3 4dbe 8d30 243c af37 a0bc
000002d0: 8f4d 1cbd cbed c93c 136c 303e af80 a4bd
000002e0: 1466 263e 6291 1cbd b857 e33d dea5 abbd
000002f0: a4aa 553e fe1f 41bc 8966 ab3b 0d52 e63d
00000300: 07b8 9fbd 70e1 a93d e7cf 093d 677c 8b3e
00000310: 1bf3 143e 0c15 723e 17a7 163e b6af 943c
00000320: 717b 7f3d 4062 ae3d b3d0 6d3d 0f04 753d
00000330: 2a5d 093e fcda 433e 7ff7 d83d fb75 133e
00000340: dac2 193e 77e1 e43d cb90 953e 52aa 613e
00000350: 81f1 b03e 15c1 2bbd d78e 353e bae3 dc3d
00000360: 9ce7 463c afd5 303d 6faf 363e 66ec dc3d
00000370: df22 e6bc 2358 d63d e4f0 353e 68b9 dd3d
00000380: a7f5 c73d 7be6 543e 6c39 0a3e 94d0 453d
00000390: a3ae bf3d 9c0b ae3d 418f 1f3e 23c2 1d3d
000003a0: a9f2 c33d f700 f03d 3346 6bbd 4875 b43d
000003b0: 8407 333e 404f 383d 8ecf 873d 850a 323e

model.fe.1.weight f4 [16, 16, 1, 1]
-0.13288164 -0.19989353 -0.14993322 0.04140427 -0.17174299 -0.051389135 -0.19372714 0.24569368
-0.03628811 -0.23612092 0.19835699 -0.06690114 -0.13560134 -0.09381055 0.04474305 -0.10886688
0.023213904 -0.2507086 -0.09927632 0.15449041 -0.08211383 -0.1518743 -0.16598067 0.058513623
-0.020766744 -0.28728056 0.088504024 -0.09077446 0.03246444 -0.049990904 0.02771452 -0.30877444
-0.2487567 -0.123468146 -0.25450945 -0.16135469 -0.16405724 -0.20514733 -0.20864193 0.07932284
-0.07131619 -0.16991405 0.10894463 0.068411484 -0.2033763 -0.17929184 -0.03911739 -0.29177287
-0.2115007 -0.10674757 -0.16961914 8.127163e-05 -0.10512215 -0.08952316 -0.24257426 0.22033106
-0.07684407 -0.3015889 0.17230709 -0.070975564 -0.15729953 -0.28054807 0.011245226 -0.20970528
0.13291153 0.06604008 0.10719039 -0.048464566 0.04140641 0.17530887 0.106769636 0.021698369
-0.10848371 0.1194186 -0.018786898 0.21302454 -0.03132099 0.17174998 -0.15822776 0.048061557
-0.042991042 -0.26363263 -0.07094683 -0.03155266 -0.16591029 -0.1569736 -0.12431663 0.35905686
-0.02152239 -0.24274594 0.070739724 -0.100750126 -0.15408167 -0.06918117 0.036759246 0.05347438
0.21499568 0.14716057 0.09045901 -0.02090054 0.063032374 0.2253615 0.066175155 0.032946438
-0.15002736 0.1075305 -0.03366093 0.25633115 -0.036703665 0.11813734 -0.12741622 0.0875741
-0.22536896 -0.23100652 -0.17430115 0.07679413 -0.18400483 -0.026743243 -0.103694975 0.24318428
-0.04357695 -0.27261102 0.19011287 -0.12667811 -0.1595764 -0.07481981 0.08568459 -0.18558717
0.10845424 0.04296055 0.09241941 0.007920576 0.06711699 0.20331034 0.09791451 5.5167584e-05
-0.3324502 0.06942879 0.008377233 0.1179791 -0.05373319 0.18600471 -0.09547083 0.072477415
0.21472915 0.042203043 0.12867022 -0.12410013 0.022483848 0.1133089 0.11733244 0.059831355
0.16298884 0.1881325 0.015888216 0.2201568 -0.051616184 0.15582083 -0.17797908 0.03300106
-0.033732105 -0.20727971 -0.16118975 0.019345831 -0.1456543 -0.08698558 -0.21345636 0.28222385
-0.036133233 -0.24803874 0.108078934 -0.04267195 -0.13509351 -0.12707815 0.04352554 -0.05846818
-0.0702517 -0.18011162 -0.0805869 0.027143247 -0.12160119 -0.09846553 -0.16641267 0.18498418
-0.047096346 -0.25179344 0.1625171 -0.17033626 -0.1168728 -0.17732216 0.016942872 -0.14619392
0.07362151 0.054296132 0.16342619 -0.101893954 0.046878193 0.1399821 0.18534523 0.02804321
-0.11397615 0.12907586 0.011044231 0.16426222 -0.023848858 0.20309146 -0.17943847 0.07184883
-0.01988988 -0.22602321 -0.12856807 0.074366 -0.15397921 -0.06481593 -0.17436703 0.3412701
-0.024061533 -0.27358672 0.18258472 -0.09684108 -0.09667666 -0.078867 0.112317584 0.027143028
0.13460174 0.068009935 0.1577684 -0.09334662 0.036111847 0.12122954 0.13587418 0.008953029
-0.05233824 0.11379956 0.00401319 0.24980326 -0.10836425 0.26470467 -0.19108744 0.015416713
0.2197028 0.09458563 0.2687916 -0.31000048 0.060269468 -0.012185461 0.12433135 0.103201374
0.22499394 0.20142663 -0.08125507 0.12922107 0.03350562 0.11796122 -0.23357755 -0.05587113
00000000: 2012 08be e4b0 4cbe 1888 19be 8697 293d
00000010: 65dd 2fbe 6a7d 52bd 6860 46be 2097 7b3e
00000020: d7a2 14bd afc9 71be 181e 4b3e 7703 89bd
00000030: 14db 0abe bf1f c0bd 7d44 373d 99f5 debd
00000040: 162b be3c e15c 80be 6251 cbbd bc32 1e3e
00000050: 4c2b a8bd f084 1bbe d6f6 29be fbab 6f3d
00000060: 051f aabc 7016 93be 9941 b53d f6e7 b9bd
00000070: 6ff9 043d 43c3 4cbd 9009 e33c af17 9ebe
00000080: 14ba 7ebe dedc fcbd 104f 82be 2a3a 25be
00000090: 9ffe 27be 2412 52be 3ba6 55be 0374 a23d
000000a0: 390e 92bd f3fd 2dbe 5d1e df3d 521b 8c3d
000000b0: e041 50be 4898 37be 8e39 20bd 4163 95be
000000c0: a493 58be 789e dabd a4b0 2dbe 6070 aa38
000000d0: 484a d7bd eb57 b7bd 6365 78be 779e 613e
000000e0: 6c60 9dbd dc69 9abe 4571 303e a35b 91bd
000000f0: 2113 21be ffa3 8fbe e53d 383c fbbc 56be
00000100: f619 083e 0540 873d a386 db3d c882 46bd
00000110: c599 293d 2b84 333e 0aaa da3d c7c0 b13c
00000120: b52c debd bd91 f43d fbe6 99bc 1b23 5a3e
00000130: 704a 00bd 3adf 2f3e 7506 22be 32dc 443d
00000140: 6017 30bd dbfa 86be 924c 91bd 5d3d 01bd
00000150: 63e4 29be b0bd 20be b899 febd 4dd6 b73e
00000160: b94f b0bc 6492 78be fddf 903d 1556 cebd
00000170: 96c7 1dbe dbae 8dbd dd90 163d f407 5b3d
00000180: d427 5c3e 43b1 163e 9342 b93d 9c37 abbc
00000190: 1e17 813d 2ac5 663e d786 873d d8f2 063d
000001a0: c6a0 19be f338 dc3d 0be0 09bd d63d 833e
000001b0: 9556 16bd fdf1 f13d 6679 02be 0d5a b33d
000001c0: 1fc7 66be f98c 6cbe 007c 32be 3e46 9d3d
000001d0: c36b 3cbe a514 dbbc 085e d4bd 4d05 793e
000001e0: be7d 32bd ac93 8bbe f3ac 423e e8b7 01be
000001f0: ff67 23be 213b 99bd 677b af3d 900a 3ebe
00000200: 421d de3d 67f7 2f3d 6346 bd3d 4ec5 013c
00000210: a274 893d 9630 503e 6787 c83d be63 6738
00000220: ea36 aabe ae30 8e3d a940 093c 079f f13d
00000230: 5517 5cbd 0578 3e3e 3686 c3bd 0a6f 943d
00000240: f5e1 5b3e 19dd 2c3d 20c2 033e 3528 febd
00000250: 0c30 b83c 7f0e e83d fe4b f03d b911 753d
00000260: 8ce6 263e cea5 403e 0128 823c c970 613e
00000270: 7e6b 53bd 7f8f 1f3e 2640 36be 1f2c 073d
00000280: ad2a 0abd 2241 54be ed0e 25be 267b 9e3c
00000290: 6726 15be 7f25 b2bd 4e94 5abe a57f 903e
000002a0: 7100 14bd defd 7dbe 7d58 dd3d c8c8 2ebd
000002b0: f455 0abe c620 02be d647 323d 557c 6fbd
000002c0: 20e0 8fbd 2e6f 38be bf0a a5bd 845b de3c
000002d0: 0b0a f9bd 4ca8 c9bd 1568 2abe 7e6c 3d3e
000002e0: 19e8 40bd 12eb 80be e26a 263e a16c 2ebe
000002f0: 025b efbd f193 35be c7cb 8a3c dcb3 15be
00000300: e0c6 963d 9f65 5e3d 3259 273e c7ad d0bd
00000310: 5903 403d 7857 0f3e 24cb 3d3e e0ba e53c
00000320: 546c e9bd 762c 043e ddf2 343c 5b34 283e
00000330: ae5e c3bc 35f7 4f3e b8be 37be 7b25 933d
00000340: 1af0 a2bc a172 67be 59a7 03be 344d 983d
00000350: baac 1dbe 37be 84bd 458d 32be f4ba ae3e
00000360: b11c c5bc 8f13 8cbe 7df7 3a3e 9e54 c6bd
00000370: 6afe c5bd 0685 a1bd c306 e63d 0e5b de3c
00000380: 0ad5 093e cb48 8b3d 0a8e 213e 832c bfbd
00000390: 04ea 133d 3147 f83d 9a22 0b3e baaf 123c
000003a0: 9f60 56bd be0f e93d 1481 833b 6dcc 7f3e
000003b0: 13ee ddbd 5f87 873e 6dac 43be 6296 7c3c
000003c0: c5f9 603e 1cb6 c13d 0d9f 893e 62b8 9ebe
000003d0: 1edd 763d 87a5 47bc 6fa1 fe3d 3e5b d33d
000003e0: d064 663e c842 4e3e 0f69 a6bd 8752 043e
000003f0: 303d 093d a795 f13d f42e 6fbe 20d9 64bd

model.fe.2.weight f4 [16]
1.436836 1.2354122 1.3547021 1.6060987 1.4704548 1.3390751 1.4948359 1.4697672
1.5714325 1.4500933 1.4592907 1.5066009 1.495697 1.4962792 1.4800158 1.4296774
00000000: 3eea b73f fd21 9e3f e166 ad3f a494 cd3f
00000010: dd37 bc3f d066 ab3f c856 bf3f 5521 bc3f
00000020: b324 c93f a89c b93f 0aca ba3f 4cd8 c03f
00000030: 0073 bf3f 1486 bf3f 2871 bd3f abff b63f

model.fe.2.bias f4 [16]
-0.10372695 -0.07023769 -0.07043281 -0.07828553 -0.00822325 -0.090526365 -0.010612044 -0.07089363
-0.0115769245 0.020153908 -0.10199477 -0.10098387 0.0049951 -0.072755404 0.0034022431 0.020065531
00000000: cc6e d4bd c7d8 8fbd 143f 90bd 2a54 a0bd
00000010: cfba 06bc e365 b9bd 23de 2dbc ae30 91bd
00000020: 24ad 3dbc cf19 a53c a2e2 d0bd a2d0 cebd
00000030: f0ad a33b c900 95bd 2bf8 5e3b 7860 a43c

model.fe.2.running_mean f4 [16]
-0.038573284 0.0067340555 -0.055157483 -0.060163315 0.0813596 0.0021390505 0.08260441 -0.03569097
0.054597087 0.10373894 -0.020331621 -0.025791029 0.09165178 -0.012820689 0.095723614 0.097622134
00000000: 05ff 1dbd 5aa9 dc3b d0ec 61bd cf6d 76bd
00000010: dd9f a63d 502f 0c3b 802c a93d b230 12bd
00000020: 32a1 5f3d 1575 d43d 808e a6bc b547 d3bc
00000030: eeb3 bb3d de0d 52bc be0a c43d 1dee c73d

model.fe.2.running_var f4 [16]
0.094291076 0.08001376 0.08234824 0.12812114 0.061016213 0.11807629 0.06999382 0.11377643
0.08676813 0.08418115 0.102708586 0.09194367 0.0696638 0.11466628 0.07794373 0.10721617
00000000: ae1b c13d 41de a33d 32a6 a83d 3032 033e
00000010: 23ec 793d fbd1 f13d eb58 8f3d 9e03 e93d
00000020: 7db3 b13d 2b67 ac3d e158 d23d f64c bc3d
00000030: e5ab 8e3d 28d6 ea3d f6a0 9f3d 2794 db3d

model.classifier.0.weight f4 [1, 16]
0.663164 0.31559128 0.53704077 0.52521926 -0.60936123 0.38267693 -0.43347687 0.5721198
-0.5382631 -0.52016944 0.7032773 0.5843141 -0.5503712 0.39309874 -0.45368338 -0.37128034
00000000: 1ec5 293f 2e95 a13e 817b 093f c574 063f
00000010: 19ff 1bbf 3bee c33e aef0 ddbe 7176 123f
00000020: 9ccb 09bf d329 05bf fb09 343f 9c95 153f
00000030: 21e5 0cbf 3d44 c93e 3049 e8be 7518 bebe

exp_avg f4 [40, 1, 1, 25]
-0.0014606608 -0.0014676718 -0.0014519093 -0.001456982 -0.001480139 -0.0014803599 -0.0013963669 -0.0011794289
-0.00082194124 -0.00035224896 0.0001718757 0.0006963821 0.0011872377 0.0016295976 0.0020072258 0.002286757
0.0023986613 0.0022450655 0.0017433953 0.00087496405 -0.00027366803 -0.0015060232 -0.0025548034 -0.0031752165
-0.0032237815 -0.002234121 -0.0021450955 -0.0021178632 -0.0021238716 -0.0020853302 -0.0019102348 -0.0015188076
-0.0008903224 -7.0384776e-05 0.00082944747 0.001663389 0.0023006082 0.002662539 0.0027480298 0.0026388443
0.0024591745 0.0023262799 0.0023015128 0.00236427 0.0024170289 0.0023208158 0.001952551 0.0012440231
0.00022297801 -0.0009928 0.00044511838 0.0013683302 0.0022492828 0.0028567014 0.0030025276 0.0025997444
0.0016397478 0.00024704344 -0.001356461 -0.002902327 -0.0041296314 -0.0048300396 -0.004893815 -0.0043318216
-0.0032815894 -0.0019646958 -0.0006298482 0.0005101831 0.0013347858 0.0018288745 0.0020685338 0.0021698796
0.0022392822 0.0023294943 0.0024333075 0.0008678214 0.0021904188 0.0029110948 0.0030342126 0.0027060504
0.002137457 0.001529093 0.001009895 0.0006263209 0.00036825132 0.00021689762 0.00018235382 0.00030162535
0.00060391007 0.0010955426 0.0016961863 0.002260435 0.0026282412 0.0026798423 0.0023776013 0.0017716514
0.00097637903 0.00010046546 -0.0007603558 -0.0015461908 0.0007110973 0.0012041231 0.0014792472 0.0015914639
0.0015984995 0.0015427896 0.0014844952 0.0014682526 0.0015190613 0.0016258378 0.0017424421 0.0018032107
0.0017504384 0.001558678 0.0012262354 0.0007678548 0.00018764181 -0.00051995774 -0.0013577009 -0.002285125
-0.0031938858 -0.00390693 -0.0042420547 -0.004062386 -0.0033493673 -0.004296937 -0.0032580078 -0.0019398305
-0.000485029 0.0009428969 0.002186943 0.0031179094 0.0036632372 0.0038164828 0.003641427 0.0032546648
0.0027970967 0.002394016 0.0021220858 0.001971088 0.0018673956 0.0016997118 0.0013628552 0.0008012711
2.773086e-05 -0.00088232604 -0.0018213438 -0.002673554 -0.003352381 -0.0038083387 -0.0030285628 -0.0040235994
-0.0044961656 -0.0044438657 -0.0039532892 -0.0031676474 -0.0022423666 -0.0013199465 -0.00051139464 0.000108405846
0.000496182 0.00064523437 0.0005873005 0.0003847766 0.00013471128 -6.19967e-05 -0.00011968273 1.0367487e-05
0.0003294528 0.00079065876 0.0013136128 0.0018162585 0.0022044822 0.0024169923 0.0024227665 -0.0016694616
-0.0011059257 -0.00028169173 0.0006101664 0.0013824352 0.0019035554 0.0021290423 0.0020925617 0.0018719106
0.0015600454 0.0012339519 0.00093773537 0.00068670744 0.00045225717 0.00020894155 -9.439283e-05 -0.00049872085
-0.001022965 -0.0016354112 -0.0022565115 -0.002773295 -0.0030676734 -0.003060546 -0.0027296264 -0.0021199735
-0.0004428038 -0.0014534802 -0.002500828 -0.0034420663 -0.004169399 -0.0046191653 -0.0047447262 -0.004522497
-0.0039466503 -0.0030446763 -0.0018926404 -0.0006212139 0.0006198306 0.0016990621 0.0025523256 0.0031866718
0.003668202 0.004073875 0.004439091 0.0047250697 0.00482836 0.0046230596 0.0040212963 0.0030096527
0.0016612121 0.00042380585 0.0003726342 0.00027849208 0.00020305197 0.00021548722 0.0003837984 0.0007362353
0.0012445275 0.0018149227 0.0023083135 0.0025821934 0.002538384 0.0021590644 0.0015061254 0.0007123751
-8.536061e-05 -0.0007789855 -0.0013149021 -0.0016937442 -0.001945983 -0.0021090473 -0.0021946733 -0.0022231617
-0.0021841086 -0.0020557488 -0.0037948922 -0.0045877765 -0.005129319 -0.0054232357 -0.005466439 -0.005228734
00000000: a573 bfba e55e c0ba fe4d beba 34f8 beba
00000010: 3901 c2ba a308 c2ba 4c06 b7ba 1197 9aba
00000020: 8b77 57ba 0eae b8b9 8839 3439 698d 363a
00000030: 169d 9b3a 3998 d53a a98b 033b 6bdd 153b
00000040: dc32 1d3b f321 133b a482 e43a d85d 653a
00000050: 1a7b 8fb9 c165 c5ba 7d6e 27bb 4b17 50bb
00000060: 1446 53bb 556a 12bb bb94 0cbb d9cb 0abb
00000070: a730 0bbb 09aa 08bb d860 faba ba12 c7ba
00000080: 8664 69ba 8a9b 93b8 476f 593a 1306 da3a
00000090: cdc5 163b fe7d 2e3b 4a18 343b 76f0 2c3b
000000a0: 1a2a 213b 8074 183b fad4 163b def1 1a3b
000000b0: 0467 1e3b d418 183b bdec ff3a 7d0e a33a
000000c0: 34cf 6939 d720 82ba c75e e939 8b59 b33a
000000d0: b468 133b 7f37 3b3b 0ec6 443b 7960 2a3b
000000e0: ceec d63a 9c85 8139 47cb b1ba f834 3ebb
000000f0: dc51 87bb 4f45 9ebb 4c5c a0bb f4f1 8dbb
00000100: ef0f 57bb 20c2 00bb 661c 25ba cfbd 053a
00000110: fbf3 ae3a d8b6 ef3a 3d90 073b 8a34 0e3b
00000120: ecc0 123b 6eaa 183b 2078 1f3b 827e 633a
00000130: 218d 0f3b 11c8 3e3b a4d9 463b fe57 313b
00000140: 9414 0c3b d96b c83a 745e 843a af2f 243a
00000150: db11 c139 036f 6339 3b36 3f39 7823 9e39
00000160: b84f 1e3a 4f98 8f3a 9152 de3a ce23 143b
00000170: 923e 2c3b 4ba0 2f3b 88d1 1b3b c236 e83a
00000180: b0f3 7f3a fcb0 d238 9d52 47ba 8ea9 caba
00000190: ef68 3a3a abd3 9d3a 4de3 c13a ab98 d03a
000001a0: be84 d13a 6e37 ca3a 6593 c23a 6272 c03a
000001b0: 3d1b c73a 101a d53a a862 e43a b659 ec3a
000001c0: f76e e53a 8e4c cc3a a2b9 a03a dd49 493a
000001d0: b7c1 4439 c64d 08ba e2f4 b1ba 09c2 15bb
000001e0: 8350 51bb b405 80bb ef00 8bbb c41d 85bb
000001f0: 0f81 5bbb 52cd 8cbb 4d84 55bb e941 feba
00000200: 7e4b feb9 bd2c 773a d152 0f3b d755 4c3b
00000210: ec12 703b f51d 7a3b 02a5 6e3b 374c 553b
00000220: 7f4f 373b ece4 1c3b b112 0b3b 5e2d 013b
00000230: 66c3 f43a ddc8 de3a d5a1 b23a 650c 523a
00000240: 929f e837 e64b 67ba 28ba eeba cb36 2fbb
00000250: 9fb3 5bbb 5295 79bb da7a 46bb 66d8 83bb
00000260: 9254 93bb d99d 91bb 988a 81bb 4e98 4fbb
00000270: abf4 12bb 0e02 adba 1d0f 06ba f257 e338
00000280: 3612 023a f224 293a 12f5 193a d7bb c939
00000290: 4941 0d39 3a04 82b8 2dfe fab8 05f0 2d37
000002a0: 68ba ac39 3644 4f3a 882d ac3a 860f ee3a
000002b0: 1379 103b 6766 1e3b 47c7 1e3b d6d1 daba
000002c0: b5f4 90ba 06b0 93b9 93f3 1f3a d432 b53a
000002d0: b880 f93a 6787 0b3b 5c23 093b e65a f53a
000002e0: 707a cc3a 8ebc a13a 5bd2 753a 2804 343a
000002f0: ee1c ed39 5217 5b39 c4f4 c5b8 97bc 02ba
00000300: 0215 86ba 4b5b d6ba fbe1 13bb 2bc0 35bb
00000310: 050b 49bb 7193 48bb 88e3 32bb 41ef 0abb
00000320: 1f28 e8b9 b482 beba eee4 23bb 4a94 61bb
00000330: 749f 88bb 5e5c 97bb a679 9bbb 7431 94bb
00000340: e752 81bb 3189 47bb 7912 f8ba f6d8 22ba
00000350: 217c 223a 10b3 de3a eb44 273b 7bd7 503b
00000360: 3866 703b 247e 853b cb75 913b c2d4 9a3b
00000370: 3837 9e3b 097d 973b 14c5 833b 983d 453b
00000380: 07bd d93a 4232 de39 1e5e c339 9302 9239
00000390: 59ea 5439 69f4 6139 8d38 c939 eaff 403a
000003a0: 6a1f a33a b3e2 ed3a 1347 173b 043a 293b
000003b0: 045b 263b 177f 0d3b 2f69 c53a afbe 3a3a
000003c0: a103 b3b8 d534 4cba cb58 acba a000 deba
000003d0: 5b10 ffba f137 0abb 82d4 0fbb 77b2 11bb
000003e0: 4323 0fbb beb9 06bb bab3 78bb 0f55 96bb
000003f0: d913 a8bb 66b5 b1bb d01f b3bb cd55 abbb
