eeg_online/lightning_logs/dreyer_source/version_3/checkpoints/epoch=99-step=9800.ckpt (torch, 67146 bytes, 50 tensors)

model.input_block.1.weight f4 [40, 1, 1, 25]
0	0x3de7d6da	0.113202766
1	0x3e30ace1	0.17253448
2	0xbe1db6e4	-0.15401798
3	0xbe3f729c	-0.18696064
4	0xbe1ddd76	-0.15416512
5	0xbd27b64f	-0.040945347
6	0xbdbf7c3c	-0.09349868
7	0x3dc45f9f	0.09588551
8	0xbd238f30	-0.039931476
9	0x3d99815d	0.07495377
10	0xbb12162e	-0.0022291052
11	0x3d12d63f	0.035848852
12	0xbdf471d5	-0.11935774
13	0xbd9edcc5	-0.07756952
14	0xbd4bd63a	-0.04976485
15	0x3caf4bfb	0.021398535
16	0x3daab98e	0.08336173
17	0x3e0028a8	0.12515509
18	0xbdf2facd	-0.11864243
19	0xbd470f20	-0.04859841
20	0x3e0c3525	0.13692148
21	0x3e7e1ef7	0.248165
22	0x3d0d3f72	0.034484334
23	0x3e3b1a37	0.18271719
24	0xbda81fed	-0.08209214
25	0x3ea7f760	0.3280592
26	0x3ed7b929	0.42133453
27	0xbcf13cb8	-0.029447898
28	0xbd349f93	-0.044097494
29	0xbc67192e	-0.014105124
30	0xbd4baa3a	-0.049722888
31	0x3e6267b7	0.22109877
32	0xbd572825	-0.05252852
33	0xbb0fb893	-0.0021930083
34	0xbd998ef7	-0.074979715
35	0xbe41e107	-0.18933497
36	0xbe4da3ba	-0.20081988
37	0x3d00a81e	0.03141033
38	0xbd7304d7	-0.059330788
39	0xbc8d2a5a	-0.017232109
40	0xbd1696e6	-0.036765
41	0xbd7ea7c5	-0.062171716
42	0x3e271598	0.16316831
43	0x3c92fecb	0.01794376
44	0x3de82a17	0.11336153
45	0x3e33e3a5	0.17567308
46	0x3ec77c1f	0.38961884
47	0x3ead5487	0.33853552
48	0x3d8d06c1	0.06886054
49	0x3d8577fa	0.06517024
50	0x3eb84266	0.35988158
51	0x3ea9e473	0.33182105
52	0x3de6cc9c	0.11269495
53	0xbc3ff191	-0.011715309
54	0x3d78257a	0.060582615
55	0xbe441eb4	-0.19152337
56	0xbc73611f	-0.014854698
57	0xbe336f1a	-0.1752285
58	0xbe01f926	-0.12692699
59	0xbd94b8f4	-0.072618395
60	0x3deaefb5	0.11471502
61	0x3d8fd431	0.07022894
62	0xbe37b543	-0.1794024
63	0xbd43ade0	-0.047773242
64	0xbcb3b603	-0.021937376
65	0xbe155428	-0.14582884
66	0xbd8a0f6f	-0.06741225
67	0x3d200841	0.03907037
68	0x3e3df6fd	0.1855125
69	0x3e99b1cc	0.3001846
70	0xbd172606	-0.036901496
71	0x3c316757	0.010827861
72	0x3dbf4469	0.0933922
73	0x3db343ea	0.08753188
74	0xbbafe3a9	-0.0053677154
75	0xbe1a77c0	-0.15084743
76	0xbe74fda4	-0.23924881
77	0xbec0518e	-0.3756222
78	0xbdc726bf	-0.09724187
79	0xbe2a6daf	-0.16643403
80	0xbe3abdc4	-0.18236452
81	0x3e49513c	0.19659895
82	0x3e272eda	0.16326466
83	0xbe508334	-0.2036255
84	0x3cdfc3ba	0.02731501
85	0xbcf67ac4	-0.030087836
86	0xbab09234	-0.0013471306
87	0xbd07af4f	-0.03312617
88	0x3e1503ac	0.14552182
89	0xbd85528a	-0.06509884
90	0x3dc1cdbf	0.09463071
91	0x3dbe9317	0.09305399
92	0x3dfaad8a	0.12240131
93	0x3d731d1f	0.059353944
94	0xbe4abc49	-0.19798388
95	0xbdf10ff9	-0.11770625
96	0x3dd56204	0.104190856
97	0x3b545924	0.0032401765
98	0xbe8cedcb	-0.27525172
99	0xbea90767	-0.3301346
100	0x3e9e0d35	0.3086945
101	0x3e39fcc7	0.18162833
102	0xbdb73f26	-0.089475915
103	0xbda2f909	-0.07957656
104	0xbe6bbb14	-0.23020583
105	0xbd1ab14b	-0.037766736
106	0xbe2964a7	-0.16542302
107	0xbe0f3138	-0.13983619
108	0x3d095708	0.033530265
109	0x3dc19982	0.094531074
110	0xbc7855fd	-0.01515722
111	0x3e2c963a	0.16854182
112	0xbdd30bdc	-0.10304996
113	0x3e26ea37	0.16300283
114	0x3db5796a	0.088610485
115	0xbe6a76b0	-0.22896838
116	0xbdcd405b	-0.100220405
117	0xbc7448a4	-0.014909897
118	0x3d16c4fc	0.036808953
119	0x3da12091	0.0786754
120	0x3df1d450	0.118080735
121	0x3d2e422b	0.04254357
122	0xbdbaf13c	-0.09128043
123	0x3d84b920	0.06480622
124	0xbe87cb67	-0.2652237
125	0x3db11b9b	0.086478435
126	0x3e390687	0.18068896
127	0x3e079ac9	0.1324264
128	0x3e0bed4b	0.13664739
129	0x3b0020ad	0.0019550726
130	0x3d8b91c4	0.06814912
131	0x3dc14e81	0.094388016
132	0xbe0469ff	-0.1293106
133	0xbd2b8249	-0.041872296
134	0x3dc8cc74	0.09804621
135	0xbd8a27f7	-0.06745904
136	0xbd2fd1dc	-0.042924747
137	0xbd9dce01	-0.07705308
138	0xbd2a6bbb	-0.041606646
139	0x3cb4009a	0.021972943
140	0x3d97a7ef	0.07405078
141	0x3cc60b6d	0.02417537
142	0x3e00ef26	0.12591228
143	0xbca26e9d	-0.019828135
144	0xbdf62fa8	-0.120208085
145	0x3cbe64f6	0.023241501
146	0x3e9838be	0.2973079
147	0x3e3963b1	0.18104436
148	0x3da526e2	0.08064057
149	0x3b424deb	0.0029648494
150	0xbe6b26a5	-0.2296396
151	0xbe09c2c3	-0.13453202
152	0x3d6eedbc	0.05833219
153	0x3e7be334	0.2459839
154	0x3e7bda0e	0.245949
155	0xbdaec96e	-0.085345134
156	0x3e3f78aa	0.18698373
157	0xbe06ab2a	-0.13151231
158	0xbcedba67	-0.029019548
159	0xbd4d93c9	-0.050189767
160	0x3cf538bd	0.029934281
161	0x3d8d0b25	0.06886891
162	0xbd42b370	-0.047534406
163	0xbd32c20d	-0.043642092
164	0x3d883e17	0.06652468
165	0x3d521cb0	0.05129689
166	0xbdb8f376	-0.090308115
167	0x3d3d7304	0.046252266
168	0xbe5964cc	-0.21229857
169	0xbcd4ebd1	-0.025991352
170	0x3e46d754	0.19418079
171	0xbd0e1558	-0.034688324
172	0x3e7b2b26	0.24528179
173	0x3e137314	0.14399368
174	0xbddd5373	-0.10806932
175	0x3dd50091	0.10400499
176	0x3d5f170e	0.054465346
177	0xbc6b396a	-0.01435695
178	0x3e1b16b1	0.15145375
179	0xbe819aa8	-0.25313306
180	0xbdc8c302	-0.0980282
181	0xbde6dc38	-0.11272472
182	0x3e2818e7	0.1641575
183	0x3e0a1829	0.13485779
184	0x3e2fdd79	0.17174329
185	0x3d98a3c0	0.07453108
186	0xbe01d113	-0.12677412
187	0xbe165db4	-0.14684182
188	0xbe652518	-0.22377431
189	0x3e107326	0.14106426
190	0x3e844b33	0.25838622
191	0x3e795558	0.24348962
192	0xbdaaddfb	-0.08343121
193	0xbc3a5f43	-0.011375251
194	0xbe47104c	-0.1943981
195	0xbe03b46d	-0.12861796
196	0xbd3b2fab	-0.045699757
197	0x3e59fdc8	0.21288216
198	0x3cc6a0f3	0.024246668
199	0x3db090e4	0.08621386
200	0xbd52c80b	-0.051460307
201	0x3dbdadc5	0.092616595
202	0xbe26fc7d	-0.16307254
203	0xbdfee55e	-0.12446092
204	0xbda25fcd	-0.07928429
205	0x3e4c006d	0.19922037
206	0x3a3d73b7	0.00072270207
207	0x3e762ee0	0.24041319
208	0x3e0361a3	0.12830214
209	0x3d62100d	0.05519109
210	0xba24f27e	-0.00062922377
211	0xbd8430ff	-0.06454658
212	0xbcacae66	-0.021079253
213	0xbddd3f44	-0.108030826
214	0xbda2960b	-0.07938775
215	0xbd81e5fa	-0.06342693
216	0xbe784178	-0.24243724
217	0xbe2b591e	-0.16733214
218	0x3e0fbbe3	0.14036517
219	0xbe0be634	-0.13662034
220	0x3d3e64de	0.046482913
221	0x3e89b33a	0.26894552
222	0x3e03e6ca	0.12881008
223	0x3d0f4545	0.03497817
224	0xbe29eee9	-0.16595043
225	0xbd3f380e	-0.046684317
226	0xbe89420f	-0.2680821
227	0xbe113314	-0.14179641
228	0xbde0d502	-0.10978128
229	0xbd1e639d	-0.038669217
230	0x3c258f23	0.010104927
231	0x3e2f8318	0.17139852
232	0x3c6c1724	0.014409814
233	0x3e162088	0.14660847
234	0x3da14450	0.07874358
235	0xbe215411	-0.15754725
236	0x3dbccd9a	0.09218903
237	0xbdcde895	-0.10054127
238	0xbc9ae4db	-0.018907955
239	0x3dfddf16	0.12396066
240	0x3ddc84a5	0.107674874
241	0x3e1f3258	0.15546548
242	0xbdcb054c	-0.0991312
243	0xbd9724a3	-0.07380035
244	0xbbf40ed7	-0.007448058
245	0xbeab38a9	-0.33441666
246	0xbc4a3910	-0.012342706
247	0xbe9dedc0	-0.3084545
248	0xbda83380	-0.08212948
249	0xbc4a067f	-0.01233065
250	0xbdf955ca	-0.12174566
251	0xbca894dd	-0.020578796
252	0x3dbbb6f8	0.09165758
253	0xbe1d6a1d	-0.1537251
254	0xbe653e54	-0.22387058
255	0xbe3169c0	-0.17325497

model.input_block.2.weight f4 [40]
0	0x3f743b72	0.95403206
1	0x3f92a4b3	1.1456512
2	0x3f8a2a30	1.0794125
3	0x3f909f32	1.1298583
4	0x3f847785	1.0348974
5	0x3f65313a	0.8952824
6	0x3f73d1bc	0.95241904
7	0x3f8ce7a1	1.1008188
8	0x3f85b719	1.0446502
9	0x3f8ad0bf	1.0844954
10	0x3f91b059	1.1381942
11	0x3f9520b9	1.1650611
12	0x3f98220b	1.1885389
13	0x3f87118e	1.0552232
14	0x3f813558	1.0094404
15	0x3f84a9cf	1.0364321
16	0x3f865406	1.0494392
17	0x3f70b46d	0.9402531
18	0x3f89efe9	1.077634
19	0x3f8834a1	1.0641061
20	0x3f6fa9e6	0.9361862
21	0x3f893cc4	1.0721669
22	0x3f92eff0	1.1479473
23	0x3f5c21a9	0.8598886
24	0x3f85c7c9	1.0451595
25	0x3f7c015b	0.9843957
26	0x3f8cfe7f	1.1015166
27	0x3f75466a	0.9581057
28	0x3f8af763	1.0856746
29	0x3f8e55c5	1.1119925
30	0x3f91ace6	1.138089
31	0x3f8081d0	1.0039616
32	0x3f9305b3	1.1486114
33	0x3f8f3dd5	1.1190745
34	0x3f8b4db3	1.0883087
35	0x3f82da92	1.0222952
36	0x3f6b0fc6	0.91820943
37	0x3f81d9b1	1.0144559
38	0x3f7d8a3b	0.9903905
39	0x3f89372c	1.0719962

model.input_block.2.bias f4 [40]
0	0x3d29f293	0.041491102
1	0xbd9f3bcb	-0.077750765
2	0xbc021505	-0.007939582
3	0x3bd48e7c	0.006486712
4	0xbd945dab	-0.07244428
5	0x3d3c089c	0.045906648
6	0xbbda7a33	-0.0066673993
7	0x3d01f340	0.031726122
8	0x3d74ba82	0.05974818
9	0xbc75caa4	-0.015001927
10	0x3db75206	0.089511916
11	0x3cfd6e55	0.0309364
12	0xbb17293a	-0.0023065344
13	0xbc162f6d	-0.009166581
14	0x3d49c3e0	0.049259067
15	0xbdb4f21e	-0.08835243
16	0xbd7b2802	-0.06131745
17	0xbd0a28d8	-0.033730358
18	0x3c8d8950	0.01727739
19	0xbd8ba86a	-0.06819232
20	0x3d87e1b5	0.06634847
21	0xbcc0f258	-0.023553059
22	0xbd80f471	-0.062966235
23	0xbdeea60c	-0.11652765
24	0xbe1cd594	-0.15315849
25	0x3d880f9d	0.06643603
26	0x3d9a6fbd	0.07540844
27	0x3d80dddf	0.062923186
28	0x3bc108b4	0.00589093
29	0x3d00a710	0.031409323
30	0xbd3a90da	-0.045548297
31	0xbd49dba1	-0.04928172
32	0x3d16ac9a	0.0367857
33	0xbc90549c	-0.01761847
34	0x3ddc71a9	0.107638665
35	0x3aa7bd3a	0.0012797483
36	0xbda98ba6	-0.08278589
37	0xbd9bd67a	-0.076092675
38	0x3dc7dc65	0.09758834
39	0x3d8132c8	0.06308514

model.input_block.2.running_mean f4 [40]
0	0xb0a9a5c1	-1.2343478e-09
1	0x31181bf0	2.2134792e-09
2	0x31000a36	1.8632256e-09
3	0xb18207ec	-3.7843986e-09
4	0x3002720d	4.74558e-10
5	0x312ae829	2.4870224e-09
6	0x2f0b3c10	1.2663315e-10
7	0x3062d64c	8.2522855e-10
8	0xb05bb64e	-7.9930806e-10
9	0xb0b18901	-1.2917384e-09
10	0xb10cc5f0	-2.0485196e-09
11	0xb13ed62d	-2.7770384e-09
12	0xb1805e3d	-3.736004e-09
13	0x3168ee44	3.3895882e-09
14	0xb0a269c4	-1.1817112e-09
15	0xaf5de65b	-2.0181672e-10
16	0xb0ec1e28	-1.7179831e-09
17	0xb025a7a6	-6.0264893e-10
18	0x312dbcdb	2.5282165e-09
19	0xb170de22	-3.5050864e-09
20	0xb05a079f	-7.931877e-10
21	0xaf86a542	-2.449188e-10
22	0xb1845e71	-3.8524424e-09
23	0x313fdd66	2.7920009e-09
24	0xb0982e9f	-1.1072706e-09
25	0x3014462e	5.394182e-10
26	0xad89dd62	-1.567341e-11
27	0xb0c84134	-1.4570447e-09
28	0x30e53c3d	1.6679064e-09
29	0x31843c3c	3.8485535e-09
30	0xb1587f25	-3.150441e-09
31	0x31205f77	2.333733e-09
32	0x30e6b840	1.678707e-09
33	0x31663f7a	3.3505487e-09
34	0xb146613b	-2.8868061e-09
35	0xb18389fa	-3.828288e-09
36	0xb0009f64	-4.6792636e-10
37	0xb14f6292	-3.0178495e-09
38	0xb1500cdf	-3.02753e-09
39	0xb0341b5f	-6.5522515e-10

model.input_block.2.running_var f4 [40]
0	0x2dce30ac	2.3441103e-11
1	0x2ece44de	9.380029e-11
2	0x2e7356c7	5.5328877e-11
3	0x2e8d3ec5	6.423088e-11
4	0x2dbadcc8	2.1243798e-11
5	0x2dcd3816	2.3330709e-11
6	0x2d795a63	1.4174081e-11
7	0x2d93afa3	1.6789964e-11
8	0x2de63e2d	2.6175584e-11
9	0x2e459cc1	4.493184e-11
10	0x2e819b8a	5.89387e-11
11	0x2e1d8e36	3.5823976e-11
12	0x2ddf5c1f	2.5393075e-11
13	0x2dc8db9d	2.2834895e-11
14	0x2e19c95b	3.4967012e-11
15	0x2e00de17	2.9301086e-11
16	0x2e00e412	2.9306398e-11
17	0x2de98ff6	2.6552965e-11
18	0x2e850c22	6.050295e-11
19	0x2e1a2164	3.5045203e-11
20	0x2d6f4281	1.3600344e-11
21	0x2e880047	6.184613e-11
22	0x2e711eac	5.4824298e-11
23	0x2d84bdff	1.5091038e-11
24	0x2e05c874	3.0418737e-11
25	0x2db13bef	2.0149186e-11
26	0x2e19a3fc	3.493382e-11
27	0x2d6a4b64	1.33181e-11
28	0x2e0e02ed	3.228966e-11
29	0x2e4ddf58	4.6809973e-11
30	0x2db90341	2.103351e-11
31	0x2e08981a	3.1057913e-11
32	0x2ea6cb85	7.5849584e-11
33	0x2e9ef712	7.2288966e-11
34	0x2e3f84dc	4.3546375e-11
35	0x2e45f585	4.501068e-11
36	0x2dbf4df1	2.1748799e-11
37	0x2e18fd2f	3.478567e-11
38	0x2e006930	2.9197256e-11
39	0x2dd4f1dd	2.4209018e-11

model.input_block.3.weight f4 [40, 1, 27, 1]
0	0x3cbac9a0	0.02280122
1	0xbde04130	-0.109499335
2	0x3d05a3da	0.032626964
3	0xbdb9d1df	-0.09073233
4	0x3cb2aab8	0.02180992
5	0x3d46baf6	0.048518144
6	0xbe9383f9	-0.28811625
7	0x3d584d29	0.05280796
8	0xbd4c97ec	-0.04994957
9	0xbc4bdf68	-0.012443401
10	0x3d84a3e0	0.06476569
11	0x3dc38e59	0.09548635
12	0x3e0c5f26	0.13708171
13	0xbda55273	-0.080723666
14	0x3d6fdf2d	0.058562446
15	0x3e180861	0.14846946
16	0x3e49fff6	0.19726548
17	0x3dc89cdb	0.09795543
18	0xbdff43eb	-0.12464126
19	0x3d6d689f	0.057961103
20	0x3e0be739	0.13662423
21	0xbdcf6218	-0.10126132
22	0x3d01fc5e	0.031734817
23	0x3cb0154f	0.021494536
24	0xbe19655e	-0.14980075
25	0xbd9e49af	-0.07728898
26	0xbe6d326a	-0.23163763
27	0x3defeb04	0.117147475
28	0x3d13380e	0.03594213
29	0x3e5bfa95	0.21482308
30	0x3e2b716d	0.16742487
31	0xbcb22ca1	-0.021749796
32	0xbdad2b88	-0.084555686
33	0xbe812448	-0.25222993
34	0x3b2f9627	0.0026792379
35	0xbc6ada7f	-0.01433432
36	0xbea1c270	-0.31593657
37	0x3cb23787	0.021754993
38	0xbdc1da83	-0.09465506
39	0x3e308ac5	0.17240436
40	0xbd899b53	-0.06719079
41	0x3e313ff9	0.1730956
42	0xbe1a6396	-0.15077052
43	0xbdf40630	-0.11915243
44	0x3dc8c8f7	0.09803956
45	0x3d6a437b	0.05719326
46	0x3d767ad5	0.060175736
47	0x3ce12fa8	0.027488545
48	0xbe3c0235	-0.18360217
49	0x3db029bb	0.086017095
50	0xbd984c83	-0.074364685
51	0xbe1e2060	-0.15442038
52	0x3dfbec30	0.123009086
53	0x3e385070	0.17999434
54	0xbe5881b1	-0.21143223
55	0xbe43cac7	-0.19120322
56	0xbc6c1f79	-0.014411801
57	0xbd9f91f7	-0.077915125
58	0x3bfbd853	0.0076857
59	0x3caf41f6	0.021393757
60	0x3e3c6006	0.18396005
61	0x3e5838bd	0.21115394
62	0x3d6ff41a	0.058582403
63	0x3ecfa443	0.4055501
64	0xbdca00a4	-0.098634034
65	0xbe0ab8f5	-0.13547118
66	0xbd9f4b96	-0.07778089
67	0xbde46579	-0.11152167
68	0x3dfa45fc	0.1222038
69	0x3e1e304e	0.15448114
70	0x3d1699c1	0.036767725
71	0xbda2c1fc	-0.07947156
72	0xbd987657	-0.074444465
73	0xbc4da834	-0.01255231
74	0x3e68545a	0.22688428
75	0xbda6fc1a	-0.08153553
76	0xbdf61a6e	-0.1201676
77	0xbd89bb61	-0.06725193
78	0x3e45833d	0.19288345
79	0xbde1baaf	-0.11021935
80	0xbe1d3aca	-0.15354457
81	0xbdab32e6	-0.083593175
82	0x3e0e55a1	0.13899852
83	0x3cd20acc	0.025639914
84	0x3d636f04	0.055525795
85	0x3d1ba7f5	0.038001973
86	0x3e2ff59b	0.17183535
87	0x3dffb189	0.12485034
88	0xbd969cf0	-0.07354152
89	0xbe746eca	-0.23870388
90	0xbe982187	-0.2971308
91	0x3e0b3b42	0.13596824
92	0x3d9f6f96	0.07784955
93	0x3e1cf7b7	0.1532887
94	0xbd862a93	-0.06551089
95	0x3d54c3ec	0.05194466
96	0xbd85e9cb	-0.06538733
97	0xbe560f6a	-0.20904317
98	0x3d805ac9	0.06267316
99	0x3e6bc894	0.23025733
100	0xbe24621e	-0.16053054
101	0x3bb019bc	0.0053741615
102	0x3d8b5e63	0.06805112
103	0x3d698e0e	0.05702024
104	0xbdb08de6	-0.08620815
105	0x3e176d88	0.14787877
106	0xbdd59130	-0.10428083
107	0xbdd16927	-0.10225134
108	0x3e41c2d9	0.18921985
109	0x3e07fa5c	0.13279098
110	0x3d5b5b8e	0.05355411
111	0xbdca48f7	-0.09877198
112	0xbd1ccc0b	-0.038280528
113	0x3da31d0e	0.07964526
114	0xbe62f5b2	-0.22164038
115	0xbea1794c	-0.31537855
116	0x3ddb65ad	0.107127525
117	0xbe2fc669	-0.17165531
118	0x3ceebb08	0.029141918
119	0x3ddfc868	0.10926896
120	0x3e00df42	0.12585166
121	0xbe036539	-0.12831582
122	0xbce09697	-0.027415557
123	0x3e1b75d2	0.15181664
124	0xbe34cda4	-0.1765657
125	0xbe0f786d	-0.14010783
126	0xbe3d3ac4	-0.18479449
127	0x3d775313	0.06038196
128	0x3e8a55de	0.27018636
129	0x3d0a1741	0.033713583
130	0x3c7ab1dc	0.015301194
131	0x3df184ea	0.117929295
132	0xbd45642c	-0.048191234
133	0x3e245d9e	0.16051337
134	0xbe06a52c	-0.13148946
135	0xbe1822fb	-0.14857094
136	0x3c416b0d	0.011805308
137	0x3c759273	0.0149885295
138	0x3e3dd68e	0.18538877
139	0xbd7335ba	-0.05937741
140	0xbb9ae65d	-0.0047271685
141	0x3b110205	0.0022126448
142	0xbdd79ee6	-0.10528354
143	0xbe03931f	-0.12849091
144	0x3daed28c	0.085362524
145	0xbdb0ecc4	-0.086389095
146	0xbd08f33a	-0.033435084
147	0xbe8279d1	-0.25483564
148	0xbcd29f8d	-0.025710845
149	0xbe48f9d3	-0.1962655
150	0x3e846881	0.2586098
151	0x3c269913	0.010168332
152	0x3b943f72	0.004524165
153	0x3e39dec9	0.18151392
154	0x3e53d0fc	0.2068519
155	0xbe2c29e0	-0.16812849
156	0xbd775854	-0.06038697
157	0x3dd24bf2	0.10268392
158	0xbc0642c5	-0.00819463
159	0x3d9f201c	0.07769796
160	0xbe0b8d88	-0.13628209
161	0xbdc6bd43	-0.097040676
162	0xbd52844b	-0.051395696
163	0x3e33b6ac	0.17550153
164	0x3e17ddc4	0.1483069
165	0xbe3c9ade	-0.18418452
166	0xbd63c2ff	-0.055605885
167	0x3d925c30	0.071464896
168	0x3c7988a7	0.015230334
169	0xbd1ae48d	-0.03781562
170	0x3c88e9b1	0.016712995
171	0x3e4e3c87	0.20140277
172	0x3ca54cf7	0.020178301
173	0xbdf71149	-0.12063844
174	0x3c8cf58a	0.017206926
175	0x3dea927b	0.1145372
176	0x3dbc51e5	0.09195308
177	0x3d063c02	0.03277207
178	0xbd4aaa2b	-0.04947869
179	0x3d2cdd6a	0.042203344
180	0xbd8cfbd9	-0.06883974
181	0xbdd8ee9d	-0.10592387
182	0x3e12dd26	0.14342174
183	0xbdb38b00	-0.087667465
184	0xbe0a9316	-0.13532671
185	0xbde91cd9	-0.113824554
186	0x3c5d4291	0.01350464
187	0x3e2ea625	0.17055567
188	0x3ea60686	0.32426852
189	0xbd466e83	-0.048445236
190	0x3daab7a3	0.08335807
191	0x3e559399	0.20857085
192	0x3e189e62	0.14904168
193	0x3e555e09	0.20836653
194	0xbca776d5	-0.020442406
195	0xbe9a7848	-0.30169892
196	0x3ed32e7a	0.41246396
197	0xbdc06f42	-0.09396221
198	0x3bf207e2	0.0073861936
199	0xbceee0ce	-0.02915993
200	0xbdb8a848	-0.09016472
201	0x3e1def6b	0.15423362
202	0x3e447449	0.19184984
203	0xbdbca87c	-0.09211823
204	0xbe4cd5a3	-0.20003371
205	0xbe090132	-0.13379362
206	0xbc6116fa	-0.013738388
207	0x3e0902a5	0.13379915
208	0x3d1b7c29	0.037960205
209	0xbcdd67f3	-0.027027106
210	0xbbd8dc49	-0.006618057
211	0x3c441d62	0.011969896
212	0x3d813d23	0.06310489
213	0xbe6063a0	-0.21913004
214	0xbe485c16	-0.19566378
215	0xbe1ff316	-0.15620074
216	0xbc759bc0	-0.014990747
217	0x3d4c9cb0	0.049954116
218	0xbe36375a	-0.17794552
219	0x3d4a6e92	0.049421854
220	0x3e4653ae	0.19367859
221	0x3d782c13	0.060588907
222	0x3bd3d6e2	0.006464825
223	0xbe087ca4	-0.13328797
224	0xbd07d3cb	-0.033160966
225	0x3d0f83b3	0.035037708
226	0xbe11326e	-0.14179394
227	0x3d7e33a1	0.062060956
228	0x3da19a04	0.07890704
229	0xbe481bba	-0.19541827
230	0x3e2688ad	0.16263075
231	0x3e6a5074	0.22882253
232	0xbdad7730	-0.08469999
233	0xbe0a0ef6	-0.1348227
234	0x3e4b1fc7	0.19836341
235	0xbe74b408	-0.23896801
236	0x3d84b469	0.06479723
237	0xbd6994de	-0.057026736
238	0x3e2d42cb	0.16920011
239	0xbe22353c	-0.1584062
240	0xbe66f4a7	-0.22554265
241	0x3d55e571	0.052220766
242	0x3d9b1c51	0.0757376
243	0xbe52750d	-0.20552464
244	0xbe6e38e0	-0.23263884
245	0xbe919982	-0.2843743
246	0xbe5cd476	-0.21565422
247	0xbe112ef6	-0.1417807
248	0x3e62d71a	0.22152367
249	0x3e361e0f	0.17784904
250	0x3d396f5b	0.045272212
251	0x3e759c5f	0.23985432
252	0x3ea6cc7a	0.32577878
253	0xbd4b2390	-0.049594462
254	0x3d98e4a1	0.074654825
255	0x3d3e34cc	0.04643707

model.input_block.4.weight f4 [40]
0	0x3f742fe3	0.9538557
1	0x3f923f2d	1.142553
2	0x3f89fd7c	1.0780482
3	0x3f905ea3	1.1278881
4	0x3f84220e	1.0322893
5	0x3f65f440	0.8982582
6	0x3f733133	0.9499695
7	0x3f8e075e	1.1095998
8	0x3f8594c9	1.0436031
9	0x3f8a5f54	1.0810342
10	0x3f911d10	1.1336994
11	0x3f950117	1.1640958
12	0x3f97d82c	1.1862845
13	0x3f87156b	1.0553411
14	0x3f8124bc	1.0089335
15	0x3f84492a	1.0334828
16	0x3f861f50	1.0478306
17	0x3f70a419	0.94000393
18	0x3f899fde	1.0751913
19	0x3f87addd	1.0599934
20	0x3f6f5b2d	0.934985
21	0x3f88d6c3	1.069054
22	0x3f92d1e0	1.1470299
23	0x3f5c1667	0.85971683
24	0x3f858352	1.0430701
25	0x3f7be342	0.9839364
26	0x3f8cc503	1.0997623
27	0x3f750bbe	0.9572104
28	0x3f8ad4a5	1.0846144
29	0x3f8e431e	1.1114233
30	0x3f91a6b4	1.1378999
31	0x3f803ff1	1.0019513
32	0x3f92bd46	1.1464012
33	0x3f8f00d7	1.1172131
34	0x3f8b0d35	1.0863405
35	0x3f82afa3	1.020985
36	0x3f6b1c6b	0.9184024
37	0x3f817cf3	1.0116256
38	0x3f7d2a1e	0.9889239
39	0x3f88f306	1.0699165

model.input_block.4.bias f4 [40]
0	0xb962e0d4	-0.00021636795
1	0xbc8bb4d0	-0.017053992
2	0xbcd2e023	-0.025741642
3	0xbc901fc3	-0.01759327
4	0xbd061041	-0.032730345
5	0x3b0e7658	0.002173802
6	0xbbf3b805	-0.0074377083
7	0xbc06522c	-0.008198302
8	0xbc3a7263	-0.011379811
9	0xbc051686	-0.008123046
10	0xbd0b97d6	-0.03408035
11	0xbd035fc9	-0.03207377
12	0xbb3246f3	-0.0027202934
13	0xbaa7ac7e	-0.0012792496
14	0xbc4cd825	-0.012502705
15	0xbd590926	-0.05298724
16	0xbb5e4f16	-0.003392165
17	0xbc8c02d4	-0.017091192
18	0xbc2e70b7	-0.0106469905
19	0xbc134e33	-0.008990812
20	0x3a0c548f	0.00053531764
21	0x3a3e7701	0.0007265658
22	0xbacbd1a2	-0.0015550146
23	0xbc483025	-0.01221851
24	0x3c0f0028	0.008728065
25	0xba983a18	-0.0011613993
26	0xbc0e5adc	-0.008688655
27	0xbc793504	-0.015210394
28	0xbbb35b78	-0.0054735504
29	0xbcf683bf	-0.030092118
30	0xbbec9a41	-0.007220537
31	0x3ccc28a4	0.024921723
32	0xbcd7cf17	-0.026343865
33	0xbcbc7448	-0.023004666
34	0x3c06ad3a	0.008220011
35	0xbc012055	-0.007881244
36	0xbc4da003	-0.012550357
37	0xbc0f2f2b	-0.008739273
38	0x3ac9dbd3	0.0015400596
39	0xbbc48793	-0.005997607

model.input_block.4.running_mean f4 [40]
0	0xbb75147a	-0.0037396238
1	0xb9ace196	-0.0003297447
2	0xb8046a9a	-3.1570533e-05
3	0x39c89eb8	0.00038265227
4	0x3b5b4f42	0.003346399
5	0xbc8ba12a	-0.017044622
6	0xbb809366	-0.0039238213
7	0x3a8d134d	0.0010763198
8	0xbbd3ce42	-0.006463797
9	0xba0afdc2	-0.0005302095
10	0xb9238cc9	-0.00015597338
11	0xb9f7f4e8	-0.0004729398
12	0x3939e687	0.00017728853
13	0xba125ea9	-0.00055835635
14	0xbbc0a06a	-0.005878498
15	0x3bc10dbd	0.0058915303
16	0x3b3946b5	0.0028270904
17	0x3a8f3d40	0.0010928288
18	0x3891748c	6.935847e-05
19	0xbc241aac	-0.010016125
20	0xbbe66301	-0.007030845
21	0xba02bb5d	-0.0004987026
22	0xbb1d629e	-0.002401508
23	0x3d24116d	0.04005568
24	0xbbede277	-0.0072596627
25	0x3ca15099	0.019691752
26	0xba8ae6b8	-0.0010597324
27	0x3b91b636	0.00444677
28	0xb960383f	-0.00021383258
29	0x3b64a522	0.0034888466
30	0xbb2ee783	-0.0026688285
31	0x3b4ff39f	0.0031730903
32	0xb99cf400	-0.00029936433
33	0xbad41ab9	-0.001618228
34	0x3a9cbee0	0.0011958741
35	0xb8d30587	-0.000100622936
36	0xbc2d2951	-0.010568933
37	0x3c46f388	0.012143023
38	0xbb8e01f8	-0.004333731
39	0x3b554088	0.0032539684

model.input_block.4.running_var f4 [40]
0	0x34eec683	4.447539e-07
1	0x35525463	7.8353895e-07
2	0x352b43b6	6.3800996e-07
3	0x350c78fb	5.2330114e-07
4	0x355f1c61	8.311527e-07
5	0x34eebb96	4.446744e-07
6	0x34ed8c0d	4.424659e-07
7	0x34e19c05	4.2023035e-07
8	0x34d05bf6	3.880993e-07
9	0x3523cbfe	6.101908e-07
10	0x35381c73	6.858674e-07
11	0x34af04cb	3.2599777e-07
12	0x351a1a9e	5.7408204e-07
13	0x350841fd	5.0759974e-07
14	0x3512134a	5.441731e-07
15	0x34da68d6	4.0681942e-07
16	0x34da22bf	4.0630945e-07
17	0x34f9bfe8	4.6519494e-07
18	0x34d3ff5d	3.9487614e-07
19	0x35210489	5.9983773e-07
20	0x34478d17	1.8584647e-07
21	0x34df08ac	4.1543296e-07
22	0x34c1e130	3.6112897e-07
23	0x3505d6dc	4.985902e-07
24	0x349171b1	2.7091076e-07
25	0x348e654a	2.652326e-07
26	0x34ad1f27	3.2246427e-07
27	0x3467704c	2.1554405e-07
28	0x3500b376	4.7944866e-07
29	0x35192e82	5.706462e-07
30	0x35287fb8	6.277073e-07
31	0x34d9a930	4.05425e-07
32	0x3520a8cc	5.9850277e-07
33	0x350fe067	5.35982e-07
34	0x34b37429	3.3425866e-07
35	0x35283e7c	6.2675804e-07
36	0x3503c7fe	4.909233e-07
37	0x35200534	5.9612216e-07
38	0x34dff504	4.171526e-07
39	0x3516ade3	5.6132393e-07

model.channel_expansion.0.weight f4 [16, 40, 1, 1]
0	0x3db8a5e6	0.090160176
1	0xbd26659d	-0.04062425
2	0x3d516fad	0.051131893
3	0x3e99adb6	0.30015343
4	0xbdbe5323	-0.09293201
5	0x3cac2f34	0.021018602
6	0x3d64aaa1	0.055826787
7	0x3e875b0f	0.2643666
8	0xbcd24f0f	-0.025672464
9	0xbdc91069	-0.09817583
10	0xbe89e1e3	-0.2693015
11	0x3d1843fa	0.037174203
12	0x3d7372a0	0.059435487
13	0xbe58c233	-0.21167831
14	0xbd788817	-0.06067666
15	0x3d96e4fd	0.07367895
16	0x3ded9c4d	0.11602078
17	0xbc875123	-0.016518181
18	0xbd00437e	-0.031314366
19	0x3e10582f	0.1409614
20	0xbe0ec270	-0.1394136
21	0x3d5cb466	0.05388298
22	0xbe025ff7	-0.1273192
23	0x3c5c0852	0.013429718
24	0x3e44459f	0.19167183
25	0x3da6fd4e	0.08153783
26	0xbccdf397	-0.025140567
27	0xbe2d5a76	-0.1692904
28	0x3dca00a7	0.09863406
29	0x3db24e93	0.08706393
30	0xbc84b088	-0.016197458
31	0xbc832b3d	-0.016011829
32	0x3de8ae69	0.11361391
33	0x3dac3ce9	0.08410055
34	0xbdd4adb0	-0.10384691
35	0x3dc79e5e	0.09747003
36	0xbe045d8f	-0.12926315
37	0xbd2eef9a	-0.04270897
38	0x3e1baa86	0.15201768
39	0x3e0e5288	0.1389867
40	0xb9ed4de4	-0.00045262196
41	0xbdbc7e44	-0.09203771
42	0x3d0907b3	0.03345461
43	0x3d487c32	0.048946567
44	0xbe16327b	-0.14667694
45	0xbc99e1af	-0.018784372
46	0x3e06bd65	0.13158186
47	0x3e11d160	0.14240026
48	0xbd24a032	-0.040191837
49	0xbe85576b	-0.26043257
50	0xbdfdbfa6	-0.1239007
51	0x3d5b752a	0.053578533
52	0xbdc7dc6e	-0.097588405
53	0x3dd6e032	0.104919806
54	0xbd9a24f0	-0.075265765
55	0x3cbe244c	0.023210667
56	0x3e0bff2f	0.13671564
57	0xbd8e2294	-0.06940189
58	0x3dd96149	0.10614259
59	0x3d224c0f	0.039623316
60	0xbd02b67e	-0.03191232
61	0x3d54e906	0.05198004
62	0xbe26f9bc	-0.16306204
63	0xbe0bdbdb	-0.13658087
64	0xbdcc4e2a	-0.09975846
65	0x3cf3e132	0.029770467
66	0x3e108920	0.14114809
67	0xbc5a19f6	-0.013311854
68	0xbe709fc9	-0.23498453
69	0x3d9957ca	0.074874476
70	0x3e3fef0b	0.18743531
71	0xbcd8558e	-0.026407983
72	0x3dc333e5	0.095313825
73	0x3d2f8281	0.042849068
74	0x3ce50092	0.027954374
75	0xbe42f8ba	-0.19040194
76	0x3aa09724	0.0012252075
77	0xbdf0e927	-0.1176322
78	0xbdcad8bc	-0.0990462
79	0x3d4ce518	0.05002317
80	0xbdb32b61	-0.08748508
81	0x3dff0b50	0.124533296
82	0xbb88e9a6	-0.0041782437
83	0x3dfb0936	0.12257616
84	0xbe518edb	-0.20464651
85	0xbd97d8c3	-0.07414391
86	0x3d44c338	0.048037738
87	0xbcd49c1a	-0.025953341
88	0xbdeb8533	-0.11500015
89	0x3d93d61a	0.07218571
90	0xbd712abe	-0.058878653
91	0x3dfecad9	0.12441034
92	0x3c18c448	0.009324141
93	0xbdda93e6	-0.10672741
94	0xbd220c6e	-0.039562635
95	0x3e96b9f8	0.29438758
96	0x3e352844	0.17691141
97	0x3ddd3d18	0.10802668
98	0xbb950e95	-0.0045488575
99	0xbc61a217	-0.013771555
100	0xbca1f003	-0.019767767
101	0xbde30c81	-0.11086369
102	0xbe266378	-0.16248882
103	0xbe3b108d	-0.18268032
104	0xbd2793bc	-0.040912375
105	0xbc66206e	-0.014045818
106	0x3e318ee1	0.1733966
107	0x3d506e37	0.05088636
108	0x3da1ec3e	0.07906388
109	0x3cb5dd50	0.022200257
110	0xbdf69e11	-0.120418675
111	0xbb290aba	-0.0025793747
112	0xbdbe8b50	-0.093039155
113	0xbdb1f79f	-0.08689808
114	0x3dfaf354	0.122534424
115	0xbdecc586	-0.11561112
116	0x3de46134	0.111513525
117	0xbd00b33d	-0.031420935
118	0x3cd286df	0.025699077
119	0x3cecf4d7	0.028925342
120	0xbca69258	-0.020333454
121	0xbe503554	-0.20332843
122	0x3df822b9	0.12115998
123	0xbe118000	-0.14208984
124	0xbd916ac7	-0.07100444
125	0x3cfb4092	0.030670438
126	0xbdb9db64	-0.090750486
127	0xbbf10d20	-0.007356301
128	0x3de5b39c	0.112158984
129	0xbe448d1e	-0.19194457
130	0x3d92d2b1	0.071690924
131	0xbe92155e	-0.28531927
132	0x3e4eaa5f	0.20182179
133	0xbd9abadb	-0.07555171
134	0x3e4348fe	0.19070813
135	0x3d20898b	0.03919367
136	0x3e04f047	0.12982284
137	0xbdc7f356	-0.097632095
138	0x3e012ac9	0.12613977
139	0xbe1af1b7	-0.1513127
140	0xbd971fab	-0.07379087
141	0x3defaa93	0.11702456
142	0x3e5d3145	0.21600826
143	0x3cfb3fb9	0.030670034
144	0xbba46e40	-0.0050180256
145	0xbdccfde2	-0.10009362
146	0x3e4cfacb	0.20017545
147	0x3dd2ecad	0.102990486
148	0x3dadfd12	0.08495535
149	0x3d765f35	0.06014939
150	0xbda82f3c	-0.08212134
151	0xbcac8e5b	-0.021063974
152	0x3e0bd3fb	0.13655083
153	0xbde6fb49	-0.112783976
154	0xbda7b27d	-0.08188341
155	0xbcfd6b40	-0.03093493
156	0xbda6f71e	-0.081526026
157	0x3dede1e9	0.116153546
158	0x3de2d1c7	0.11075168
159	0x3aea4f3a	0.0017876395
160	0x3d79851c	0.06091796
161	0x3d7fd07e	0.062454693
162	0xbdd57055	-0.10421816
163	0xbde3c5ca	-0.1112171
164	0xbcbe36cb	-0.023219487
165	0x3e778250	0.24170804
166	0xbe249a09	-0.16074385
167	0x3cff8f65	0.031196306
168	0xbd66eb6a	-0.056376852
169	0x3e15804e	0.14599726
170	0x3e3c8b21	0.18412448
171	0x3db916f9	0.09037585
172	0x3dfdaea8	0.12386829
173	0xbdef0f74	-0.11672869
174	0xbcfa10b6	-0.030525547
175	0x3c78aa0b	0.01517726
176	0xbd31aa9f	-0.043375608
177	0xbdb97bd9	-0.09056825
178	0xbe8bdfa0	-0.2731905
179	0x3d503f15	0.05084141
180	0x3dcb6c76	0.09932797
181	0xbe28e774	-0.16494542
182	0x3d35fc81	0.04443026
183	0xbc57bcbd	-0.013167557
184	0xbd242105	-0.040070552
185	0xbcbc3ca8	-0.022978142
186	0x3da71122	0.08157565
187	0x3c764352	0.015030699
188	0x3d675203	0.056474697
189	0xbe6f62f1	-0.23377587
190	0xbce9c35c	-0.028535537
191	0x3d857d81	0.065180786
192	0xbd743849	-0.05962399
193	0xbde86f6c	-0.11349377
194	0xbc486de2	-0.012233229
195	0x3ddd9e62	0.10821225
196	0x3da985cb	0.08277472
197	0xbdee3082	-0.11630346
198	0x3de875c1	0.11350585
199	0xbd851792	-0.06498636
200	0xbb522f77	-0.0032071748
201	0x3db363f6	0.087593004
202	0xbc9141b5	-0.017731527
203	0xbe9f79f7	-0.3114774
204	0x3d82da7a	0.06389327
205	0xbb0c5e94	-0.0021418678
206	0xbe1d115d	-0.15338655
207	0xbd96757e	-0.073466286
208	0x3c7415bb	0.014897759
209	0x3dd1eb93	0.1025001
210	0x3e10f2f6	0.14155182
211	0xbe042365	-0.12904127
212	0x3dc490d5	0.09597937
213	0x3d642bc7	0.05570581
214	0xbdd75018	-0.105133235
215	0x3d60b3ed	0.05485909
216	0x3d8015fc	0.06254193
217	0x3dc8975a	0.09794493
218	0x3dd067b8	0.10176033
219	0xbe49781a	-0.19674721
220	0x3d658115	0.056031305
221	0xbe8b53e4	-0.2721244
222	0x3e35aa9d	0.17740865
223	0x3d5875d6	0.052846752
224	0xbcb23ad0	-0.02175656
225	0xbc6f7565	-0.014615391
226	0x3da17a46	0.0788465
227	0x3e756b30	0.2396667
228	0x3dd11ad2	0.10210194
229	0xbe379a5b	-0.17929976
230	0xbd9ada6f	-0.07561194
231	0xbd548bc0	-0.05189109
232	0xbde522b5	-0.111882605
233	0xbdd96a23	-0.10615947
234	0x3c8a62fe	0.016892906
235	0xbd1d29f6	-0.038370095
236	0xbce72057	-0.028213663
237	0x3de213aa	0.11038907
238	0xbc61e4b4	-0.013787437
239	0xbd789a45	-0.060693998
240	0xbdd42d2d	-0.10360179
241	0xbe02d41d	-0.12776227
242	0x3c941bf8	0.018079743
243	0xbd31cbb0	-0.043407142
244	0xbc0b0946	-0.008486098
245	0xbd1fe2f2	-0.03903479
246	0x3da86261	0.08221889
247	0x3edbea35	0.42952123
248	0xbd9f390c	-0.07774553
249	0xbd636334	-0.05551453
250	0x3dc6c01f	0.09704613
251	0xbe4358db	-0.19076864
252	0x3e251b55	0.16123708
253	0x3e15a65d	0.14614244
254	0x3dc0c51e	0.09412597
255	0xbd4c2eed	-0.04984944

model.channel_expansion.1.weight f4 [16]
0	0x3f84a44d	1.0362641
1	0x3f56bc3a	0.8388096
2	0x3f926100	1.1435852
3	0x3f9115e9	1.1334811
4	0x3f8c4fe1	1.0961877
5	0x3f7e3edc	0.99314666
6	0x3f77c6c7	0.96787685
7	0x3f5a11bd	0.85183316
8	0x3f986ccf	1.1908206
9	0x3f8c4a8d	1.0960251
10	0x3f7bb374	0.983207
11	0x3f90fb8d	1.1326767
12	0x3f907c34	1.1287904
13	0x3f4afb8f	0.792901
14	0x3f829dd6	1.0204418
15	0x3f8f9687	1.1217812

model.channel_expansion.1.bias f4 [16]
0	0xbed2c0ee	-0.4116282
1	0xbe9cbf1e	-0.3061456
2	0xbf0b325a	-0.54373705
3	0xbe3f5477	-0.18684565
4	0xbeaacf90	-0.33361483
5	0x3ec0499e	0.37556165
6	0x3e924ce0	0.28574276
7	0x3cf297a4	0.029613324
8	0xbec45179	-0.3834341
9	0xbe5c7eb7	-0.21532713
10	0xbd8821b7	-0.066470556
11	0xbea9c1b4	-0.33155596
12	0xbec3f21c	-0.38270652
13	0xbcfa9fe6	-0.030593824
14	0x3dbd3c37	0.09240001
15	0xbe8f6036	-0.2800309

model.channel_expansion.1.running_mean f4 [16]
0	0x3b82ec5d	0.003995462
1	0xbbad601a	-0.005290997
2	0xbc5b604e	-0.01338966
3	0x3b4bca8b	0.0031096067
4	0x3be1d71b	0.0068920976
5	0xbb04e7d7	-0.002027979
6	0xbae8cb7c	-0.0017760838
7	0xbc7e8eb8	-0.0155369565
8	0x3b37cf37	0.0028047094
9	0x3ab82534	0.0014049173
10	0x3a8e2fd9	0.0010848
11	0x3c2cab89	0.010538944
12	0xbc9028e1	-0.017597618
13	0xbbc1ee06	-0.005918267
14	0xbbc41497	-0.0059839
15	0xbca9886d	-0.020694936

model.channel_expansion.1.running_var f4 [16]
0	0x3d33fdad	0.043943096
1	0x3d01b75a	0.031669
2	0x3cea81b1	0.028626295
3	0x3d8bd5c0	0.06827879
4	0x3d3a7275	0.04551931
5	0x3d5e4f7e	0.05427503
6	0x3d0c4696	0.034247003
7	0x3d2b262d	0.041784454
8	0x3d78f912	0.060784407
9	0x3cddd655	0.02707974
10	0x3d28c3d8	0.041202396
11	0x3d89ec53	0.067345284
12	0x3d4239e3	0.047418486
13	0x3ccb42ba	0.024812091
14	0x3d213fcd	0.039367486
15	0x3d1475a2	0.036244996

model.fe.0.weight f4 [16, 1, 1, 15]
0	0xbe878a7b	-0.2647284
1	0xbcf1f2fa	-0.029534806
2	0xbe67e2df	-0.22645138
3	0xbd79d60f	-0.060995158
4	0xbd7c6825	-0.061622757
5	0xbe30d8ee	-0.17270252
6	0xbe4e51a5	-0.20148332
7	0xbe2a3dd6	-0.16625151
8	0xbe764bd1	-0.24052359
9	0xbc217c4a	-0.009856293
10	0xbe17d59d	-0.14827581
11	0xbe6080ca	-0.21924129
12	0x3d4d0902	0.05005742
13	0xbe0f5860	-0.13998556
14	0xbdf49446	-0.119423434
15	0xbe338829	-0.1753241
16	0xbdf72f17	-0.120695285
17	0xbdea3f18	-0.114378154
18	0x3d851d48	0.064997256
19	0x3bc4d8e9	0.006007303
20	0x3da0e6eb	0.07856544
21	0xbdfd84a9	-0.123788185
22	0xbd6653bd	-0.056232203
23	0xbe07e7f2	-0.13272074
24	0x3da4d32f	0.080480926
25	0xbd8e3849	-0.06944329
26	0xbd5f4c62	-0.054516204
27	0x3d06c8a5	0.032906193
28	0x3dcab373	0.098975085
29	0x3d0d7495	0.03453501
30	0xbe74675c	-0.23867553
31	0xbe43dfc0	-0.19128323
32	0xbe8bd103	-0.273079
33	0xbe269c62	-0.16270593
34	0xbe55cc24	-0.20878655
35	0xbd87da8d	-0.06633482
36	0xbe51025b	-0.20411055
37	0xbd811cf7	-0.06304353
38	0xbe6158f7	-0.22006594
39	0xbd99a541	-0.07502223
40	0xbe0dec0e	-0.13859579
41	0xbe35d82a	-0.17758241
42	0xbdc683e9	-0.096931286
43	0xbe4cd2e8	-0.2000233
44	0xbdf4ad03	-0.11947062
45	0x3e20ffc8	0.15722573
46	0x3e94f7cb	0.290953
47	0x3e8b3fe5	0.27197185
48	0x3e380b4a	0.17973056
49	0x3e0768ff	0.13223647
50	0x3d98fb30	0.07469785
51	0x3e1bd6f0	0.15218711
52	0x3cfe0452	0.03100792
53	0x3e161332	0.1465576
54	0x3d4e3598	0.05034408
55	0x3e494541	0.19655325
56	0x3e3ee6b6	0.18642697
57	0x3e7de5ee	0.24794742
58	0x3de9aff3	0.11410513
59	0x3e5f4b63	0.21806102
60	0xbe808289	-0.2509959
61	0xbdbae94f	-0.09126531
62	0xbe64d3b3	-0.22346382
63	0xbe0ea5a7	-0.13930379
64	0xbde887c4	-0.1135402
65	0xbe5fd7e1	-0.21859695
66	0xbe145293	-0.14484625
67	0xbd11ee5f	-0.03562772
68	0xbde8f853	-0.11375489
69	0xbdf753f9	-0.120765634
70	0xbb860299	-0.004089665
71	0xbd892baf	-0.06697785
72	0xbe39abcb	-0.1813194
73	0xbe14a8a8	-0.14517462
74	0xbe1df8f3	-0.15426998
75	0x3e3b192e	0.18271324
76	0xbd0baf68	-0.034102827
77	0x3da4e930	0.080522895
78	0x3e470fcf	0.19439624
79	0xbe803b1a	-0.2504509
80	0x3e9f43e8	0.31106496
81	0xbe150167	-0.14551316
82	0x3df66bca	0.12032278
83	0xbd5350ff	-0.051590916
84	0x3e6c3a19	0.23069037
85	0xbe4ff9c6	-0.20310125
86	0x3e96addd	0.29429522
87	0xbe1fb58c	-0.15596598
88	0x3dc835d2	0.097758904
89	0x3cd1957d	0.025583977
90	0xbaca2494	-0.0015422278
91	0x3e4ab3e7	0.1979519
92	0xbe391eee	-0.18078205
93	0x3e8898a5	0.2667896
94	0xbe13d336	-0.1443604
95	0x3e1c90d4	0.15289623
96	0xbeb8243c	-0.35965145
97	0x3e4db767	0.20089494
98	0xbe4518ec	-0.19247788
99	0x3e3ea5d8	0.18617952
100	0xbe56b56e	-0.20967647
101	0x3e87b225	0.265031
102	0xbd7fbe78	-0.062437505
103	0x3d5d895e	0.05408608
104	0xbcd277c9	-0.025691884
105	0xbda8761a	-0.08225651
106	0xbbfcfea0	-0.0077207834
107	0xbbe3dca9	-0.006953795
108	0xbca84187	-0.020539058
109	0x3dcc76de	0.099836096
110	0x3d6d9be2	0.05800999
111	0xbe1d74f0	-0.1537664
112	0x3ea13238	0.31483626
113	0x3e08ee9f	0.13372277
114	0x3d505ffd	0.05087279
115	0x3d827756	0.06370418
116	0x3d86c44f	0.06580412
117	0x3dd5b811	0.104354985
118	0x3ba8bbfd	0.005149363
119	0xba4d737d	-0.00078373385
120	0xbe431cdb	-0.19053976
121	0xbe8b6578	-0.27225852
122	0xbeaadb8b	-0.33370623
123	0xbe37cf22	-0.17950109
124	0xbe4010fa	-0.18756476
125	0xbe354709	-0.17702879
126	0xbe869f48	-0.26293397
127	0xbb6c6416	-0.0036070398
128	0xbe221b3e	-0.15830705
129	0xbde89e17	-0.11358278
130	0xbe5770f9	-0.2103919
131	0xbe02e16e	-0.12781307
132	0xbe51c002	-0.20483401
133	0xbe15159f	-0.14559029
134	0xbe347218	-0.17621648
135	0xbdf8384a	-0.12120111
136	0xbda3c7e0	-0.079971075
137	0xbe7fd0fa	-0.24982062
138	0xbd4d1946	-0.05007293
139	0xbdad67f1	-0.08467091
140	0xbdbd4027	-0.09240752
141	0x3c7aa6d9	0.015298569
142	0xbe580745	-0.21096523
143	0xbd5242ae	-0.051333122
144	0xbb02cd0c	-0.0019958643
145	0xbe64a1f2	-0.22327402
146	0xbc6c4687	-0.014421112
147	0xbe0a18ed	-0.13486071
148	0xbe7baa7d	-0.24576755
149	0xbe0a65d4	-0.13515407
150	0xbdfdda02	-0.12395097
151	0xbda04796	-0.07826154
152	0xbced8a67	-0.02899666
153	0xbc70c0c2	-0.014694395
154	0xbd99e9d9	-0.07515306
155	0xbda55116	-0.080721065
156	0x3dcb3bf9	0.09923548
157	0xbe02bfe8	-0.12768519
158	0x3dca7b9a	0.098868564
159	0xbe167923	-0.14694647
160	0x3db457af	0.08805787
161	0xbe2803b3	-0.16407661
162	0x3d9aefe2	0.07565285
163	0xbd05c7fa	-0.032661416
164	0x3d8d7354	0.06906763
165	0x3ec59982	0.3859368
166	0x3e3a2431	0.18177868
167	0x3ea19bb3	0.31564102
168	0x3e697c20	0.22801256
169	0x3d9ee252	0.07758011
170	0x3e338408	0.17530835
171	0x3e225195	0.15851434
172	0x3d9eccc6	0.07753901
173	0x3e6ecbaf	0.23319887
174	0x3dc6fdc2	0.09716369
175	0x3e1a387e	0.15060613
176	0x3e118842	0.14212134
177	0x3ccefa9e	0.025265988
178	0x3e089c54	0.13340884
179	0x3e1a0089	0.15039267
180	0x3eb285b3	0.3486763
181	0x3e1ecf81	0.15508844
182	0x3e755cb0	0.23961139
183	0x3e84a30f	0.25905654
184	0x3e04a80f	0.12954734
185	0x3d478523	0.048710953
186	0x3e122bf7	0.14274584
187	0xbe11f5a6	-0.14253864
188	0x3dfb5344	0.12271741
189	0xbd26fde9	-0.04076949
190	0x3d3b4950	0.045724213
191	0xbd75084b	-0.059822362
192	0x3dd536bd	0.10410831
193	0xbe0adcd1	-0.13560797
194	0x3e0dd139	0.13849343
195	0x3e1d1e88	0.15343678
196	0xbe8c2a12	-0.27375847
197	0x3e804434	0.25052035
198	0xbe6acd76	-0.2292994
199	0x3c00c0da	0.007858479
200	0x3dd0e4fd	0.10199926
201	0xbda4707c	-0.08029267
202	0x3e2c8844	0.16848856
203	0xbdbe5f88	-0.09295565
204	0x3d075962	0.033044226
205	0xbe389a89	-0.180277
206	0xba7ec93a	-0.0009719316
207	0x3d807b15	0.06273476
208	0x3e3e9961	0.18613197
209	0xbe1563e8	-0.14588892
210	0x3e47d894	0.19516212
211	0xbe9d4797	-0.3071868
212	0x3e41f550	0.18941236
213	0xbe57471e	-0.21023223
214	0x3e02e5f2	0.1278303
215	0xbe8397e1	-0.25701812
216	0x3e7f68b6	0.24942288
217	0xbe4c7bcf	-0.19969104
218	0x3e8a6692	0.2703138
219	0xbe3abdbe	-0.18236443
220	0x3cb409ae	0.021977272
221	0x3daee3ba	0.08539529
222	0xbda2963b	-0.079388104
223	0xbd2fd843	-0.042930853
224	0x3baaf218	0.005216848
225	0x3dde4cdd	0.10854504
226	0x3e72af6e	0.23699734
227	0x3e470681	0.19436075
228	0x3d9ec6b4	0.07752743
229	0x3e0a40ef	0.13501333
230	0x3dee786c	0.116440624
231	0x3db35020	0.08755517
232	0x3e6168cc	0.22012633
233	0x3d37d318	0.04487905
234	0x3e45466b	0.19265144
235	0x3e32bfce	0.1745598
236	0x3e0882ce	0.13331148
237	0xbbdceb0b	-0.0067418865
238	0x3e18b909	0.14914335
239	0xbc96aa27	-0.018391682

model.fe.1.weight f4 [16, 16, 1, 1]
0	0xbe039c43	-0.12852578
1	0xbdf41cfb	-0.1191959
2	0x3e4c5570	0.19954467
3	0xbe8fe2eb	-0.28102812
4	0xbc2e1032	-0.010623978
5	0x3d5d709d	0.054062475
6	0x3e3e2b00	0.1857109
7	0xbc493ce7	-0.012282587
8	0x3e4e1792	0.20126179
9	0xbdfe9295	-0.12430302
10	0x3e1a8f96	0.15093836
11	0x3e804a66	0.25056762
12	0x3d1d1202	0.03834725
13	0xbe0d1251	-0.13776518
14	0xbe13f3bd	-0.14448448
15	0x3d52f814	0.051506117
16	0x3e61b00c	0.22039813
17	0xbc6ea9a1	-0.01456681
18	0xbe10de03	-0.14147191
19	0x3e443534	0.1916092
20	0x3e2d2370	0.1690805
21	0x3e6a8c4f	0.22905086
22	0xbaf6b1e4	-0.0018821326
23	0xbe327cfa	-0.17430487
24	0xbe605110	-0.21905923
25	0x3d97f055	0.074188866
26	0x3dedd052	0.116119996
27	0xbe81e57e	-0.253704
28	0xbdc61917	-0.09672754
29	0xbda1352d	-0.078714706
30	0x3e884c51	0.26620725
31	0xbe2b768c	-0.16744441
32	0xbdb21d38	-0.08696979
33	0xbda3e72f	-0.08003079
34	0x3e5d5fe8	0.21618617
35	0xbe6b4af1	-0.22977807
36	0x3d6b9b85	0.05752136
37	0xbe03847a	-0.12843505
38	0xbe779496	-0.24177775
39	0xbe090644	-0.13381296
40	0x3e1c5d2c	0.15269917
41	0xbddfb3ca	-0.10922964
42	0xbd8cfe0c	-0.06884393
43	0x3e87a345	0.26491752
44	0x3e10b010	0.14129663
45	0x3d38c7ac	0.045112297
46	0x3dbe6243	0.09296086
47	0x3d93feff	0.07226371
48	0xbcfa2fc8	-0.030540362
49	0xbdcdeb30	-0.10054624
50	0x3e682150	0.22668958
51	0xbe2d69ae	-0.16934845
52	0xbdae7f0a	-0.085203245
53	0xbdde93f8	-0.108680665
54	0xbeba2109	-0.3635333
55	0xbda9c9e9	-0.082904644
56	0x3e8f66fe	0.28008264
57	0xbe3b4fb0	-0.18292117
58	0xbd04f209	-0.032457385
59	0x3e8dc43d	0.2768878
60	0x3e2a4127	0.16626416
61	0x3d3c9f16	0.046050154
62	0x3dbc4cd1	0.09194339
63	0x3cddf8ec	0.027096234
64	0x3e551bf6	0.20811448
65	0xbd3535a8	-0.044240624
66	0xbe109f02	-0.14123157
67	0x3df61245	0.120152034
68	0x3e319a92	0.1734412
69	0xbdd6363f	-0.10459565
70	0x3c9a885f	0.018863855
71	0xbd48c5e9	-0.049016867
72	0xbdf0c007	-0.11755376
73	0x3d191447	0.037372854
74	0xbe15d7b4	-0.14633065
75	0xbdbed473	-0.09317865
76	0xbe23e6e8	-0.16006052
77	0xbc6ac6fc	-0.014329668
78	0xbd58ca87	-0.05292752
79	0xbe1d5f4a	-0.15368381
80	0xbde23e81	-0.11047078
81	0xbc020c55	-0.0079375105
82	0x3e417dac	0.18895596
83	0xbe4eeaaa	-0.20206705
84	0xbd5aef7f	-0.053451058
85	0x3d0386a5	0.03211083
86	0x3e62db22	0.22153905
87	0x3b3f0df9	0.0029152615
88	0x3e0488e5	0.12942846
89	0xbd9fdd5f	-0.07805895
90	0x3e0c755e	0.13716647
91	0x3e2068e7	0.15665017
92	0x3d74d0bc	0.059769377
93	0xbde33480	-0.11093998
94	0xbdecceca	-0.115628794
95	0x3d154197	0.036439504
96	0xbe0be2f7	-0.13660799
97	0x3d6aab97	0.057292547
98	0x3e138892	0.14407566
99	0xbded4d71	-0.115870364
100	0x3dbb67ac	0.09150633
101	0xbe8f4c41	-0.27987865
102	0xbddfe1eb	-0.10931762
103	0xbe60f051	-0.21966673
104	0x3d71e6da	0.059058048
105	0x3e01769f	0.12642907
106	0x3e616e75	0.22014792
107	0x3d91dde7	0.07122403
108	0x3e8e8b33	0.27840576
109	0x3d82d279	0.06387801
110	0x3e18c68f	0.14919494
111	0x3e80ad06	0.25132006
112	0x3e6ab90b	0.22922151
113	0x3d873c7f	0.066033356
114	0xbe77fdbf	-0.2421789
115	0x3e06e3b9	0.13172807
116	0x3e44d413	0.19221525
117	0xbe38e017	-0.18054233
118	0xbc7bf97f	-0.015379309
119	0xbdcead27	-0.1009162
120	0xbe0b0ecc	-0.13579863
121	0x3db8b59b	0.090190135
122	0xbce5b0b3	-0.028038358
123	0xbdb214e0	-0.08695388
124	0xbe54dc9a	-0.20787278
125	0x3d6862ed	0.056734968
126	0xbe085352	-0.13313034
127	0xbe33d59a	-0.17561951
128	0x3dce090e	0.10060321
129	0x3e2d749e	0.16939017
130	0xbe1c5971	-0.15268494
131	0x3e5adb0e	0.21372625
132	0x3e7c8dd4	0.24663478
133	0xbe729bcf	-0.23692249
134	0xbd6102cb	-0.054934304
135	0xbd95f0bf	-0.07321309
136	0xbe3f9e76	-0.18712792
137	0x3deab8fe	0.11461066
138	0xbd276433	-0.04086704
139	0xbd8acb21	-0.06777025
140	0xbe7eb59b	-0.24873964
141	0x3ddc58a9	0.10759098
142	0xbe980a09	-0.29695156
143	0xbdfad494	-0.12247577
144	0x3e318791	0.1733687
145	0xbd2ae6b4	-0.041723922
146	0xbe1b08d0	-0.1514008
147	0x3e381386	0.17976198
148	0x3e0b4115	0.13599046
149	0x3e52d028	0.20587218
150	0xba14ebf6	-0.0005680913
151	0xbe0352fe	-0.12824628
152	0xbe36a59c	-0.17836612
153	0x3d36e51c	0.04465209
154	0x3df140f7	0.11779969
155	0xbe55e27c	-0.20887178
156	0xbdab9190	-0.08377373
157	0xbdcea97e	-0.10090922
158	0x3e8414be	0.25797075
159	0xbdeecdcb	-0.11660346
160	0xbd1ed740	-0.038779497
161	0xbe21e46b	-0.15809791
162	0x3e047bdd	0.12937875
163	0xbe808872	-0.251041
164	0xbb22d947	-0.0024848746
165	0xbe2847d9	-0.16433658
166	0xbe79bebe	-0.24389169
167	0xbdaea9e4	-0.08528498
168	0x3ea01301	0.312645
169	0xbe0f1399	-0.1397232
170	0xbe57066b	-0.20998542
171	0x3e708baa	0.23490778
172	0x3e2a2302	0.16614917
173	0x3d3f5407	0.046710994
174	0x3e0bbeb5	0.13646968
175	0x3e46abd0	0.19401479
176	0xbd59217d	-0.053010453
177	0xbd9ec2aa	-0.07751973
178	0x3e636b6f	0.22208951
179	0xbe453e84	-0.19262129
180	0xbd8a7483	-0.06760504
181	0x3e223330	0.15839839
182	0x3e6568cd	0.2240326
183	0x3ddcbbb1	0.10777987
184	0x3e50d8c5	0.20395191
185	0xbea09272	-0.3136173
186	0x3d98c258	0.07458943
187	0x3e8b1aec	0.27168977
188	0xbdb28046	-0.087158725
189	0xbe3a64a6	-0.18202457
190	0xbe400e52	-0.18755463
191	0xbc434c0a	-0.011919985
192	0xbe75b6de	-0.2399554
193	0xbddcf114	-0.107881695
194	0x3e20cdcd	0.15703507
195	0xbe2c95a2	-0.16853955
196	0x3d1b2413	0.0378762
197	0xbd93c2d6	-0.072148964
198	0xbea7ac42	-0.3274861
199	0xbe3b283b	-0.18277065
200	0x3e7be9d6	0.2460092
201	0xbd9786a2	-0.07398726
202	0xbe1888cb	-0.14895932
203	0x3e61301f	0.21991013
204	0x3d528c83	0.051403534
205	0x3d87453b	0.066050015
206	0x3d8b6e0f	0.068081014
207	0x3d3fc1a8	0.046815544
208	0xbe8415b6	-0.25797814
209	0x3d8d46f0	0.06898296
210	0x3dc72ef1	0.0972575
211	0xbe2d0085	-0.1689473
212	0xbd82ca66	-0.06386261
213	0xbe2a4015	-0.16626008
214	0xbdcdb8df	-0.10045027
215	0xbe547dfd	-0.20751186
216	0x3e5094e7	0.20369302
217	0x3cef7684	0.029231317
218	0x3cf01d7c	0.029310934
219	0x3d4c1b9e	0.049831025
220	0x3e11adad	0.14226408
221	0x3d727cb9	0.059200976
222	0x3dcd9c64	0.10039595
223	0x3e05f604	0.13082129
224	0xbe21d27a	-0.15802947
225	0x3d50a197	0.050935354
226	0x3e0fb5bc	0.1403417
227	0xbe207202	-0.1566849
228	0xbd456878	-0.048195332
229	0xbe06fb35	-0.13181765
230	0xbe902e65	-0.28160396
231	0xbe1f694f	-0.15567516
232	0x3e7e07f4	0.24807721
233	0xbd188126	-0.03723254
234	0xbd04b6d1	-0.03240091
235	0x3e61a714	0.22036391
236	0x3dd4e0c3	0.103944324
237	0x3da34e1e	0.07973884
238	0x3dfe953e	0.124308094
239	0x3d0580f9	0.0325937
240	0x3e0ab7cb	0.13546674
241	0xbc4510f3	-0.012027967
242	0xbe8ad53d	-0.27115813
243	0x3d9ab3f7	0.07553857
244	0x3d9ff0a1	0.07809568
245	0xbe8dcec3	-0.2769681
246	0xbd6e8eca	-0.058241643
247	0xbd84e12c	-0.064882606
248	0xbe45cb62	-0.19315866
249	0x3e1a66b5	0.15078242
250	0x3d2bd6a9	0.041952763
251	0xbdaac2a3	-0.08337905
252	0xbe8abe5b	-0.27098355
253	0x3df81713	0.12113776
254	0xbe85f81b	-0.26165852
255	0xbdc5330c	-0.09628877

model.fe.2.weight f4 [16]
0	0x3fade631	1.3585874
1	0x3fcfb03a	1.6225655
2	0x3fabf641	1.3434526
3	0x3faec52d	1.3653923
4	0x3fbb17d6	1.4616649
5	0x3fa3cbae	1.2796533
6	0x3fa9c972	1.3264601
7	0x3fd348fc	1.6506648
8	0x3fc7f02e	1.5620172
9	0x3fcd76d0	1.6051884
10	0x3faf34d8	1.3688002
11	0x3fb4a079	1.4111472
12	0x3fa9ef96	1.3276241
13	0x3fab2a10	1.3372211
14	0x3fb34e5e	1.4008291
15	0x3fcd9cd4	1.6063485

model.fe.2.bias f4 [16]
0	0xbdb494d8	-0.08817452
1	0xbd34c22f	-0.0441305
2	0xbdcfe239	-0.101505704
3	0xbdce66dd	-0.10078213
4	0x3c8434f3	0.01613853
5	0xbdb5dfff	-0.088806145
6	0xbe2f52a1	-0.17121364
7	0xbc4d95cd	-0.012547922
8	0x3d44face	0.04809075
9	0x3cbccd35	0.02304707
10	0xbd9c4810	-0.07630932
11	0xbe0164ab	-0.12636058
12	0xbdca2476	-0.098702356
13	0xbddbe211	-0.10736478
14	0xbd99cd84	-0.07509902
15	0x3db07607	0.08616262

model.fe.2.running_mean f4 [16]
0	0x3d41ec3d	0.047344435
1	0x3dbbde52	0.091732636
2	0xbd05daa5	-0.03267922
3	0x3a6c8c3f	0.0009023584
4	0x3c6e3f15	0.014541407
5	0x3d399146	0.04530456
6	0xbe1026c9	-0.14077295
7	0xbd409f24	-0.04702677
8	0xbd4142a2	-0.047182687
9	0x3d80cefe	0.062894806
10	0xbd3300a0	-0.043701768
11	0x3e1acc70	0.15117049
12	0xbd505e54	-0.05087121
13	0xbdf05028	-0.117340386
14	0xbd8500a6	-0.06494264
15	0xbe199982	-0.14999965

model.fe.2.running_var f4 [16]
0	0x3da7bfe3	0.08190896
1	0x3dbf8f50	0.093535066
2	0x3db30308	0.087408125
3	0x3e0121ff	0.12610625
4	0x3d1dcdee	0.038526468
5	0x3d6c7d74	0.05773683
6	0x3e06538c	0.13117808
7	0x3d96794d	0.07347355
8	0x3dfb06f0	0.122571826
9	0x3d9786d2	0.07398762
10	0x3e012f88	0.12615788
11	0x3e0cb6c8	0.137416
12	0x3deac8ab	0.11464056
13	0x3db0c7b9	0.08631844
14	0x3dca3dc0	0.09875059
15	0x3dea2386	0.11432557

model.classifier.0.weight f4 [1, 16]
0	0x3f0304cf	0.5117921
1	0xbf192909	-0.5982824
2	0x3f27df18	0.6557479
3	0x3f304e6c	0.6886966
4	0xbf03e272	-0.51517403
5	0x3f18f458	0.5974784
6	0x3f3735f2	0.7156669
7	0xbf162875	-0.5865548
8	0xbf421638	-0.75815153
9	0xbf345735	-0.7044557
10	0x3f0a7ade	0.5409373
11	0x3f1cff1f	0.61326784
12	0x3f44d111	0.7688151
13	0x3f20bf04	0.62791467
14	0x3f216906	0.6305088
15	0xbee9e0d0	-0.4567933
