eeg_online/lightning_logs/dreyer_source/version_1/checkpoints/epoch=99-step=9800.ckpt (torch, 67146 bytes, 50 tensors)

model.input_block.1.weight f4 [40, 1, 1, 25]
0	0x3e1980da	0.14990559
1	0x3e4f884c	0.20266837
2	0xbdfdd7e7	-0.12394696
3	0xbe1df5b8	-0.15425766
4	0xbdf7373b	-0.12071081
5	0xbc48a3be	-0.01224607
6	0xbd972eef	-0.07381999
7	0x3dd84176	0.10559361
8	0xbd1d2efe	-0.038374893
9	0x3d8f22c2	0.069890514
10	0xbc6378be	-0.013883768
11	0x3c906203	0.01762486
12	0xbe119b18	-0.1421932
13	0xbdcc11c4	-0.09964326
14	0xbd83eaf6	-0.064412996
15	0x3c9bec39	0.019033538
16	0x3dc1cee6	0.09463291
17	0x3e176c9c	0.14787525
18	0xbdb7e06b	-0.08978351
19	0xbcadddb4	-0.02122388
20	0x3e1d67bd	0.15371604
21	0x3e7b4c50	0.2454083
22	0x3bde2f2b	0.006780525
23	0x3e06157c	0.13094133
24	0xbe1a8b7f	-0.15092276
25	0x3e82bea5	0.25536075
26	0x3ec52cbd	0.38510695
27	0xbcd8008f	-0.026367454
28	0xbc1f4d06	-0.009722954
29	0x3d1298c3	0.035790216
30	0xb9d460ee	-0.0004050801
31	0x3e849a93	0.2589918
32	0xbce01018	-0.027351424
33	0x3c8ebafe	0.01742315
34	0xbd4d6441	-0.050144438
35	0xbe1cd23e	-0.15314576
36	0xbe22061f	-0.15822648
37	0x3d8d6a06	0.06904988
38	0xbd099e0f	-0.033598002
39	0xbae4115f	-0.0017400197
40	0xbcd95704	-0.02653075
41	0xbd5c42f6	-0.053774796
42	0x3e2f3e77	0.17113672
43	0x3cda75b0	0.026667446
44	0x3e01ecaf	0.12687944
45	0x3e4eb6de	0.20186946
46	0x3ede2764	0.43389428
47	0x3ecb2edb	0.39684185
48	0x3e047c7e	0.12938115
49	0x3deb190f	0.11479389
50	0x3eb2ddf0	0.3493495
51	0x3ea43129	0.32068756
52	0x3dd48388	0.1037665
53	0xbc858051	-0.016296538
54	0x3d7b0266	0.061281584
55	0xbe3cfac4	-0.18455034
56	0xb9329b4d	-0.00017033257
57	0xbe1b5440	-0.15168858
58	0xbdc5558f	-0.0963546
59	0xbd2a7ed1	-0.041624848
60	0x3e0dc5c3	0.13844971
61	0x3dab1bd8	0.0835492
62	0xbe323785	-0.17403992
63	0xbd361525	-0.04445376
64	0xbc73f3f7	-0.014889709
65	0xbe06a113	-0.13147382
66	0xbd398697	-0.04529437
67	0x3d890c56	0.06691806
68	0x3e5d0caa	0.21586862
69	0x3ea882c3	0.32912263
70	0xbc72b953	-0.014814693
71	0x3c9b2cfb	0.018942347
72	0x3da7a4fd	0.08185766
73	0x3d66580e	0.05623632
74	0xbd4ce866	-0.05002632
75	0xbddfd48f	-0.10929214
76	0xbe586b19	-0.21134605
77	0xbebb9f50	-0.36644983
78	0xbdcbb4f7	-0.09946626
79	0xbe297e92	-0.16552189
80	0xbe2a1970	-0.16611266
81	0x3e6db8bd	0.23215003
82	0x3e5a9c42	0.2134867
83	0xbe183f29	-0.14867844
84	0x3d9a22b7	0.075261526
85	0x3a13eb9f	0.0005642715
86	0x3bef8288	0.0073092617
87	0xbd33efe2	-0.043929942
88	0x3dfd1b77	0.12358754
89	0xbdaf6d7b	-0.085658036
90	0x3db377b9	0.0876307
91	0x3dda98bc	0.10673663
92	0x3e205095	0.1565574
93	0x3ddd0296	0.10791509
94	0xbe13c9b9	-0.1443242
95	0xbd8dc159	-0.06921644
96	0x3e0dc0b5	0.13843043
97	0x3c8de877	0.017322762
98	0xbe918fdd	-0.2843007
99	0xbeba626d	-0.36403218
100	0x3eacba08	0.3373568
101	0x3e40f4e9	0.18843426
102	0xbdc6f3b6	-0.09714453
103	0xbdbee230	-0.093204856
104	0xbe7749ba	-0.24149218
105	0xbd27323b	-0.040819388
106	0xbe228bc7	-0.15873633
107	0xbe01dd41	-0.12682058
108	0x3d4156d8	0.04720196
109	0x3dd5669f	0.10419964
110	0xbc39faea	-0.0113513265
111	0x3e2b89ed	0.16751833
112	0xbdd94630	-0.1060909
113	0x3e253c57	0.16136299
114	0x3db7beff	0.089719765
115	0xbe67a654	-0.22622043
116	0xbdca0057	-0.09863346
117	0xbc88e0ed	-0.016708815
118	0x3d02da0d	0.03194623
119	0x3d97ae41	0.07406283
120	0x3df259f1	0.11833561
121	0x3d5027a1	0.050819043
122	0xbd98558a	-0.0743819
123	0x3db5ab39	0.08870549
124	0xbe71d60f	-0.23616813
125	0x3dc84cf8	0.097803056
126	0x3e386c5b	0.18010084
127	0x3dfa6a96	0.12227361
128	0x3dfb2f78	0.12264913
129	0xbc1ba843	-0.009500566
130	0x3d810ff0	0.06301868
131	0x3dc0cadd	0.09413693
132	0xbe04bdb4	-0.12962991
133	0xbd410340	-0.04712224
134	0x3db02dd0	0.08602488
135	0xbdadc52d	-0.08484874
136	0xbd81841f	-0.06324028
137	0xbdca6d84	-0.0988417
138	0xbd7f3fa2	-0.062316544
139	0x3b320ab0	0.0027167015
140	0x3d6e181f	0.058128472
141	0x3c63cb28	0.013903417
142	0x3df9ff4f	0.122068994
143	0xbc9973bd	-0.018731946
144	0xbdf0b899	-0.11753959
145	0x3cbe5e13	0.023238217
146	0x3e94e3fe	0.29080194
147	0x3e2a5204	0.16632849
148	0x3d701f52	0.05862362
149	0xbcc69b03	-0.024243837
150	0xbe4abb94	-0.19798118
151	0xbdcf0111	-0.10107625
152	0x3db243d4	0.087043434
153	0x3e88321e	0.26600736
154	0x3e83475c	0.2564038
155	0xbda96250	-0.08270705
156	0x3e3da270	0.18518996
157	0xbe09baba	-0.13450137
158	0xbcfe5fad	-0.031051481
159	0xbd4e7059	-0.05040011
160	0x3cfbb136	0.03072415
161	0x3d8c7e2b	0.06860002
162	0xbd4f14ba	-0.050556876
163	0xbd45ad4c	-0.048260972
164	0x3d826677	0.063672
165	0x3d610491	0.054935995
166	0xbd9ec35e	-0.07752107
167	0x3d884869	0.06654436
168	0xbe42791a	-0.18991509
169	0xbc073bd1	-0.008254007
170	0x3e4f28c1	0.2023039
171	0xbd1a28f1	-0.0376367
172	0x3e6f1b47	0.23350249
173	0x3e01c5d6	0.12673125
174	0xbe0447a0	-0.12917948
175	0x3db1fb04	0.086904556
176	0x3d0377f2	0.03209681
177	0xbd0af8d3	-0.033928704
178	0x3e112ba9	0.14176811
179	0xbe846f00	-0.25865936
180	0xbdd5c79c	-0.10438463
181	0xbdffac5c	-0.12484047
182	0x3e17902a	0.14801088
183	0x3df8bfba	0.12145944
184	0x3e2439bf	0.16037653
185	0x3d8cc8b4	0.068742186
186	0xbe009d67	-0.12560044
187	0xbe116ec6	-0.14202413
188	0xbe5da0c8	-0.21643364
189	0x3e13b625	0.14424951
190	0x3e83172b	0.25603613
191	0x3e6faf12	0.23406628
192	0xbdd31149	-0.10306031
193	0xbd0d1fcd	-0.034454156
194	0xbe5f55f4	-0.21810132
195	0xbe1c5654	-0.15267307
196	0xbd8f2ece	-0.06991349
197	0x3e4aa0cc	0.19787902
198	0x3cdd9ea7	0.02705319
199	0x3ddf606f	0.10907065
200	0x3d24c9fc	0.04023169
201	0x3e0e23e7	0.13880883
202	0xbe20d542	-0.15706351
203	0xbe1723ef	-0.14759801
204	0xbdf59e1c	-0.119930476
205	0x3e1a5202	0.15070346
206	0xbd41f1cc	-0.047349736
207	0x3e4bdcf9	0.19908513
208	0x3dc69794	0.0969688
209	0x3d07bff9	0.033142064
210	0xbc9402a7	-0.018067671
211	0xbdab1bde	-0.083549246
212	0xbd38791a	-0.045037366
213	0xbe0948c7	-0.13406669
214	0xbdcad452	-0.09903778
215	0xbd8caf72	-0.06869401
216	0xbe6e73ee	-0.23286411
217	0xbe1b3a58	-0.15158975
218	0x3e18da6b	0.1492707
219	0xbe1537f0	-0.1457212
220	0x3c6b6a36	0.014368584
221	0x3e5cfb28	0.21580184
222	0x3d6fd1da	0.05854974
223	0xbd4e7f43	-0.050414335
224	0xbe88975a	-0.26677972
225	0xbc772540	-0.015084565
226	0xbe873155	-0.26404825
227	0xbe23cebc	-0.15996832
228	0xbe0eb33a	-0.13935557
229	0xbd8f58fa	-0.06999393
230	0xbc95798b	-0.018246433
231	0x3e14fed5	0.14550336
232	0xbc56bab0	-0.013106033
233	0x3de7adb2	0.113124266
234	0x3d17c8d5	0.037056763
235	0xbe5365ce	-0.20644304
236	0x3d23acfb	0.03995989
237	0xbe1a8423	-0.15089469
238	0xbd7ef9be	-0.06224989
239	0x3db9c1fb	0.09070202
240	0x3dad4b30	0.084616065
241	0x3e0fbb47	0.14036284
242	0xbde05785	-0.10954193
243	0xbdaaf427	-0.083473496
244	0xbca7a138	-0.020462617
245	0xbeb5091b	-0.3535851
246	0xbd1b27ef	-0.03787988
247	0xbeac922c	-0.3370527
248	0xbdded7f0	-0.108810306
249	0xbd095b2c	-0.033534214
250	0xbe0b8db6	-0.13628277
251	0xbc8e789b	-0.017391494
252	0x3ddbe4c5	0.10736994
253	0xbe08f5a0	-0.13374949
254	0xbe558521	-0.20851566
255	0xbe2cad7f	-0.16863059

model.input_block.2.weight f4 [40]
0	0x3f741200	0.95339966
1	0x3f935f3e	1.1513441
2	0x3f898e9f	1.074665
3	0x3f915f51	1.1357213
4	0x3f859e5c	1.0438952
5	0x3f64e698	0.8941436
6	0x3f7009f8	0.9376521
7	0x3f8de7f6	1.1086414
8	0x3f841f72	1.0322096
9	0x3f8e6538	1.112464
10	0x3f95f8c6	1.1716545
11	0x3f952aa6	1.165364
12	0x3f94f92f	1.1638545
13	0x3f8471e4	1.0347257
14	0x3f81c922	1.0139506
15	0x3f836a47	1.0266808
16	0x3f851824	1.0397992
17	0x3f6c7967	0.92372745
18	0x3f89c01d	1.0761753
19	0x3f86b6f1	1.0524579
20	0x3f6d2e68	0.92648935
21	0x3f8ad461	1.0846063
22	0x3f927c52	1.144419
23	0x3f5d6607	0.86483806
24	0x3f851678	1.0397482
25	0x3f79e9f6	0.9762262
26	0x3f8f5a94	1.1199517
27	0x3f6f4316	0.9346174
28	0x3f8a2594	1.0792718
29	0x3f8c3c26	1.0955856
30	0x3f91ec61	1.1400262
31	0x3f8064c8	1.0030756
32	0x3f92eea4	1.1479077
33	0x3f8e322f	1.1109065
34	0x3f8b994a	1.0906155
35	0x3f82e25f	1.0225333
36	0x3f609539	0.87727696
37	0x3f838d9e	1.0277593
38	0x3f7a66ab	0.9781291
39	0x3f868131	1.0508176

model.input_block.2.bias f4 [40]
0	0xbd1747fd	-0.036933888
1	0x3de77eef	0.113035075
2	0x3d231c71	0.039822046
3	0x3c9c81b8	0.019104823
4	0xbcc095cd	-0.02350893
5	0xbd847405	-0.064674415
6	0x3d79d065	0.060989756
7	0xbdc2f298	-0.09518927
8	0xbca68583	-0.020327335
9	0xbdad8c11	-0.08473981
10	0xbc4aa712	-0.012368934
11	0xbe186c85	-0.14885147
12	0x3cd33587	0.02578236
13	0xbd4fbe30	-0.050718486
14	0x3c5a6c60	0.013331503
15	0xbdeaa066	-0.11456375
16	0xbc7f8c1e	-0.015597371
17	0x3c945c6a	0.018110473
18	0xbd54bb27	-0.051936295
19	0xbd7424ed	-0.059605528
20	0xbcbb323d	-0.022851104
21	0x3da8496e	0.082171306
22	0x3d905a56	0.0704848
23	0xbd0803f1	-0.033206884
24	0x3d980498	0.07422751
25	0x3d703c83	0.05865146
26	0x3df7f9de	0.12108205
27	0x3d2b3511	0.041798655
28	0x3d533be6	0.051570795
29	0x3c8f9cf1	0.01753089
30	0x3c2fe8a0	0.0107366145
31	0xbd39c91e	-0.045357816
32	0xbdb360f2	-0.08758725
33	0x3d4dcabf	0.050242182
34	0xbc9f498e	-0.019444253
35	0x3d37dcc8	0.044888288
36	0xbda5633f	-0.0807557
37	0xbdc0d3aa	-0.09415372
38	0xbcc70bac	-0.024297558
39	0x3bc722d0	0.006077148

model.input_block.2.running_mean f4 [40]
0	0xaf2ae4cd	-1.5542696e-10
1	0x3180d40e	3.749398e-09
2	0x313b7386	2.727775e-09
3	0xb12d7a1a	-2.524422e-09
4	0x301a5528	5.614589e-10
5	0x31129673	2.1331317e-09
6	0x30890acf	9.971134e-10
7	0x2f1ac9dd	1.4077935e-10
8	0xb0c2f38b	-1.4184577e-09
9	0xb1648d63	-3.3258736e-09
10	0xb0fc206e	-1.834463e-09
11	0xb126c0d6	-2.4265794e-09
12	0xb145ae7b	-2.8766454e-09
13	0x318a454b	4.0242063e-09
14	0xb10d1106	-2.0527877e-09
15	0xaf86b76a	-2.4504782e-10
16	0xb0de0e5a	-1.6156705e-09
17	0xb020ef6f	-5.8547917e-10
18	0x3139158e	2.6933296e-09
19	0xb1427b92	-2.8300957e-09
20	0x2e9c918e	7.1199144e-11
21	0x309e1531	1.1502036e-09
22	0xb18a0c0f	-4.0176995e-09
23	0x31067176	1.9564061e-09
24	0xb0da67af	-1.5891056e-09
25	0xb053928c	-7.696961e-10
26	0x2f3abc46	1.698349e-10
27	0xb0e442c4	-1.6608159e-09
28	0x30c229cc	1.4127237e-09
29	0x3184b17c	3.8618833e-09
30	0xb13a8e1e	-2.7147347e-09
31	0x31202d99	2.3308984e-09
32	0x3150e87a	3.0400131e-09
33	0x3172def1	3.5342362e-09
34	0xb1763d78	-3.5832652e-09
35	0xb17e6b2e	-3.702279e-09
36	0x30bbe66d	1.3671532e-09
37	0xb1502c33	-3.0293108e-09
38	0xb125c443	-2.4122222e-09
39	0xb088112b	-9.900182e-10

model.input_block.2.running_var f4 [40]
0	0x2da2fa98	1.8528554e-11
1	0x2ed16888	9.522788e-11
2	0x2e4e92f6	4.6969505e-11
3	0x2e8f0b18	6.504858e-11
4	0x2dbc5400	2.1410429e-11
5	0x2dd597e1	2.4282744e-11
6	0x2d74ecd0	1.3922377e-11
7	0x2d9a4ece	1.754277e-11
8	0x2db97a01	2.1086246e-11
9	0x2e32904f	4.0600686e-11
10	0x2e93f388	6.728046e-11
11	0x2e169003	3.423396e-11
12	0x2de4471d	2.595218e-11
13	0x2dc38934	2.2229864e-11
14	0x2e10a77c	3.2890565e-11
15	0x2e00798d	2.921179e-11
16	0x2de894f0	2.6441488e-11
17	0x2dd73ce2	2.4469708e-11
18	0x2e8448eb	6.015618e-11
19	0x2e085902	3.1001875e-11
20	0x2d53ce6f	1.2039799e-11
21	0x2e82a46e	5.940924e-11
22	0x2e7405c8	5.548431e-11
23	0x2d87e881	1.5450976e-11
24	0x2dfa216e	2.8436555e-11
25	0x2dab1885	1.9451338e-11
26	0x2e2f19b3	3.981322e-11
27	0x2d44516b	1.11593885e-11
28	0x2e0d8395	3.2176557e-11
29	0x2e313166	4.0289015e-11
30	0x2db93766	2.1056667e-11
31	0x2e06e0ae	3.0667628e-11
32	0x2e9e11f5	7.188198e-11
33	0x2eb06043	8.020653e-11
34	0x2e438087	4.4452022e-11
35	0x2e713df3	5.4852078e-11
36	0x2dbfe3bb	2.1815319e-11
37	0x2e262e30	3.7785053e-11
38	0x2debc112	2.6802147e-11
39	0x2dc7d61c	2.2718764e-11

model.input_block.3.weight f4 [40, 1, 27, 1]
0	0x3c66619d	0.014061359
1	0xbde08067	-0.10961991
2	0x3b954f8f	0.0045566033
3	0xbdfaa9a3	-0.12239387
4	0x3c8793b1	0.016549917
5	0x3d99049a	0.07471581
6	0xbe8cc1d1	-0.2749162
7	0x3d8e6e17	0.06954592
8	0xbd264837	-0.040596213
9	0xbb8ec9c6	-0.0043575494
10	0x3da0517f	0.07828044
11	0x3d91896a	0.07106288
12	0x3e05ca35	0.13065417
13	0xbd8aeb93	-0.067832135
14	0x3cc02adc	0.023457937
15	0x3e01d916	0.12680468
16	0x3e44e6a1	0.19228603
17	0x3dd8bc18	0.10582751
18	0xbe11ae20	-0.1422658
19	0x3d9e6601	0.077342995
20	0x3e1eb224	0.15497643
21	0xbdc98071	-0.098389514
22	0x3d814571	0.06312073
23	0x3b9adeaf	0.004726253
24	0xbe13cecb	-0.14434354
25	0xbdc57284	-0.09640983
26	0xbe66d02a	-0.22540346
27	0x3debe863	0.115189336
28	0x3ca12826	0.019672465
29	0x3e6749c4	0.22586733
30	0x3e3711e4	0.17877918
31	0xbc3be151	-0.011467294
32	0xbdb9acac	-0.09066138
33	0xbe86d80e	-0.26336712
34	0x3cebfe6b	0.02880784
35	0xbc67025e	-0.0140996855
36	0xbe9b839f	-0.30373856
37	0x3c373efa	0.011184448
38	0xbde00d3e	-0.10940026
39	0x3e272507	0.16322719
40	0xbd6bbcb2	-0.057553
41	0x3e397f0c	0.18114871
42	0xbe0bf108	-0.13666165
43	0xbdf6f31c	-0.12058088
44	0x3de8deeb	0.11370643
45	0x3cbd2311	0.02308801
46	0x3d8ca78a	0.06867893
47	0x3cb549f1	0.022129985
48	0xbe36c4db	-0.17848532
49	0x3db8bbb8	0.090201795
50	0xbd87b315	-0.06625954
51	0xbe23d714	-0.16000015
52	0x3df42f88	0.11923128
53	0x3e39900a	0.18121353
54	0xbe62b53e	-0.22139451
55	0xbe3be0c6	-0.18347463
56	0xbc93d346	-0.018045079
57	0xbda38c6d	-0.079857685
58	0x3b7c1834	0.0038466575
59	0x3cf3ff35	0.029784778
60	0x3e44b5b2	0.19209936
61	0x3e4e9447	0.20173751
62	0x3d5f7708	0.054556876
63	0x3ecc79e8	0.39936757
64	0xbdafb98b	-0.085803114
65	0xbe0d2ff3	-0.13787822
66	0xbdb119f7	-0.086475305
67	0xbe06ecc0	-0.1317625
68	0x3e1215b9	0.14266099
69	0x3e0e048e	0.13868925
70	0x3d3caf46	0.04606559
71	0xbda93c4b	-0.08263453
72	0xbd3dd5de	-0.046346538
73	0xbbaa7995	-0.005202482
74	0x3e67f7c4	0.22653109
75	0xbdc298a0	-0.09501767
76	0xbddb677a	-0.10713096
77	0xbd812a8f	-0.063069455
78	0x3e55c3d6	0.20875487
79	0xbdeece9b	-0.116605006
80	0xbe068797	-0.13137661
81	0xbdbda0fe	-0.092592224
82	0x3e141f83	0.14465146
83	0x3d316b78	0.04331538
84	0x3d38810b	0.04504494
85	0x3d12a62d	0.03580301
86	0x3e27b3aa	0.1637713
87	0x3df1255d	0.117747046
88	0xbd7899c8	-0.060693532
89	0xbe763011	-0.24041773
90	0xbe9d0946	-0.30671138
91	0x3e02b0af	0.12762712
92	0x3d8e679d	0.069533564
93	0x3e11ea72	0.1424959
94	0xbd8a2e5b	-0.06747123
95	0x3d4bc71b	0.04975043
96	0xbd6ace5d	-0.05732571
97	0xbe48a874	-0.1959551
98	0x3da60958	0.08107251
99	0x3e69ebf2	0.22843912
100	0xbe2729e7	-0.16324578
101	0x3aa54aa0	0.0012610741
102	0x3db19277	0.08670514
103	0x3d540ea0	0.05177176
104	0xbdc19263	-0.09451749
105	0x3e188f9c	0.14898533
106	0xbdd569ec	-0.104205936
107	0xbdd3fefe	-0.1035137
108	0x3e35b3f5	0.1774443
109	0x3e16b08d	0.14715786
110	0x3d8d4e9f	0.068997614
111	0xbdcf4507	-0.10120588
112	0xbd27930a	-0.04091171
113	0x3db26805	0.087112464
114	0xbe47cbdb	-0.19511358
115	0xbe9ad7c4	-0.3024274
116	0x3dc9cdd4	0.09853712
117	0xbe2f952e	-0.17146751
118	0x3cb18665	0.02167053
119	0x3df0ef23	0.11764362
120	0x3df1f3e0	0.118140936
121	0xbdfa0c2a	-0.12209351
122	0xbd11681c	-0.035499677
123	0x3e15fe9c	0.14647907
124	0xbe37cc6b	-0.17949073
125	0xbe17d435	-0.14827044
126	0xbe38b0db	-0.18036215
127	0x3d28f18b	0.04124598
128	0x3e91e7cf	0.28497168
129	0x3cf390bf	0.029732106
130	0x3cb6535f	0.022256551
131	0x3ddbc6c6	0.107312724
132	0xbd9285db	-0.07154437
133	0x3e2d9cea	0.16954389
134	0xbe4430d8	-0.19159257
135	0xbdf828ed	-0.12117181
136	0x3d427529	0.047475014
137	0x3d29b347	0.041430738
138	0x3e32cc4d	0.17460747
139	0xbdaa2d85	-0.083094634
140	0x3be21649	0.0068996293
141	0x3d2ba80a	0.0419083
142	0xbdb8a776	-0.09016316
143	0xbde2098b	-0.110369764
144	0x3d8cee90	0.0688144
145	0xbda9a09b	-0.08282586
146	0x3b3cd45e	0.0028813104
147	0xbe42f435	-0.1903847
148	0x3d0b80d3	0.034058403
149	0xbe93cb02	-0.2886582
150	0x3e872367	0.26394197
151	0xbcea4c18	-0.028600737
152	0xbd1c3d8d	-0.038144637
153	0x3e357d4a	0.17723575
154	0x3e4af59d	0.19820257
155	0xbe0fb8fa	-0.14035407
156	0xbd88bd2c	-0.06676707
157	0x3dce376c	0.10069165
158	0xbbe100bb	-0.006866542
159	0x3db07aa7	0.08617144
160	0xbdf7549d	-0.120766856
161	0xbdff82ad	-0.12476096
162	0xbd3df071	-0.04637188
163	0x3e11799e	0.1420655
164	0x3e0954c9	0.13411249
165	0xbe369c4d	-0.17833062
166	0xbd3685b0	-0.044561088
167	0x3d1a7619	0.037710283
168	0xbc8d2f94	-0.017234601
169	0x3c707195	0.014675518
170	0x3bbdb4bf	0.005789369
171	0x3e68a0fc	0.2271766
172	0x3d5392a5	0.051653523
173	0xbe0b142d	-0.13581915
174	0x3ca35a93	0.01994065
175	0x3e09f2bc	0.13471502
176	0x3bddd5f1	0.0067698886
177	0x3cf45069	0.029823499
178	0xbd059dbb	-0.032621127
179	0x3d4fc49f	0.05072462
180	0xbdac0dad	-0.08401046
181	0xbd8a452d	-0.067514755
182	0x3dd09a73	0.10185709
183	0xbe0648cf	-0.13113712
184	0xbda91e5c	-0.08257744
185	0xbdee96c9	-0.11649854
186	0xba51cc5a	-0.0008003168
187	0x3e3b5a67	0.18296205
188	0x3eae1d66	0.34006804
189	0xbd2970c7	-0.04136732
190	0x3dd2dbf2	0.102958575
191	0x3e5c4243	0.21509652
192	0x3e1439c3	0.1447516
193	0x3e416be0	0.18888807
194	0xbd317350	-0.04332286
195	0xbeb909cb	-0.36140284
196	0x3ec9479a	0.3931244
197	0xbd97f7e4	-0.07420328
198	0x3ceb1e5d	0.028701002
199	0xbc9c53a9	-0.019082861
200	0xbd68f4c8	-0.056874067
201	0x3e311667	0.17293702
202	0x3e300ff4	0.17193586
203	0xbdd1e355	-0.10248438
204	0xbe4dfc81	-0.20115854
205	0xbdced082	-0.100983635
206	0xbcb60f4d	-0.022224093
207	0x3de75838	0.11296123
208	0x3cdda8dc	0.027058057
209	0xbd9a8fb5	-0.07546941
210	0xbdb71806	-0.08940129
211	0xbb1f6ef2	-0.0024327603
212	0x3d23006e	0.03979533
213	0xbe81bb36	-0.25338143
214	0xbdac203b	-0.08404585
215	0xbe3621bb	-0.17786305
216	0xbd090e68	-0.033461004
217	0x3d4c0ab3	0.04981489
218	0xbded7a9a	-0.1159565
219	0x3db2bcaa	0.08727391
220	0x3e480e22	0.19536641
221	0x3ddd903a	0.10818525
222	0x3bf31734	0.0074185375
223	0xbe0318d1	-0.12802435
224	0xbd6c9b0b	-0.057765048
225	0x3caa43a1	0.020784201
226	0xbe3170ef	-0.17328237
227	0x3ce2e70f	0.027698068
228	0x3d66f868	0.056389242
229	0xbe503e8a	-0.20336357
230	0x3e0cffac	0.13769406
231	0x3e7a2ead	0.24431868
232	0xbdde4e21	-0.10854746
233	0xbe1aa2a2	-0.15101102
234	0x3e50758b	0.20357339
235	0xbe8a5d7f	-0.27024457
236	0x3d911005	0.070831336
237	0xbd81b3bf	-0.06333112
238	0x3ded6d13	0.1159307
239	0xbda0856b	-0.078379475
240	0xbe49cc2c	-0.19706792
241	0x3d74dc04	0.059780136
242	0x3dac7757	0.084212
243	0xbe4b407f	-0.19848822
244	0xbe671d37	-0.22569738
245	0xbe947fa7	-0.2900364
246	0xbe5f0570	-0.21779418
247	0xbe1862f8	-0.14881504
248	0x3e75f06f	0.240175
249	0x3e42bb4a	0.19016758
250	0x3cd26285	0.025681743
251	0x3e7b0ab8	0.24515808
252	0x3eaa1e6c	0.33226335
253	0xbd2d06fb	-0.042242985
254	0x3d8e04cc	0.06934509
255	0x3d34400b	0.04400639

model.input_block.4.weight f4 [40]
0	0x3f73fd52	0.9530841
1	0x3f93162b	1.149114
2	0x3f8973bd	1.0738446
3	0x3f912588	1.1339579
4	0x3f85444e	1.041147
5	0x3f662d6c	0.8991306
6	0x3f6f874e	0.93565834
7	0x3f8f145d	1.1178089
8	0x3f83ecee	1.030668
9	0x3f8dfb18	1.1092253
10	0x3f956ca2	1.1673777
11	0x3f9511bb	1.1646036
12	0x3f949e28	1.1610765
13	0x3f8476de	1.0348775
14	0x3f81b882	1.0134432
15	0x3f830476	1.0235736
16	0x3f84f1fa	1.0386345
17	0x3f6c2875	0.9224923
18	0x3f897429	1.0738574
19	0x3f8638c7	1.0486077
20	0x3f6cb6c1	0.9246636
21	0x3f8a6b2c	1.0813956
22	0x3f927027	1.1440476
23	0x3f5d7444	0.8650553
24	0x3f84cae1	1.0374414
25	0x3f79a8bd	0.975231
26	0x3f8f18e0	1.1179466
27	0x3f6f126f	0.933875
28	0x3f8a021a	1.0781891
29	0x3f8c4929	1.0959827
30	0x3f91df25	1.1396223
31	0x3f802e6d	1.0014168
32	0x3f929831	1.1452695
33	0x3f8de2b4	1.1084809
34	0x3f8b4c5a	1.0882676
35	0x3f829390	1.0201283
36	0x3f608951	0.8770953
37	0x3f8322a1	1.0244943
38	0x3f79d7dd	0.97595006
39	0x3f8633ae	1.0484521

model.input_block.4.bias f4 [40]
0	0x3c3dc6fe	0.011583088
1	0xbcba952f	-0.022776214
2	0xbccb3c0c	-0.024808906
3	0xbc8d5d92	-0.017256532
4	0xbce6572d	-0.02811774
5	0xba6263f4	-0.000863611
6	0xbb632ffc	-0.0034666052
7	0xbc5ece5f	-0.013599007
8	0xbc3962a5	-0.011315023
9	0xbc26705a	-0.010158623
10	0xbcd3259e	-0.025774773
11	0xbce48eb0	-0.02790007
12	0x3b84469f	0.004036739
13	0x3a701fb8	0.000916
14	0xbc10da2e	-0.008841081
15	0xbd45f6f1	-0.048331205
16	0xbb3a64fd	-0.0028441541
17	0xbc7bc1b2	-0.015366005
18	0xbae78fbb	-0.0017666736
19	0xbc146ae6	-0.00905869
20	0x3aea766c	0.0017888076
21	0x3b307801	0.0026926997
22	0xba51f26d	-0.00080088415
23	0xbc0307b9	-0.007997447
24	0x3badaa1a	0.0052998187
25	0x3b918aa5	0.0044415765
26	0xbc1f8d9a	-0.00973835
27	0xbcaa2251	-0.020768316
28	0xbbe10b0f	-0.0068677734
29	0xbcdea3da	-0.02717774
30	0xba99f55a	-0.0011746094
31	0x3ca3b6ca	0.019984622
32	0xbcc152bf	-0.023599027
33	0xbc8037c0	-0.015651584
34	0x3bec9b8b	0.0072206906
35	0xbb15ebfd	-0.0022876256
36	0xbc8efd73	-0.017454838
37	0xbc6c1670	-0.014409646
38	0x3a681145	0.0008852671
39	0xbbfef0d3	-0.0077801733

model.input_block.4.running_mean f4 [40]
0	0x3b8f8001	0.004379273
1	0x3b5d26bd	0.0033745014
2	0x3b07ce18	0.0020722207
3	0x3a808130	0.0009804126
4	0x3b1cc658	0.0023921933
5	0x3c83b742	0.016078595
6	0x3d078a4f	0.033090886
7	0x3c279c42	0.010230126
8	0x3b140b6e	0.002258982
9	0xbb035a51	-0.0020042846
10	0x3919a8e5	0.00014654135
11	0x3b345409	0.002751591
12	0xbb08fc97	-0.0020902508
13	0xbb97f461	-0.0046372865
14	0xbb16fc10	-0.0023038425
15	0x3b7c3a87	0.0038487033
16	0x3a572697	0.00082073495
17	0xba0dbc51	-0.00054067845
18	0x38b2ae54	8.5201726e-05
19	0xbc0f1d0b	-0.008734952
20	0xba99ab99	-0.0011724114
21	0x3b288095	0.0025711406
22	0x3b4d44f0	0.0031321608
23	0x3c8ea047	0.01741041
24	0x3c1f9eb9	0.009742432
25	0x3b1d1bc6	0.0023972853
26	0xb95f5e1e	-0.00021301999
27	0x3b19f3d8	0.002349129
28	0xbb2b6906	-0.0026155128
29	0x3b1e6806	0.002417089
30	0x3a1c99b5	0.0005973832
31	0x3b745f1a	0.003728813
32	0x3a4e44d5	0.0007868533
33	0x3b8c5492	0.0042825425
34	0xb9093533	-0.00013085156
35	0xbb7cf69f	-0.0038599146
36	0x3cb57d57	0.022154493
37	0x3bf594a8	0.007494528
38	0xbb0eb51f	-0.0021775437
39	0x3937f9bd	0.00017545275

model.input_block.4.running_var f4 [40]
0	0x34c5a6d6	3.6815499e-07
1	0x3545ff1c	7.375945e-07
2	0x35226ab6	6.050499e-07
3	0x350c4e6d	5.226819e-07
4	0x357461c8	9.1039374e-07
5	0x348a1d26	2.572571e-07
6	0x34bdaca6	3.5329612e-07
7	0x34e96fc5	4.3480955e-07
8	0x34cdcab0	3.83317e-07
9	0x3517da6b	5.6569723e-07
10	0x35578138	8.028178e-07
11	0x34ab5988	3.1916375e-07
12	0x350c9b36	5.2379926e-07
13	0x34fa4e21	4.6622975e-07
14	0x34f001f8	4.4704916e-07
15	0x34cd2fa9	3.8218903e-07
16	0x34beea14	3.5560572e-07
17	0x34e79a92	4.3139568e-07
18	0x34cab23e	3.775512e-07
19	0x35104a37	5.3752177e-07
20	0x34653e95	2.1350054e-07
21	0x34eddf48	4.4307149e-07
22	0x34c36990	3.6398387e-07
23	0x34fd53d5	4.7185918e-07
24	0x34862429	2.4985755e-07
25	0x3490085b	2.682817e-07
26	0x34c23ee9	3.618109e-07
27	0x3471a726	2.2505682e-07
28	0x35017ad8	4.8235006e-07
29	0x35003ad9	4.776935e-07
30	0x3518c5c4	5.69122e-07
31	0x34cd6f4c	3.8265205e-07
32	0x350fa717	5.35148e-07
33	0x35138d41	5.496732e-07
34	0x34bb3d5b	3.4876106e-07
35	0x354495f4	7.32339e-07
36	0x349422f9	2.7592594e-07
37	0x353c51c1	7.0154425e-07
38	0x34d28351	3.9211093e-07
39	0x34f684bb	4.5917645e-07

model.channel_expansion.0.weight f4 [16, 40, 1, 1]
0	0x3daa1d77	0.08306401
1	0xbd2375d3	-0.039907288
2	0x3d3c9d47	0.04604843
3	0x3ea40c3f	0.32040593
4	0xbd809adb	-0.06279536
5	0xbd1edd82	-0.038785465
6	0x3d63d69d	0.055624593
7	0x3e72fd96	0.23729548
8	0xbd95c863	-0.07313611
9	0xbde35706	-0.11100583
10	0xbe91f747	-0.2850897
11	0x3d0001a9	0.031251583
12	0x3d75e8d5	0.0600365
13	0xbe5a4fe9	-0.21319546
14	0xbd36fdfd	-0.044675816
15	0x3d64ccca	0.055859365
16	0x3df304c8	0.11866146
17	0xbc3ff2eb	-0.011715631
18	0xbccf21dc	-0.0252847
19	0x3e0e3927	0.1388899
20	0xbde575cf	-0.11204111
21	0x3d786f3f	0.060652968
22	0xbdfc0c2b	-0.12307008
23	0x3d15ef8a	0.036605395
24	0x3e400a3b	0.18753903
25	0x3d67fe55	0.056639034
26	0xbd2fad7c	-0.042890057
27	0xbe295aca	-0.1653854
28	0x3db9cd1c	0.09072325
29	0x3dbf6003	0.09344485
30	0xbd1e2709	-0.038611446
31	0xbd79c3cf	-0.060977753
32	0x3de9b1ca	0.11410864
33	0x3db64eb4	0.0890173
34	0xbd984ff6	-0.07437126
35	0x3dabfda2	0.08397986
36	0xbe184629	-0.14870514
37	0xbcfa540c	-0.030557655
38	0x3e0dfba8	0.1386553
39	0x3e05a836	0.13052449
40	0x3ce30616	0.027712863
41	0xbdf05811	-0.11735547
42	0x3ca602fc	0.020265095
43	0xbb141748	-0.0022596885
44	0xbe3dc949	-0.18533815
45	0xbc81568f	-0.015788345
46	0x3da9479e	0.08265613
47	0x3d9fe0b6	0.07806532
48	0xbc67cf0d	-0.014148486
49	0xbe4e0aef	-0.20121358
50	0xbd8b4c9d	-0.06801722
51	0x3c20ea0a	0.009821424
52	0xbdf3dd91	-0.11907495
53	0x3ddde5d3	0.10834851
54	0xbdb31db0	-0.08745897
55	0x3d46f9eb	0.048578184
56	0x3df3eda8	0.11910564
57	0xbdbcdcff	-0.09221839
58	0x3d865275	0.06558696
59	0x3d38b88a	0.045097865
60	0xbdc43fa2	-0.095824495
61	0x3cf15db8	0.029463634
62	0xbe31ddd0	-0.17369771
63	0xbe0aaec8	-0.13543236
64	0xbde5a29a	-0.112126544
65	0x3d271e5b	0.040800434
66	0x3e280599	0.16408385
67	0x3cf9d24b	0.030495783
68	0xbe904362	-0.2817641
69	0x3d0d3c04	0.034481063
70	0x3e50861c	0.20363659
71	0xbd723b68	-0.059138685
72	0x3d9a5f68	0.075377285
73	0xbd00abf5	-0.03141399
74	0x3cebf847	0.028804911
75	0xbe6f9214	-0.23395568
76	0x3daaaddc	0.08333942
77	0xbe180df5	-0.14849074
78	0xbdb98e9a	-0.09060402
79	0x3d2b0ddf	0.041761275
80	0xbdbcfa74	-0.09227458
81	0x3e18947d	0.14900394
82	0x3b78e562	0.003797852
83	0x3dd534d9	0.104104705
84	0xbe5e9bae	-0.21739075
85	0xbdc22c9f	-0.09481167
86	0x3d24dc7d	0.040249337
87	0xbc67c22a	-0.014145413
88	0xbdf823c8	-0.121162
89	0x3d44c9c0	0.048043966
90	0xbd65b537	-0.056081023
91	0x3defba25	0.11705426
92	0x3cc76de6	0.024344396
93	0xbd938e24	-0.072048455
94	0xbc045710	-0.008077398
95	0x3e89b4ff	0.26895902
96	0x3e342799	0.1759323
97	0x3e06d8c4	0.13168627
98	0x3c761b6b	0.015021185
99	0xbcae4d67	-0.021277143
100	0xbd24d44a	-0.040241517
101	0xbe046342	-0.12928489
102	0xbe130224	-0.14356285
103	0xbe2fcfa6	-0.17169055
104	0xbd83a62e	-0.06428181
105	0x3dcc5262	0.09976651
106	0x3e3fb097	0.18719707
107	0x3dd2c17d	0.10290811
108	0x3d86a110	0.06573689
109	0x3ca7372b	0.020412048
110	0xbe05f4b7	-0.13081633
111	0x3b91ea91	0.0044530113
112	0xbde1651b	-0.110056125
113	0xbdb6d8d3	-0.08928075
114	0x3dd05d61	0.101740606
115	0xbd92de4a	-0.071713045
116	0xbcfbdc8b	-0.030744812
117	0xbcf806b9	-0.030276643
118	0xbcc46eda	-0.02397864
119	0x3d6a4ca6	0.057202004
120	0xbcbb2e8f	-0.02284935
121	0xbe60a3ec	-0.21937531
122	0x3dd7bc27	0.10533934
123	0xbe1237a4	-0.14279038
124	0xbd50fd0c	-0.051022574
125	0x3d44a777	0.04801127
126	0xbdafac93	-0.08577838
127	0x3ca18ed7	0.019721432
128	0x3e0385db	0.1284403
129	0xbe4db679	-0.20089139
130	0x3d8f26a0	0.06989789
131	0xbe903b13	-0.2817007
132	0x3e558fb2	0.20855597
133	0xbd6ee6ac	-0.058325455
134	0x3e383d9f	0.17992257
135	0x3d2536e7	0.040335562
136	0x3def895d	0.11696122
137	0xbe01721e	-0.12641189
138	0x3e0cc469	0.137468
139	0xbe1174fc	-0.14204782
140	0xbc5dc116	-0.013534805
141	0x3df0eebc	0.11764285
142	0x3e5b878a	0.21438423
143	0xbcc5bbc3	-0.024137383
144	0xbbb861e2	-0.005626903
145	0xbe268328	-0.1626097
146	0x3e45d476	0.19319329
147	0x3d6e4f09	0.058180843
148	0x3dad9298	0.08475226
149	0x3d67e1a0	0.056611657
150	0xbd75bd6d	-0.059995104
151	0xbc3f8590	-0.011689559
152	0x3e0b8662	0.13625482
153	0xbd9dbdaf	-0.07702195
154	0xbd5ae5fa	-0.05344198
155	0xbd0452e1	-0.032305602
156	0xbb8d3008	-0.0043087043
157	0x3e00bc44	0.12571818
158	0x3e13be0d	0.14427967
159	0xbca526a8	-0.020160034
160	0x3d053bdb	0.032527786
161	0x3d804e13	0.062648915
162	0xbddb5458	-0.10709447
163	0xbdfa8c94	-0.122338444
164	0xbd4f49d7	-0.05060753
165	0x3e5a22f7	0.213024
166	0xbe2fa609	-0.17153181
167	0x3d1d145a	0.038349487
168	0xbd25e871	-0.040504877
169	0x3e206a45	0.15665539
170	0x3e49a811	0.19693018
171	0x3daa7ef4	0.08324996
172	0x3dccd375	0.1000127
173	0xbddbbc49	-0.10729272
174	0xbcede465	-0.029039571
175	0x3c851dc9	0.016249554
176	0xbd3c3b3c	-0.045954928
177	0xbd2a5833	-0.04158802
178	0xbe6d9ecf	-0.23205112
179	0x3d56a15c	0.052399978
180	0x3dd533e5	0.10410289
181	0xbe2412ff	-0.16022871
182	0x3dc2eba0	0.09517598
183	0xbd0126af	-0.031531032
184	0xbd2ae130	-0.04171866
185	0xbd0f90e0	-0.035050273
186	0x3dcd8d9c	0.100367755
187	0x3c294ac9	0.010332772
188	0x3d8a2131	0.06744612
189	0xbe8a0b03	-0.26961526
190	0xbc04294b	-0.008066486
191	0x3da171f3	0.07883062
192	0xbd92cb82	-0.07167722
193	0xbdbf88bc	-0.09352252
194	0xbd178331	-0.03699035
195	0x3e0fe930	0.14053798
196	0x3d2f7a19	0.04284105
197	0xbdf5c56f	-0.12000548
198	0x3d9e0512	0.07715811
199	0xbbe9ad53	-0.0071312576
200	0xbd88f152	-0.06686653
201	0x3dec37d3	0.11534085
202	0xba233931	-0.0006226479
203	0xbe934c5b	-0.28769192
204	0x3d84103e	0.064484105
205	0xbc0c44ce	-0.008561326
206	0xbe1e6002	-0.15466312
207	0x3d1cc05c	0.038269386
208	0x3cacd975	0.021099785
209	0x3e2a07b6	0.16604504
210	0x3e073534	0.13203889
211	0xbe06d392	-0.13166645
212	0x3d9bf65e	0.0761535
213	0x3d7f4252	0.062319107
214	0xbdbe15dc	-0.09281513
215	0x3d03a5dc	0.032140598
216	0x3d760282	0.060060985
217	0x3d1ff9e9	0.039056692
218	0x3e016eab	0.12639873
219	0xbe3acc5f	-0.18242024
220	0x3d42f392	0.047595568
221	0xbe82c7a6	-0.25542945
222	0x3e3de66c	0.1854493
223	0x3e053187	0.13007174
224	0xbd220b16	-0.039561354
225	0xbdfd0f26	-0.12356405
226	0x3d4295bb	0.047506075
227	0x3e6c277a	0.23061934
228	0x3d8dc904	0.06923106
229	0xbe2061bb	-0.15662281
230	0xbd620625	-0.05518164
231	0xbde75a69	-0.11296541
232	0xbdc40d71	-0.09572876
233	0xbdbd844f	-0.092537515
234	0x3c532db7	0.012889317
235	0x3d200084	0.03906299
236	0xbd4fc7d8	-0.050727695
237	0x3dbcb637	0.09214442
238	0xbd38e8e0	-0.045143962
239	0xbe1f1366	-0.15534744
240	0xbe2e938e	-0.17048475
241	0xbe02a854	-0.12759525
242	0x3d0a40e0	0.033753276
243	0xbd18f4d7	-0.037342872
244	0x3c313ef0	0.010818228
245	0xbcf0275b	-0.029315641
246	0x3da58004	0.08081058
247	0x3f028f88	0.5100026
248	0xbc965b5c	-0.01835411
249	0xbd175a3d	-0.036951292
250	0x3dd5c785	0.10438446
251	0xbe46a0a0	-0.19397211
252	0x3e24a046	0.16076764
253	0x3d6efe0b	0.058347743
254	0x3c2a01c1	0.010376395
255	0xbcba2124	-0.02272088

model.channel_expansion.1.weight f4 [16]
0	0x3f834248	1.0254602
1	0x3f58488d	0.84485704
2	0x3f930ae6	1.1487701
3	0x3f91481a	1.1350129
4	0x3f8c45eb	1.0958837
5	0x3f810bf7	1.0081776
6	0x3f73c563	0.95223063
7	0x3f5ae915	0.85511905
8	0x3f98134c	1.1880889
9	0x3f8d55ec	1.1041846
10	0x3f80d9ab	1.0066427
11	0x3f91142c	1.1334281
12	0x3f90a93e	1.1301649
13	0x3f4dafe3	0.80346507
14	0x3f83432d	1.0254875
15	0x3f8f59ee	1.1199319

model.channel_expansion.1.bias f4 [16]
0	0xbed305fc	-0.41215503
1	0xbe9cebdd	-0.306487
2	0xbf18102f	-0.59399694
3	0xbe4af03a	-0.19818202
4	0xbeadb81c	-0.33929527
5	0x3eca647b	0.39529786
6	0x3e85628e	0.26051754
7	0x3bb13935	0.005408431
8	0xbebb1d09	-0.3654559
9	0xbe854ad1	-0.26033643
10	0xbdfa4466	-0.12220077
11	0xbea43502	-0.32071692
12	0xbeca3c12	-0.39498955
13	0xbb0b5a59	-0.0021263568
14	0x3db02024	0.0859988
15	0xbe95ff4a	-0.29296333

model.channel_expansion.1.running_mean f4 [16]
0	0x3afb5636	0.0019175473
1	0xbc08ef2e	-0.008357806
2	0xbc86bbe0	-0.016447008
3	0x3baf4907	0.0053492817
4	0x3bb1d48a	0.005426948
5	0xbb9fe596	-0.0048796637
6	0xbc11bf5f	-0.008895724
7	0xbc8e3465	-0.017358968
8	0x3bb3978d	0.0054807127
9	0x39fc3a9f	0.00048108862
10	0xb99b927b	-0.0002967304
11	0x3c42be65	0.011886214
12	0xbc8ebba5	-0.01742346
13	0xbbf4eec4	-0.007474752
14	0xbb8056da	-0.0039166035
15	0xbc92e206	-0.017930042

model.channel_expansion.1.running_var f4 [16]
0	0x3d2f9448	0.04286602
1	0x3cfda2b8	0.03096138
2	0x3cd9be7f	0.026580093
3	0x3d885503	0.0665684
4	0x3d379f5a	0.044829704
5	0x3d4daa7e	0.050211422
6	0x3cfecb21	0.031102719
7	0x3d326de2	0.043561824
8	0x3d70afc0	0.05876136
9	0x3cd5e2be	0.026109096
10	0x3d0f2854	0.03495057
11	0x3d81b00e	0.06332408
12	0x3d2eb4cd	0.042652894
13	0x3cc43a74	0.023953654
14	0x3d17d3e6	0.037067316
15	0x3d150f0a	0.036391295

model.fe.0.weight f4 [16, 1, 1, 15]
0	0xbe8a4300	-0.27004242
1	0xbd0d6121	-0.034516457
2	0xbe687f92	-0.22704914
3	0xbd6a1869	-0.057152186
4	0xbd8523bc	-0.065009564
5	0xbe2baaca	-0.1676437
6	0xbe4821f8	-0.19544208
7	0xbe243ee8	-0.16039622
8	0xbe6ef266	-0.23334655
9	0xbc44ab48	-0.012003727
10	0xbe0f7aa1	-0.14011623
11	0xbe58d007	-0.21173106
12	0x3d70a5cc	0.058751866
13	0xbe087f62	-0.13329843
14	0xbde6796f	-0.1125363
15	0xbe34751f	-0.17622803
16	0xbdf318af	-0.118699424
17	0xbde15134	-0.110018164
18	0x3d59a38a	0.05313448
19	0x3c8546d6	0.016269129
20	0x3d9fd9ac	0.078051895
21	0xbdddf698	-0.1083805
22	0xbc8a0946	-0.016850125
23	0xbe195489	-0.14973654
24	0x3dc2810e	0.094972715
25	0xbda27e5d	-0.07934258
26	0xbd639d21	-0.05556977
27	0x3d115956	0.035485588
28	0x3de424e5	0.111398496
29	0x3ca13a1e	0.019681033
30	0xbe6ab0de	-0.22919032
31	0xbe4e23dc	-0.20130867
32	0xbe8ca3ec	-0.27468812
33	0xbe2e304e	-0.17010614
34	0xbe609c6f	-0.21934675
35	0xbd9404d9	-0.07227487
36	0xbe520914	-0.20511276
37	0xbd8a259c	-0.06745455
38	0xbe5e9afe	-0.21738812
39	0xbd8c4921	-0.06849886
40	0xbe123b35	-0.14280398
41	0xbe28c11e	-0.16479918
42	0xbdd3f279	-0.10348982
43	0xbe3f5600	-0.1868515
44	0xbdf74545	-0.12073759
45	0x3e1bfa37	0.15232168
46	0x3e98097a	0.2969473
47	0x3e89961b	0.26872334
48	0x3e3c5e6d	0.18395396
49	0x3e0796ba	0.13241091
50	0x3da3519a	0.07974549
51	0x3e19fb05	0.15037163
52	0x3d0f0aa6	0.034922265
53	0x3e11e1c4	0.14246279
54	0x3d6ab896	0.05730494
55	0x3e4e2283	0.20130353
56	0x3e3cf66c	0.18453377
57	0x3e7b98b0	0.24569964
58	0x3df77e7c	0.12084672
59	0x3e666e67	0.22503053
60	0xbe7fb3ab	-0.24970882
61	0xbdbd5169	-0.092440434
62	0xbe582d72	-0.21111086
63	0xbe0d2a80	-0.13785744
64	0xbde7550a	-0.11295517
65	0xbe65f6bc	-0.22457403
66	0xbe0996c6	-0.13436422
67	0xbcff7c87	-0.031187309
68	0xbddb086d	-0.106949665
69	0xbdf1b129	-0.11801369
70	0xba86ea6c	-0.0010293252
71	0xbd87f98a	-0.06639393
72	0xbe2d5ced	-0.1692998
73	0xbe1cfc05	-0.15330513
74	0xbe1fb27d	-0.15595432
75	0x3e28e042	0.16491798
76	0xbc51c190	-0.012802497
77	0x3da78b12	0.081808224
78	0x3e490d0f	0.19633888
79	0xbe82ad2c	-0.25522745
80	0x3ea9cd0c	0.3316425
81	0xbe15bc94	-0.14622718
82	0x3e08016c	0.13281792
83	0xbd80ca35	-0.06288568
84	0x3e82508a	0.2545207
85	0xbe5a4c0d	-0.21318074
86	0x3e9e313c	0.30896938
87	0xbe2ff9fc	-0.17185205
88	0x3dedfacd	0.11620102
89	0x3b9b0e3c	0.0047319215
90	0xbca405b8	-0.020022258
91	0x3e5dd202	0.21662143
92	0xbe312648	-0.1729976
93	0x3e8ecdb3	0.2789131
94	0xbe02735f	-0.12739323
95	0x3debdb9f	0.11516499
96	0xbeb1d749	-0.34734562
97	0x3e3426ae	0.1759288
98	0xbe2c1518	-0.16804922
99	0x3e1437ee	0.1447446
100	0xbe36a6b5	-0.17837031
101	0x3e8a4d6c	0.27012193
102	0xbd33e6ee	-0.043921404
103	0x3cc92acb	0.024556538
104	0xbca15f54	-0.019698776
105	0xbd9deccc	-0.07711181
106	0x3c06fb48	0.008238621
107	0xbd2af4a8	-0.04173723
108	0xbca43d8d	-0.020048881
109	0x3daf9377	0.085730486
110	0x3d7b381b	0.061332803
111	0xbe1b59d2	-0.15170982
112	0x3ead587f	0.3385658
113	0x3dd73a94	0.1050922
114	0x3d907ca0	0.0705502
115	0x3d15dddc	0.036588535
116	0x3db2ff36	0.08740084
117	0x3d495f6a	0.04916326
118	0x3d55a44e	0.052158646
119	0xbac943dd	-0.0015355308
120	0xbe47a1f3	-0.19495372
121	0xbe857e80	-0.26073074
122	0xbeab9aad	-0.33516446
123	0xbe2f398f	-0.171118
124	0xbe43721e	-0.19086501
125	0xbe2bc530	-0.1677444
126	0xbe890382	-0.2676049
127	0x39ce440e	0.00039342087
128	0xbe2758d7	-0.16342483
129	0xbdda18f4	-0.10649291
130	0xbe541fdd	-0.2071528
131	0xbe01bb83	-0.12669186
132	0xbe4e8352	-0.20167282
133	0xbe11f964	-0.14255291
134	0xbe2e272e	-0.17007133
135	0xbde64e9c	-0.11245462
136	0xbdc08c00	-0.09401703
137	0xbe87b382	-0.2650414
138	0xbd4950db	-0.049149375
139	0xbdc50b4e	-0.09621297
140	0xbdcfdbd4	-0.10149351
141	0x3c8c1b7f	0.017102955
142	0xbe50f9fd	-0.20407863
143	0xbd887c5f	-0.06664347
144	0xbbe1bf5f	-0.0068892683
145	0xbe68d3ca	-0.22737041
146	0xbcc070f3	-0.023491358
147	0xbe0be404	-0.136612
148	0xbe775e06	-0.24156961
149	0xbe17f57c	-0.14839739
150	0xbe0f6a06	-0.14005288
151	0xbd7f0793	-0.062263083
152	0xbdba5ba5	-0.09099511
153	0xbba9096b	-0.0051585934
154	0xbddf8adc	-0.10915157
155	0xbd878dec	-0.06618866
156	0x3d887beb	0.066642605
157	0xbdbeee84	-0.09322837
158	0x3dcdcec9	0.10049207
159	0xbe17b52d	-0.14815207
160	0x3d9ceb73	0.07662096
161	0xbe0ee0af	-0.13952897
162	0x3d711467	0.058857348
163	0xbd38da01	-0.04512978
164	0x3db1303d	0.08651779
165	0x3ec5927e	0.38588327
166	0x3e391ab5	0.18076594
167	0x3ea5c63d	0.32377806
168	0x3e68760e	0.22701284
169	0x3d9d9277	0.076939516
170	0x3e2ee728	0.17080367
171	0x3e2654ae	0.1624324
172	0x3d9ac901	0.0755787
173	0x3e6712a3	0.22565703
174	0x3dc7c7e6	0.097549245
175	0x3e188531	0.14894558
176	0x3e104b4f	0.14091228
177	0x3ce61b74	0.028089263
178	0x3df9bfb6	0.12194769
179	0x3e1d282f	0.1534736
180	0x3eb65891	0.35614446
181	0x3e24fed5	0.16112836
182	0x3e7d3ca4	0.24730164
183	0x3e8720b6	0.26392144
184	0x3e035cfb	0.12828438
185	0x3d7a42f5	0.06109901
186	0x3e13d0cd	0.1443512
187	0xbe10b447	-0.1413127
188	0x3e072473	0.13197498
189	0xbd10563c	-0.03523849
190	0x3d4e6737	0.050391402
191	0xbd4b91ed	-0.049699713
192	0x3dcfacf8	0.10140413
193	0xbdfcbbad	-0.12340484
194	0x3e16406c	0.14673012
195	0x3e29d897	0.16586529
196	0xbe9a5a5b	-0.3014706
197	0x3e70b15f	0.23505162
198	0xbe68f066	-0.22747955
199	0xbd049d6e	-0.0323767
200	0x3de4645d	0.11151955
201	0xbdb9ca78	-0.09071821
202	0x3e258145	0.16162594
203	0xbdb998f5	-0.09062377
204	0x3d260341	0.040530447
205	0xbe62dff6	-0.22155747
206	0x3d26f641	0.04076219
207	0x3c47113a	0.012150103
208	0x3e35d78e	0.17758009
209	0xbde60432	-0.11231269
210	0x3e63f802	0.22262576
211	0xbe965056	-0.29358166
212	0x3e38fa69	0.18064274
213	0xbe38fb1f	-0.18064545
214	0x3de35dbd	0.111018635
215	0xbe68dd66	-0.22740707
216	0x3e6e2281	0.2325535
217	0xbe3ab1ec	-0.18231934
218	0x3e88c914	0.2671591
219	0xbe3a1f4e	-0.18176004
220	0x3c9e9809	0.019359605
221	0x3dc9fb01	0.09862328
222	0xbd9c0c30	-0.07619512
223	0xbd81b0b8	-0.063325346
224	0x3d4a9567	0.049458887
225	0x3dd98f5d	0.106230475
226	0x3e78e7e2	0.24307206
227	0x3e45335e	0.19257876
228	0x3d8865f9	0.06660075
229	0x3e035da9	0.12828697
230	0x3de65a8c	0.11247739
231	0x3d5482ab	0.051882427
232	0x3e6fc9b7	0.23416792
233	0x3c4d467a	0.01252901
234	0x3e454d77	0.19267832
235	0x3e28be31	0.16478802
236	0x3df6f977	0.120593004
237	0xbd105231	-0.035234634
238	0x3e19abff	0.15007018
239	0xbd47bf8c	-0.048766658

model.fe.1.weight f4 [16, 16, 1, 1]
0	0xbe023cac	-0.12718457
1	0xbe05c09c	-0.13061756
2	0x3e4c81e2	0.19971421
3	0xbe907121	-0.2821131
4	0xbc76c369	-0.015061238
5	0x3d4681de	0.048463695
6	0x3e3902ed	0.18067522
7	0xbb7eced2	-0.0038880599
8	0x3e4aaf36	0.197934
9	0xbe024651	-0.12722136
10	0x3e2bf8bb	0.16794102
11	0x3e7ded2c	0.24797505
12	0x3d64a8ab	0.055824917
13	0xbe0746c7	-0.13210593
14	0xbe1619f8	-0.14658344
15	0x3cf6bd4d	0.030119563
16	0x3e5e96ca	0.21737209
17	0xbc80fe96	-0.015746396
18	0xbe0c1fa8	-0.13683951
19	0x3e4449b2	0.19168738
20	0x3e329173	0.17438297
21	0x3e6f54c0	0.23372173
22	0xbb00b76e	-0.0019640583
23	0xbe1f1c1e	-0.1553807
24	0xbe604602	-0.21901706
25	0x3d9b1e08	0.075740874
26	0x3dcb4069	0.09924395
27	0xbe81d1f5	-0.25355497
28	0xbdcdec06	-0.100547835
29	0xbd0db776	-0.03459879
30	0x3e8416dc	0.2579869
31	0xbe237bfe	-0.15965268
32	0xbdae8150	-0.08520758
33	0xbdb46022	-0.088073984
34	0x3e5a8a1a	0.21341744
35	0xbe6cfd2a	-0.2314345
36	0x3d580ec6	0.052748464
37	0xbe04e669	-0.1297852
38	0xbe75b0cd	-0.23993225
39	0xbe1e9d96	-0.15489802
40	0x3e175414	0.14778167
41	0xbde70985	-0.112811126
42	0xbd6c56c6	-0.05769994
43	0x3e85fe6e	0.26170677
44	0x3e1bb37f	0.15205191
45	0x3db78303	0.089605354
46	0x3dba852c	0.09107432
47	0x3d8e735a	0.06955595
48	0xbce93608	-0.028468147
49	0xbdde6cad	-0.10860572
50	0x3e6849da	0.22684422
51	0xbe2c1dcf	-0.16808246
52	0xbdbb6210	-0.09149563
53	0xbdec88fe	-0.11549567
54	0xbeb79afe	-0.35860437
55	0xbdefb73f	-0.11704873
56	0x3e8de9bd	0.2771739
57	0xbe448004	-0.19189459
58	0xbcb2bf17	-0.021819634
59	0x3e8ae909	0.27130917
60	0x3e32ae2e	0.17449257
61	0x3dcd5d06	0.100275084
62	0x3dac14e9	0.08402426
63	0x3c686d2c	0.014186185
64	0x3e514f89	0.20440497
65	0xbd6b09f1	-0.057382528
66	0xbe0d6eb8	-0.13811767
67	0x3df985f8	0.12183756
68	0x3e292445	0.16517742
69	0xbdeeaafc	-0.116537064
70	0x3bb35601	0.005472899
71	0xbd152909	-0.036416087
72	0xbdf0fb51	-0.11766685
73	0x3d390fd4	0.04518111
74	0xbe2a0acd	-0.16605683
75	0xbdb96f21	-0.09054399
76	0xbe238faa	-0.15972772
77	0xbcf7be04	-0.030241974
78	0xbd80b825	-0.06285123
79	0xbe218ae2	-0.15775636
80	0xbde23aff	-0.11046409
81	0xbc9df3e7	-0.01928134
82	0x3e42de77	0.19030176
83	0xbe518795	-0.20461877
84	0xbd51a775	-0.05118509
85	0x3c5e9763	0.013585898
86	0x3e411767	0.18856584
87	0xbc059c19	-0.008154892
88	0x3e02a7a6	0.12759265
89	0xbda264ec	-0.079294056
90	0x3e122ab7	0.14274107
91	0x3e1df10d	0.15423985
92	0x3d9fcb65	0.07802466
93	0xbdd30285	-0.10303215
94	0xbdbc8640	-0.09205294
95	0x3cd9059a	0.026491929
96	0xbe01c7d8	-0.1267389
97	0x3d2d9e77	0.042387452
98	0x3e0d396b	0.13791434
99	0xbdf4c889	-0.119523115
100	0x3dbb74aa	0.09153111
101	0xbe80c749	-0.25152043
102	0xbde4ffcf	-0.11181604
103	0xbe45753d	-0.19283004
104	0x3d5c9a5d	0.05385815
105	0x3dd5ec83	0.10445502
106	0x3e6de2ba	0.2323102
107	0x3d9b90d0	0.0759598
108	0x3e938cd0	0.2881837
109	0x3dea820b	0.11450585
110	0x3e265e05	0.16246803
111	0x3e825a8b	0.25459704
112	0x3e6aa86d	0.22915812
113	0x3d5a0ef2	0.05323691
114	0xbe7bbc00	-0.24583435
115	0x3e08f37e	0.13374135
116	0x3e3ead0a	0.18620697
117	0xbe40f158	-0.18842065
118	0xbc85a335	-0.016313175
119	0xbdb860fe	-0.09002875
120	0xbe0b2f13	-0.13592176
121	0x3dc898ce	0.0979477
122	0xbce51e08	-0.027968422
123	0xbdb55047	-0.08853202
124	0xbe50a926	-0.20377025
125	0x3d283c6a	0.04107324
126	0xbe09cf20	-0.13457918
127	0xbe3dfdd2	-0.18553856
128	0x3dcd3d80	0.10021496
129	0x3e1bcab2	0.15214041
130	0xbe1846c4	-0.14870745
131	0x3e600006	0.21875009
132	0x3e74e6b2	0.23916128
133	0xbe817efb	-0.2529219
134	0xbd6bb241	-0.057543043
135	0xbd6b32a1	-0.05742133
136	0xbe42404f	-0.18969844
137	0x3df2b3a6	0.118506715
138	0xbd20867d	-0.039190758
139	0xbd9171f8	-0.07101816
140	0xbe768e08	-0.24077618
141	0x3d9cf868	0.07664567
142	0xbe95d504	-0.2926408
143	0xbe01c82f	-0.1267402
144	0x3e2d8514	0.16945297
145	0xbd26bcc5	-0.04070737
146	0xbe171fe1	-0.14758255
147	0x3e39bdc8	0.18138802
148	0x3e0f71ca	0.14008251
149	0x3e5fcbb3	0.21855049
150	0xba459382	-0.0007536934
151	0xbde58288	-0.112065375
152	0xbe3449f4	-0.17606336
153	0x3d525c03	0.05135728
154	0x3dd13803	0.102157615
155	0xbe575519	-0.21028556
156	0xbdb1ec57	-0.086876564
157	0xbd58c49c	-0.052921876
158	0x3e81f031	0.25378564
159	0xbdddb5cd	-0.10825691
160	0xbd201a38	-0.039087504
161	0xbe243f95	-0.1603988
162	0x3e0a2c23	0.134934
163	0xbe80fed6	-0.25194424
164	0xbb429950	-0.0029693432
165	0xbe3addab	-0.18248622
166	0xbe84aa18	-0.2591102
167	0xbde4aa37	-0.111652784
168	0x3e9c3597	0.30509636
169	0xbe158ef9	-0.14605321
170	0xbe45bdf2	-0.1931074
171	0x3e6a6126	0.22888622
172	0x3e379751	0.17928816
173	0x3dce0f99	0.10061569
174	0x3e1b764b	0.15181844
175	0x3e440db3	0.19145851
176	0xbd4166d1	-0.047217194
177	0xbdb2d716	-0.08732431
178	0x3e669555	0.22517903
179	0xbe47b33f	-0.1950197
180	0xbd903789	-0.070418425
181	0x3e1d4468	0.15358126
182	0x3e4998e9	0.19687237
183	0x3dbc3c11	0.09191144
184	0x3e55c6ac	0.20876569
185	0xbea6c0ac	-0.32568872
186	0x3daa4343	0.083136104
187	0x3e862f07	0.26207754
188	0xbd9c9281	-0.07645131
189	0xbe42364d	-0.18966027
190	0xbe58aec8	-0.21160424
191	0xbd09560f	-0.033529337
192	0xbe72cab0	-0.23710132
193	0xbdf604ce	-0.12012635
194	0x3e20ba5d	0.15696092
195	0xbe2b72b8	-0.1674298
196	0x3d067ead	0.03283565
197	0xbda6da75	-0.08147136
198	0xbea19c38	-0.31564498
199	0xbe55c580	-0.20876122
200	0x3e77bb8d	0.24192639
201	0xbda1f901	-0.07908822
202	0xbe125818	-0.14291418
203	0x3e618234	0.22022325
204	0x3d819f8b	0.063292585
205	0x3dc5c3e9	0.096565075
206	0x3d468722	0.048468716
207	0x3d1c81b8	0.038209647
208	0xbe8141e4	-0.25245583
209	0x3d4459eb	0.047937315
210	0x3dc25023	0.09487941
211	0xbe2981ce	-0.16553423
212	0xbd88ced5	-0.06680075
213	0xbe24e205	-0.16101845
214	0xbe02b0d0	-0.12762761
215	0xbe500dc2	-0.20317748
216	0x3e4c8d8f	0.19975875
217	0x3c5a224f	0.013313844
218	0x3d225207	0.03962901
219	0x3d5c645d	0.05380665
220	0x3e1de34d	0.1541874
221	0x3dd01740	0.101606846
222	0x3ddae9e6	0.10689144
223	0x3e094110	0.13403726
224	0xbe206980	-0.15665245
225	0x3ce23ea3	0.027617758
226	0x3e0b4bff	0.13603209
227	0xbe205647	-0.15657912
228	0xbd632584	-0.0554557
229	0xbe05cc34	-0.13066179
230	0xbe93e5e3	-0.28886327
231	0xbe451cbc	-0.19249243
232	0x3e78f118	0.2431072
233	0xbd3d10de	-0.046158664
234	0xbca5e14a	-0.020249028
235	0x3e62d71c	0.2215237
236	0x3df16aae	0.11787926
237	0x3df351c1	0.11880828
238	0x3def49a6	0.11683969
239	0x3caacf33	0.020850753
240	0x3e07c794	0.13259727
241	0xbc588a1e	-0.013216523
242	0xbe8cb4cf	-0.27481696
243	0x3d95e372	0.073187724
244	0x3d82bb88	0.06383425
245	0xbe92f264	-0.28700554
246	0xbd57c8b0	-0.052681625
247	0xbd48363f	-0.048879858
248	0xbe485699	-0.19564284
249	0x3e15db0d	0.14634342
250	0x3d41f000	0.047348022
251	0xbdb0faf8	-0.086416185
252	0xbe8a534e	-0.2701668
253	0x3dc76821	0.09736658
254	0xbe80eb97	-0.2517974
255	0xbdda6e57	-0.10665577

model.fe.2.weight f4 [16]
0	0x3fae2e98	1.3607969
1	0x3fceea06	1.6165168
2	0x3facbd66	1.34953
3	0x3fafc29b	1.3731264
4	0x3fbb7517	1.4645108
5	0x3fa1836b	1.261823
6	0x3fa9e120	1.3271828
7	0x3fd39698	1.6530333
8	0x3fc77cce	1.5584962
9	0x3fcd509b	1.6040224
10	0x3fb0a287	1.37996
11	0x3fb4e9ef	1.4133891
12	0x3fa9b906	1.325959
13	0x3fad29bc	1.3528361
14	0x3fb40573	1.4064163
15	0x3fcdee32	1.6088316

model.fe.2.bias f4 [16]
0	0xbdb7ffdb	-0.089843474
1	0xbd27f151	-0.04100162
2	0xbdd17693	-0.10227694
3	0xbdcdd073	-0.10049524
4	0x3c8e5438	0.017374143
5	0xbdb854e7	-0.09000569
6	0xbe2f4d9c	-0.1711945
7	0xbc3f1e77	-0.011664978
8	0x3d4520a5	0.048126835
9	0x3ce3ccaa	0.027807552
10	0xbda46dce	-0.08028756
11	0xbdfe5aba	-0.124196485
12	0xbdcea3bb	-0.10089823
13	0xbddaffbd	-0.106933095
14	0xbd9b6dff	-0.075893395
15	0x3db1ba12	0.08678068

model.fe.2.running_mean f4 [16]
0	0x3d5ed8ff	0.054406162
1	0x3de69780	0.11259365
2	0xbce3b767	-0.027797414
3	0xbabc6802	-0.0014374258
4	0x3b5d6933	0.0033784627
5	0x3d3740d7	0.04473957
6	0xbdfe83bb	-0.12427469
7	0xbd843216	-0.06454866
8	0xbd82f632	-0.06394614
9	0x3da690ef	0.08133113
10	0xbd727431	-0.05919284
11	0x3e1ec28e	0.15503904
12	0xbd52061d	-0.05127536
13	0xbdf64112	-0.1202413
14	0xbd8da41d	-0.06916068
15	0xbe307921	-0.17233707

model.fe.2.running_var f4 [16]
0	0x3d9c1d65	0.07622794
1	0x3db2c581	0.08729077
2	0x3daca11a	0.08429165
3	0x3df1b35a	0.11801787
4	0x3d25204a	0.040313996
5	0x3d360bba	0.044444777
6	0x3e03c4b8	0.12868011
7	0x3d97f56b	0.07419857
8	0x3df505c7	0.119639926
9	0x3d8fbd68	0.07018548
10	0x3e07e503	0.13270955
11	0x3e0bd0c4	0.13653857
12	0x3dd5b122	0.10434176
13	0x3dbc6824	0.09199551
14	0x3dcd3f1e	0.10021804
15	0x3de5d38c	0.1122199

model.classifier.0.weight f4 [1, 16]
0	0x3f047cf2	0.5175315
1	0xbf17e94b	-0.5934035
2	0x3f28c17b	0.6592023
3	0x3f321e7f	0.69577783
4	0xbf052653	-0.52011603
5	0x3f114156	0.5674032
6	0x3f3815fe	0.7190856
7	0xbf15e542	-0.58552945
8	0xbf410bc5	-0.75408584
9	0xbf34d999	-0.7064453
10	0x3f0da92a	0.5533625
11	0x3f1ab612	0.6043407
12	0x3f44c453	0.76862067
13	0x3f26cfc6	0.6516079
14	0x3f22d1ed	0.6360157
15	0xbeeaa71e	-0.45830625
