eeg_online/lightning_logs/dreyer_source/version_4/checkpoints/epoch=99-step=9800.ckpt (torch, 67146 bytes, 50 tensors)

model.input_block.1.weight f4 [40, 1, 1, 25]
0.16826347 0.21811374 -0.11285811 -0.14742507 -0.117190726 -0.009995075 -0.07169276 0.10766706
-0.036523446 0.07246718 -0.008853097 0.025891181 -0.13153212 -0.090177156 -0.058810767 0.020231718
0.09302109 0.14546761 -0.092037156 -0.023822522 0.14992927 0.24071842 0.0016133717 0.123509645
-0.16476987 0.28330436 0.39956626 -0.020486282 -0.005677885 0.045571987 0.021789052 0.29846656
0.02961157 0.087235026 0.024459902 -0.081811026 -0.09445109 0.12416775 0.013602359 0.037947316
0.005806046 -0.02865035 0.1885351 0.036247797 0.12937908 0.19810016 0.4270186 0.39184475
0.12565513 0.10449297 0.35263744 0.32689434 0.1147982 0.0040078647 0.09421481 -0.1410499
0.046190944 -0.11362995 -0.07627941 -0.040636413 0.12974279 0.07852959 -0.16585355 -0.02178127
0.015606576 -0.10250382 -0.025030602 0.07645789 0.21848574 0.3321279 -0.004732792 0.03864717
0.1089798 0.08683721 -0.01811429 -0.106323324 -0.1931308 -0.33514243 -0.063572675 -0.13586721
-0.14955568 0.23510544 0.20877993 -0.15160331 0.0834138 0.025746405 0.049092323 0.007801852
0.1759803 -0.03966244 0.1251191 0.13684504 0.1809434 0.12740985 -0.12968977 -0.06025309
0.1402746 0.009616295 -0.30379456 -0.39530587 0.3128221 0.17894791 -0.093840644 -0.08250858
-0.2297304 -0.034182176 -0.16098918 -0.13869447 0.027986819 0.0821249 -0.030649664 0.15667793
-0.104292095 0.17624964 0.11255162 -0.2049486 -0.08802391 -0.020466324 0.017133994 0.054928802
0.10001309 0.03558223 -0.08624119 0.08020653 -0.24144928 0.12821208 0.21502574 0.15539978
0.14701496 4.2500098e-05 0.05467349 0.07189346 -0.15612596 -0.06661214 0.08173786 -0.07118391
-0.03365923 -0.05812873 -0.018428307 0.043479722 0.08909907 0.029614337 0.12011899 -0.036334474
-0.1440164 -0.0019676348 0.27758923 0.17244223 0.08525446 0.018502112 -0.20875917 -0.12527715
0.057095833 0.24011305 0.24455482 -0.07648297 0.20743088 -0.106672816 -0.011121505 -0.047719825
0.0152020315 0.041764714 -0.07883719 -0.069585554 0.051833354 0.05092609 -0.07618028 0.072252646
-0.18017136 0.0044092266 0.21727169 -0.018236166 0.2620476 0.16919008 -0.071311034 0.08902475
0.032857887 -0.040474508 0.12586519 -0.276185 -0.118536204 -0.12649678 0.15996562 0.1357722
0.172819 0.07121798 -0.13400228 -0.15575893 -0.23385172 0.1308517 0.24811088 0.22783007
-0.110681 -0.043984134 -0.22251283 -0.1516173 -0.062154125 0.2045516 0.017694218 0.07618502
-0.0049073044 0.116620146 -0.1570842 -0.13209559 -0.101064205 0.15897237 -0.059957746 0.16387662
0.045650154 -0.023565035 -0.07043932 -0.12711187 -0.080706045 -0.16410401 -0.12378019 -0.08611737
-0.24115737 -0.15176061 0.15342769 -0.14144456 0.01634307 0.21563716 0.059341382 -0.045011103
-0.25661924 -0.06137535 -0.30134666 -0.18916728 -0.16715978 -0.104365595 -0.06326282 0.09294488
-0.06349209 0.07760928 0.02528665 -0.19701737 0.055906244 -0.1459719 -0.078024745 0.056222353
0.040550563 0.09591312 -0.14912398 -0.11648332 -0.04669489 -0.37199238 -0.045020267 -0.32731384
-0.0782636 0.016959004 -0.14240122 -0.04528514 0.06446248 -0.17358802 -0.22531754 -0.15085678
00000000: 424d 2c3e 3559 5f3e 2722 e7bd 99f6 16be
00000010: b101 f0bd 62c2 23bc a7d3 92bd 8c80 dc3d
00000020: 9c99 15bd ac69 943d 950c 11bc be19 d43c
00000030: 5bb0 06be cdae b8bd 8fe3 70bd fdbc a53c
00000040: d781 be3d 76f5 143e fa7d bcbd 7327 c3bc
00000050: 0f87 193e e47e 763e c577 d33a a0f2 fc3d
00000060: 6fb9 28be 450d 913e f393 cc3e d9d2 a7bc
00000070: 8d0d babb b1a9 3a3d f47e b23c 9cd0 983e
00000080: f793 f23c 47a8 b23d 2260 c83c 8a8c a7bd
00000090: 936f c1bd a94b fe3d 6edc 5e3c a56e 1b3d
000000a0: a540 be3b 24b4 eabc 580f 413e 9278 143d
000000b0: f37b 043e c5da 4a3e 2fa2 da3e e09f c83e
000000c0: bdab 003e 6900 d63d e58c b43e b25e a73e
000000d0: 521b eb3d 6854 833b b2f3 c03d 636f 10be
000000e0: b732 3d3d d2b6 e8bd 6138 9cbd 5e72 26bd
000000f0: 4bdb 043e 1fd4 a03d 83d5 29be a26e b2bc
00000100: b9b2 7f3c 86ed d1bd fa0c cdbc f495 9c3d
00000110: baba 5f3e ab0c aa3e 8915 9bbb 7f4c 1e3d
00000120: cd30 df3d b5d7 b13d 6b64 94bc 0bc0 d9bd
00000130: 15c4 45be ca97 abbe 6432 82bd c620 0bbe
00000140: 2025 19be 7bbf 703e 68ca 553e e63d 1bbe
00000150: dbd4 aa3d 20ea d23c 0815 493d aea6 ff3b
00000160: 2e34 343e 1575 22bd 391f 003e 1b21 0c3e
00000170: 3a49 393e ba77 023e 65cd 04be f2cb 76bd
00000180: 25a4 0f3e aa8d 1d3c f68a 9bbe 8865 cabe
00000190: 382a a03e 1f3e 373e 862f c0bd 42fa a8bd
000001a0: 723e 6bbe 9c02 0cbd 59da 24be ec05 0ebe
000001b0: 9d44 e53c 1931 a83d 0115 fbbc 2e70 203e
000001c0: 1897 d5bd c97a 343e 7781 e63d 0cde 51be
000001d0: e145 b4bd fea8 a7bc 975c 8c3c 06fd 603d
000001e0: aad3 cc3d acbe 113d 399f b0bd 5243 a43d
000001f0: 7b3e 77be 074a 033e b52f 5c3e 1f21 1f3e
00000200: 178b 163e 2242 3238 4ff1 5f3d e13c 933d
00000210: 7cdf 1fbe f26b 88bd 2e66 a73d dfc8 91bd
00000220: 43de 09bd 6418 6ebd f6f6 96bc cb17 323d
00000230: 9379 b63d c499 f23c f200 f63d 75d3 14bd
00000240: 0979 13be 6ff3 00bb 2d20 8e3e b294 303e
00000250: e499 ae3d be91 973c f7c4 55be a748 00be
00000260: 52dd 693d 32e0 753e 946c 7a3e 1aa3 9cbd
00000270: c368 543e 4777 dabd f936 36bc dd75 43bd
00000280: f111 793c 7a11 2b3d 6575 a1bd df82 8ebd
00000290: 364f 543d e097 503d 6804 9cbd 32f9 933d
000002a0: d77e 38be 467b 903b 787c 5e3e 0364 95bc
000002b0: 1a2b 863e 2a40 2d3e 850b 92bd 9c52 b63d
000002c0: fe95 063d 99c8 25bd cee2 003e 1f68 8dbe
000002d0: 1cc3 f2bd 5f88 01be 07ce 233e de07 0b3e
000002e0: 77f7 303e bbda 913d e537 09be 457f 1fbe
000002f0: d376 6fbe fdfd 053e c710 7e3e 494c 693e
00000300: b8ac e2bd b528 34bd 67da 63be 9141 1bbe
00000310: 5395 7ebd fa75 513e 77f3 903c e406 9c3d
00000320: 74cd a0bb 8bd6 ee3d aeda 20be 1144 07be
00000330: c0fa cebd a7c9 223e 4196 75bd 46cf 273e
00000340: a8fb 3a3d 760b c1bc 7d42 90bd 9d29 02be
00000350: 3649 a5bd e20a 28be 7880 fdbd 4e5e b0bd
00000360: f5f1 76be 2267 1bbe 261c 1d3e d8d6 10be
00000370: e7e1 853c fdcf 5c3e f30f 733d 905d 38bd
00000380: 9963 83be b864 7bbd 1c4a 9abe 11b5 41be
00000390: ef2b 2bbe a1bd d5bd f08f 81bd e359 be3d
000003a0: 2408 82bd 9df1 9e3d f325 cf3c ecbe 49be
000003b0: f2fd 643d a879 15be 70cb 9fbd 6949 663d
000003c0: 5918 263d 196e c43d f5b3 18be cf8e eebd
000003d0: 2443 3fbd c975 bebe 2c67 38bd ae95 a7be
000003e0: ab48 a0bd 9ced 8a3c a0d1 11be e97c 39bd
000003f0: e804 843d 0fc1 31be a4b9 66be 337a 1abe

model.input_block.2.weight f4 [40]
0.9517223 1.162869 1.0642624 1.1457068 1.0024347 0.9106402 0.94562614 1.1133246
1.0399274 1.1347375 1.1320162 1.1554557 1.1067125 1.0355612 0.9269464 1.0333625
1.0253357 0.9395847 1.054621 1.0593231 0.9447421 1.0934246 1.1303567 0.82879883
1.0136416 0.961257 1.0911729 0.9173676 1.0655476 1.1329261 1.1316885 1.0098686
1.1734262 1.1453245 1.0782245 1.018178 0.913664 1.0082157 0.97964615 1.0847036
00000000: 13a4 733f e4d8 943f c039 883f 85a6 923f
00000010: c84f 803f b71f 693f 8e14 723f 6c81 8e3f
00000020: 571c 853f 143f 913f e8e5 903f f9e5 933f
00000030: c1a8 8d3f 458d 843f 5c4c 6d3f 3945 843f
00000040: 333e 833f 9f88 703f d2fd 863f e697 873f
00000050: 9eda 713f 56f5 8b3f 87af 903f 292c 543f
00000060: 02bf 813f f014 763f 8eab 8b3f 9ad8 6a3f
00000070: dd63 883f b903 913f 2bdb 903f 6043 813f
00000080: d432 963f fe99 923f 4303 8a3f a853 823f
00000090: e2e5 693f 360d 813f 17ca 7a3f 91d7 8a3f

model.input_block.2.bias f4 [40]
0.037948497 -0.055906028 0.015239144 0.022141833 -0.075209744 0.050224476 -0.06471975 0.0502942
-0.014997469 -0.10153544 0.033375397 -0.12021408 -0.034836333 -0.009173658 0.06703486 0.07725565
0.03641298 -0.04797339 0.08178267 0.04430243 0.0025255121 -0.074446455 0.06609315 0.025032425
-0.04657534 -0.020927148 0.027336542 0.0082223555 0.025566632 -0.01798091 0.011262881 0.06531875
-0.09434841 0.074349776 0.04950277 0.0028741867 0.060022693 0.1175866 -0.07016863 0.034529924
00000000: e26f 1b3d b8fd 64bd 9aad 793c ca62 b53c
00000010: 9107 9abd 2eb8 4d3d ca8b 84bd 4b01 4e3d
00000020: f2b7 75bc d0f1 cfbd a4b4 083d cd32 f6bd
00000030: 8bb0 0ebd 1c4d 16bc 9349 893d 3638 9e3d
00000040: c725 153d bf7f 44bd ac7d a73d 7776 353d
00000050: 1083 253b 6277 98bd d85b 873d cd10 cd3c
00000060: c9c5 3ebd 696f abbc e2f0 df3c 0fb7 063c
00000070: 1d71 d13c b44c 93bc f287 383c d6c5 853d
00000080: bd39 c1bd b244 983d 6bc3 4a3d da5c 3c3b
00000090: 5bda 753d 3ed1 f03d 92b4 8fbd 406f 0d3d

model.input_block.2.running_mean f4 [40]
1.5750316e-10 5.065594e-09 3.3829444e-09 -7.853137e-10 3.7936282e-10 2.579601e-09 2.4626443e-10 -1.5108938e-10
-2.2966051e-09 -4.547081e-09 -1.3633449e-09 -2.024584e-09 -3.1840386e-10 4.138982e-09 -3.2379155e-09 -5.3364336e-12
-1.2572723e-09 -9.768899e-10 3.306916e-09 -8.6943147e-10 4.964754e-10 2.429294e-09 -1.3986148e-09 2.3024138e-09
-1.5967873e-09 -1.6818408e-09 1.5793762e-09 -4.6438076e-10 -6.476078e-10 3.3627316e-09 -9.357838e-10 3.1565779e-09
3.791034e-09 3.1087661e-09 -3.0825904e-09 7.591672e-10 6.613913e-10 -1.7571211e-09 -2.3782658e-09 4.593948e-10
00000000: 332d 2d2f 700d ae31 6379 6831 8add 57b0
00000010: 928e d02f d244 3131 a362 872f e11f 26af
00000020: 4ed2 1db1 8c3c 9cb1 6f60 bbb0 dc20 0bb1
00000030: 5c0b afaf df36 8e31 0382 5eb1 52c2 bbac
00000040: 56cc acb0 4243 86b0 e23f 6331 cdfc 6eb0
00000050: 5a78 0830 98f0 2631 6239 c0b0 7e38 1e31
00000060: f575 dbb0 8326 e7b0 5c11 d930 c84b ffaf
00000070: 5903 32b0 cd15 6731 f79c 80b0 1beb 5831
00000080: 4a42 8231 fea1 5531 81d5 53b1 a4ad 5030
00000090: 46cd 3530 347f f1b0 e56e 23b1 128e fc2f

model.input_block.2.running_var f4 [40]
1.5963873e-11 7.2517145e-11 4.4512807e-11 7.838417e-11 1.9381061e-11 2.5631318e-11 1.7697852e-11 1.8446335e-11
2.4916798e-11 4.1158965e-11 6.5519555e-11 3.8115296e-11 2.5482411e-11 2.2413918e-11 4.109277e-11 2.812653e-11
2.4055345e-11 3.0956786e-11 4.4158077e-11 4.9576183e-11 1.6188433e-11 5.339758e-11 6.549851e-11 1.3798918e-11
2.6418093e-11 1.44611155e-11 3.4582674e-11 9.225242e-12 3.4689935e-11 5.466627e-11 2.3509679e-11 3.288765e-11
6.317013e-11 7.7458706e-11 4.783808e-11 2.2780916e-11 3.4399743e-11 3.896088e-11 2.8561984e-11 2.8136622e-11
00000000: 726b 8c2d 8677 9f2e f7c4 432e 5d5e ac2e
00000010: 457a aa2d 9974 e12d 05ac 9b2d 7441 a22d
00000020: a42b db2d e004 352e 3b14 902e 02a2 272e
00000030: 4a25 e02d a827 c52d 59ba 342e 5167 f72d
00000040: d297 d32d 3e26 082e 9335 422e d209 5a2e
00000050: 1c65 8e2d 55d8 6a2e 6208 902e cdc0 722d
00000060: 4260 e82d 1367 7e2d a118 182e cc4a 222d
00000070: 6591 182e c06c 702e 17cb ce2d 34a4 102e
00000080: 9fe9 8a2e 6055 aa2e e464 522e 1062 c82d
00000090: ab4a 172e 0d5a 2b2e df3b fb2d 0a7e f72d

model.input_block.3.weight f4 [40, 1, 27, 1]
0.023687556 -0.13481635 0.016972931 -0.13437618 -0.009473836 0.05818013 -0.26735175 0.038162645
-0.033256266 -0.017709343 0.07938629 0.07914033 0.14792907 -0.061501093 0.028558843 0.11134046
0.19202657 0.096021354 -0.15604624 0.08280568 0.13209887 -0.11617496 0.047098607 0.00065489067
-0.1513086 -0.098861285 -0.2082841 0.118110485 0.01947009 0.23218022 0.16319425 -0.004700047
-0.09559854 -0.2442071 0.022504505 -0.016274478 -0.32383466 0.0138764065 -0.09627462 0.1814497
-0.053839512 0.18315996 -0.1384615 -0.12814927 0.09076788 0.054962974 0.0552028 0.02823836
-0.19150484 0.10070321 -0.06288327 -0.159876 0.106832474 0.17205384 -0.20977709 -0.18800797
-0.011677575 -0.074938186 0.0036831885 0.03774832 0.18926515 0.1861951 0.05505937 0.3966809
-0.092150435 -0.111557454 -0.078674026 -0.131397 0.10800039 0.15066545 0.029036751 -0.08381853
-0.06868355 -0.016008748 0.23599784 -0.08283491 -0.106242694 -0.07805485 0.2137127 -0.10777507
-0.15867092 -0.08243479 0.14257297 0.030227197 0.041460443 0.03298205 0.18183711 0.13439533
-0.06275597 -0.24130313 -0.29870003 0.14337303 0.052796356 0.14593045 -0.06007549 0.04691699
-0.068612084 -0.19433194 0.06993632 0.226756 -0.18037932 -0.0029798623 0.062942356 0.0652366
-0.07364564 0.16115187 -0.09938972 -0.124652475 0.17168364 0.14356127 0.074572586 -0.11054761
-0.08700166 0.09167288 -0.18184102 -0.2611628 0.11818994 -0.15982191 0.011157047 0.09810761
0.122903705 -0.12462519 -0.033629168 0.111973435 -0.16523242 -0.14220612 -0.17568892 0.03265045
0.27405757 0.052910645 0.014209179 0.116074026 -0.033032663 0.19808902 -0.16414037 -0.13719957
0.04535633 0.013798688 0.19018942 -0.07840219 0.018652732 0.045172717 -0.07829672 -0.16057763
0.034482077 -0.09058279 -0.03137368 -0.27024835 -0.05516094 -0.21188797 0.28102627 -0.017581258
-0.03478711 0.15497762 0.20854928 -0.15167378 -0.0453651 0.10395073 -0.0046929554 0.09829957
-0.1068079 -0.1479674 -0.0170774 0.14001028 0.10559496 -0.19264762 -0.003562914 0.028684868
-0.0298466 -0.062373653 -0.02451997 0.10804522 -0.089317426 -0.066182405 0.006493117 0.07543569
0.15152545 -0.030546505 -0.08141515 -0.0882186 -0.07565166 -0.022651285 0.14500022 -0.0884687
-0.09214372 -0.14121693 -0.026037883 0.14759746 0.3903621 -0.051453944 0.09070506 0.21712777
0.15194337 0.20318994 -0.020458406 -0.3275145 0.40943745 -0.09822634 0.011472044 -0.012789092
-0.08055391 0.14196075 0.17930871 -0.12652123 -0.20625684 -0.14198679 -0.00987414 0.13410166
0.0129378345 -0.035993505 -0.03266376 0.03554594 0.070059516 -0.22065666 -0.19600192 -0.1461572
-0.020869358 0.06008161 -0.1189632 0.03832259 0.19126585 0.09109783 0.03348155 -0.09185712
-0.072677575 -0.025436064 -0.18232474 0.038371567 0.07902892 -0.20189835 0.113857016 0.2432935
-0.14745705 -0.1334046 0.21418802 -0.25204924 0.09748212 -0.06464894 0.162826 -0.10009969
-0.20838432 0.04465985 0.078651056 -0.20820354 -0.23788561 -0.2885053 -0.19506712 -0.14973852
0.22745048 0.15818253 0.007782093 0.27526438 0.34697217 -0.028165612 0.06890463 0.046811134
00000000: 680c c23c 4c0d 0abe d10a 8b3c e999 09be
00000010: 2638 1bbc 4a4e 6e3d 54e2 88be 6f50 1c3d
00000020: b937 08bd 2f13 91bc 4795 a23d 5314 a23d
00000030: b87a 173e 92e8 7bbd 3cf4 e93c 7806 e43d
00000040: 9da2 443e d8a6 c43d 96ca 1fbe 0696 a93d
00000050: ed44 073e 23ed edbd 78ea 403d f8ac 2b3a
00000060: a4f0 1abe c977 cabd 6d48 55be e9e3 f13d
00000070: bd7f 9f3c a7c0 6d3e 651c 273e da02 9abb
00000080: 2bc9 c3bd 6d11 7abe 5e5b b83c 0e52 85bc
00000090: a8cd a5be de59 633c a12b c5bd f3cd 393e
000000a0: d286 5cbd 498e 3b3e dac8 0dbe 9039 03be
000000b0: 83e4 b93d db20 613d 551c 623d 2254 e73c
000000c0: d819 44be 7c3d ce3d f2c8 80bd 89b6 23be
000000d0: fcca da3d e22e 303e cecf 56be 2985 40be
000000e0: 4d53 3fbc 3179 99bd a661 713b fb9d 1a3d
000000f0: b9ce 413e eea9 3e3e ef85 613d c219 cb3e
00000100: 5eb9 bcbd 3c78 e4bd d91f a1bd ef8c 06be
00000110: 4f2f dd3d 0b48 1a3e 7bde ed3c 0da9 abbd
00000120: f6a9 8cbd c724 83bc 6ba9 713e 59a5 a9bd
00000130: c595 d9bd 39db 9fbd 81d7 5a3e 2db9 dcbd
00000140: a17a 22be 92d3 a8bd a6fe 113e 079f f73c
00000150: 6dd2 293d 3018 073d 8233 3a3e ee9e 093e
00000160: 3486 80bd 2b18 77be 36ef 98be 61d0 123e
00000170: fe40 583d cb6e 153e b811 76bd 082c 403d
00000180: 7e84 8cbd f4fe 46be c63a 8f3d ba32 683e
00000190: 5bb5 38be cb49 43bb ece7 803d c49a 853d
000001a0: 86d3 96bd ff04 253e d68c cbbd cc49 ffbd
000001b0: d6cd 2f3e ba01 133e 83b9 983d c966 e2bd
000001c0: ed2d b2bd febe bb3d 8834 3abe 21b7 85be
000001d0: 910d f23d 5ba8 23be 0ccc 363c a5ec c83d
000001e0: f0b4 fb3d 7e3b ffbd bdbe 09bd 5452 e53d
000001f0: b032 29be 7b9e 11be cce7 33be 7abc 053d
00000200: 4651 8c3e d5b8 583d 9ecd 683c 38b8 ed3d
00000210: 424d 07bd d9d7 4a3e 6a14 28be 0b7e 0cbe
00000220: 8fc7 393d e413 623c 04c1 423e 5491 a0bd
00000230: 9dcd 983c 0707 393d 085a a0bd 766e 24be
00000240: 143d 0d3d 7883 b9bd b081 00bd fe5d 8abe
00000250: 70f0 61bd 29f9 58be ade2 8f3e 9206 90bc
00000260: ee7c 0ebd 74b2 1e3e f18d 553e 5f50 1bbe
00000270: c1d0 39bd 1fe4 d43d 5dc7 99bb 4951 c93d
00000280: 1abe dabd c484 17be e7e5 8bbc db5e 0f3e
00000290: 2c42 d83d 6b45 45be c77f 69bb 87fc ea3c
000002a0: db80 f4bc 847b 7fbd 1bde c8bc d046 dd3d
000002b0: 0eec b6bd a48a 87bd 37c4 d43b 077e 9a3d
000002c0: 7d29 1b3e aa3c fabc fcbc a6bd f4ab b4bd
000002d0: 42ef 9abd 308f b9bc f07a 143e 142f b5bd
000002e0: d9b5 bcbd 2c9b 10be 664d d5bc ca23 173e
000002f0: 8bdd c73e 5fc1 52bd 93c3 b93d be56 5e3e
00000300: 0b97 1b3e 0611 503e 6398 a7bc fbaf a7be
00000310: c9a1 d13e e42a c9bd 3df5 3b3c 5789 51bc
00000320: 73f9 a4bd 295e 113e b49c 373e c88e 01be
00000330: fe34 53be fc64 11be 25c7 21bc f251 093e
00000340: 36f9 533c ed6d 13bd 6fca 05bd 9f98 113d
00000350: 5d7b 8f3d d2f3 61be bab4 48be 3caa 15be
00000360: 37f6 aabc 2218 763d faa2 f3bd 26f8 1c3d
00000370: 32db 433e 8091 ba3d f323 093d 961f bcbd
00000380: fbd7 94bd 4b5f d0bc 56b3 3abe 812b 1d3d
00000390: ead9 a13d 71be 4ebe de2d e93d ee21 793e
000003a0: fbfe 16be 379b 08be 1b54 5b3e 990c 81be
000003b0: b5a4 c73d aa66 84bd dcbb 263e 1101 cdbd
000003c0: b362 55be 3fed 363d ce13 a13d 4f33 55be
000003d0: 4998 73be f7b6 93be adbf 47be 0e55 19be
000003e0: c7e8 683e 9afa 213e ed00 ff3b 74ef 8c3e
000003f0: 56a6 b13e 92bb e6bc df1d 8d3d 08bd 3f3d

model.input_block.4.weight f4 [40]
0.9513343 1.1596024 1.0635171 1.143827 0.9995101 0.91306496 0.9446706 1.1237998
1.0387775 1.131211 1.1279153 1.1546277 1.1048961 1.0347642 0.92575216 1.030519
1.0241436 0.93908143 1.0518392 1.0550747 0.9432417 1.0899347 1.1291318 0.8298018
1.011098 0.96023816 1.0895773 0.91620535 1.064413 1.1325793 1.131338 1.0079077
1.1713668 1.1435695 1.0761046 1.0174961 0.91335696 1.0046462 0.97776914 1.0825279
00000000: a58a 733f da6d 943f 5421 883f ec68 923f
00000010: e5df 7f3f a0be 693f efd5 713f acd8 8f3f
00000020: a9f6 843f 86cb 903f 875f 903f d7ca 933f
00000030: 3c6d 8d3f 2773 843f 18fe 6c3f 0ce8 833f
00000040: 2317 833f a467 703f aba2 863f b00c 873f
00000050: 4a78 713f fb82 8b3f 6487 903f e46d 543f
00000060: a96b 813f 2bd2 753f 4577 8b3f 6f8c 6a3f
00000070: af3e 883f 5cf8 903f afcf 903f 1f03 813f
00000080: 59ef 953f 7c60 923f ccbd 893f 503d 823f
00000090: c3d1 693f 3f98 803f 144f 7a3f 4690 8a3f

model.input_block.4.bias f4 [40]
0.0073940214 -0.020492505 -0.020174602 -0.025947902 -0.020460417 0.0013060928 -0.007094584 -0.011563593
-0.014001605 -0.013375225 -0.03675173 -0.019791814 0.002780792 0.0074458793 -0.013093431 -0.044849887
0.0005098067 -0.013733417 -0.007962217 -0.005954303 -0.0005092384 0.0026323658 -0.007492484 -0.0031064532
-0.0056457696 0.008639705 -0.0042750565 -0.019698907 -0.00051369506 -0.0300487 -0.008649277 0.018910807
-0.022061301 -0.015238201 0.003425276 -0.016908465 -0.018406512 -0.009829148 -0.0007896137 -0.017149692
00000000: 8c49 f23b e6df a7bc 3545 a5bc b290 d4bc
00000010: 9b9c a7bc 3431 ab3a af79 e8bb 3975 3dbc
00000020: fd66 65bc c223 5bbc fb88 16bd 7122 a2bc
00000030: f33d 363b 90fc f33b d485 56bc 84b4 37bd
00000040: 8ca4 053a 2002 61bc f573 02bc 501c c3bb
00000050: 697e 05ba c583 2c3b 8383 f5bb a395 4bbb
00000060: 2600 b9bb 8d8d 0d3c c615 8cbb 9a5f a1bc
00000070: 7ea9 06ba b128 f6bc b2b5 0dbc d6ea 9a3c
00000080: e7b9 b4bc a6a9 79bc 987a 603b 9f83 8abc
00000090: 41c9 96bc 6f0a 21bc 14fe 4eba 837d 8cbc

model.input_block.4.running_mean f4 [40]
-0.009680652 -0.0015166805 8.8406516e-05 0.0010903297 0.00053626084 -0.021502024 -0.010798045 -0.0024794354
0.0019999463 -0.004354081 -0.00093540613 0.006205958 0.0021753958 -0.0010039454 -0.004316191 -0.003003305
0.000561836 -0.0022277522 0.005538803 0.0031442018 -0.00047910213 -0.0008936692 0.0043328716 -0.01122794
-0.0037157529 0.00078752206 0.0005445251 0.0028372833 -0.003940438 -0.0017265627 0.0007090631 -0.002338545
-0.002236012 0.0053983405 -7.086724e-05 -0.00041809498 -0.011293967 -0.010952184 -0.0055759763 0.008418124
00000000: 999b 1ebc 5acb c6ba e366 b938 65e9 8e3a
00000010: db93 0c3a 0325 b0bc 49ea 30bc 067e 22bb
00000020: 8811 033b aeac 8ebb 0b36 75ba 595b cb3b
00000030: 1691 0e3b d196 83ba d66e 8dbb 19d3 44bb
00000040: 2d48 133a 7bff 11bb d97e b53b f40e 4e3b
00000050: 0030 fbb9 2045 6aba c3fa 8d3b 65f5 37bc
00000060: fd83 73bb b671 4e3a 76be 0e3a b7f1 393b
00000070: ca1e 81bb d54d e2ba 6be0 393a 4642 19bb
00000080: 0e8a 12bb 90e4 b03b 8f9e 94b8 c233 dbb9
00000090: 550a 39bc ca70 33bc aeb6 b6bb 2cec 093c

model.input_block.4.running_var f4 [40]
4.0979208e-07 6.169126e-07 4.7368843e-07 6.266496e-07 7.297789e-07 4.821828e-07 1.7857269e-07 4.8523236e-07
3.5017098e-07 6.626319e-07 5.932866e-07 3.1529214e-07 4.2985153e-07 4.3119132e-07 3.886794e-07 3.5083585e-07
3.174094e-07 4.117728e-07 3.1117816e-07 5.8167313e-07 1.9800092e-07 3.7049122e-07 3.9417077e-07 2.8832028e-07
1.94845e-07 2.597779e-07 2.913205e-07 1.8459852e-07 4.979171e-07 6.6965845e-07 7.082471e-07 3.9483604e-07
5.573658e-07 6.1377546e-07 3.2886473e-07 7.278736e-07 4.0623382e-07 5.5596365e-07 3.5008563e-07 5.6225844e-07
00000000: 6501 dc34 e999 2535 3e4f fe34 0837 2835
00000010: 06e6 4335 5a6f 0135 b0bd 3f34 ea40 0235
00000020: 22ff bb34 b8df 3135 5842 1f35 6c45 a934
00000030: 58c6 e634 7c7e e734 b1ab d034 835a bc34
00000040: 6a68 aa34 9f11 dd34 0010 a734 4624 1c35
00000050: 149a 5434 ede7 c634 6b9e d334 70ca 9a34
00000060: 9636 5134 9a77 8b34 c966 9c34 0e36 4634
00000070: 9aa8 0535 94c2 3335 5f1e 3e35 daf9 d334
00000080: e39d 1535 54c2 2435 d38e b034 1863 4335
00000090: 5a18 da34 883d 1535 67f3 bb34 1bee 1635

model.channel_expansion.0.weight f4 [16, 40, 1, 1]
0.10551055 -0.06602151 0.04695993 0.30166852 -0.065951236 -0.0025550916 0.06625283 0.27410713
-0.06927873 -0.12356599 -0.27701676 0.042311415 0.05744287 -0.20409176 0.011110821 0.07209229
0.12484221 0.02073652 -0.028807968 0.14030544 -0.11416996 0.086445354 -0.12886639 -0.023334626
0.18393575 0.12889618 -0.011146444 -0.12991977 0.0242604 0.09243226 0.063552566 -0.05556558
0.13141142 0.11293523 -0.068866506 0.027119232 -0.10207785 -0.037835255 0.12418114 0.1278311
0.079594545 -0.09134792 0.012779818 -0.014882652 -0.20789894 0.059349474 0.1642729 0.13796645
-0.002396272 -0.13314548 -0.051593646 0.06924791 -0.11125556 0.035450302 -0.11068949 0.03280632
0.0503073 -0.13909107 0.032688614 0.051825337 -0.10359631 0.015721068 -0.14278087 -0.12593903
-0.04269526 0.009500821 0.18459842 -0.13990656 -0.27559358 0.04000337 0.21031967 -0.052792888
0.07930981 -0.060452774 -0.0236797 -0.14350066 0.105093755 -0.17926785 -0.03573653 0.037546303
-0.06379194 0.12673686 -0.013502331 0.11029249 -0.18662012 -0.076777734 0.09396423 -0.017950654
-0.11023853 0.070024796 -0.065507874 0.12936375 0.081207305 -0.09633259 -0.1251771 0.27068174
0.21923605 0.12849173 0.020477617 -0.008730358 -0.061822746 -0.10288235 -0.1263287 -0.16511059
-0.05187905 0.06456057 0.16038454 0.021852395 0.0728843 0.022434909 -0.11389191 0.015557035
-0.1047252 -0.11640971 0.116544604 -0.19794078 -0.091572344 -0.04197475 -0.005233547 0.024001624
-0.026847789 -0.22077814 0.12878212 -0.17779005 -0.046933766 0.028385375 -0.09532121 -0.00044113744
0.09213914 -0.19180116 0.08502737 -0.27289864 0.17904483 -0.07006391 0.18815923 0.05069408
0.105677664 -0.10001485 0.07447539 -0.16825278 -0.0062916144 0.11537658 0.22561945 -0.0011679404
-0.01334423 -0.122196436 0.19684343 0.016810961 0.083878286 0.06328342 -0.07213355 -0.013287258
0.14852314 -0.09880384 -0.08064577 0.06027398 0.061591372 0.11641793 0.14288941 -0.041496288
0.04010434 0.04737009 -0.12721269 -0.11557488 -0.03504464 0.24487373 -0.21351701 0.013502161
-0.059343375 0.1654452 0.1954193 0.06332372 0.05449069 -0.09371237 -0.062269934 0.024182232
-0.0018638124 -0.07724131 -0.28101775 0.037415173 0.15187927 -0.15966329 0.068916306 -0.038485643
-0.039298568 -0.059312098 0.08160298 0.047656946 0.019249517 -0.2482515 0.029625159 0.02980885
-0.028263673 -0.1342852 -0.0004983302 0.0041620866 0.029865254 -0.11610986 0.06662373 -0.035090998
-0.067598335 0.14544211 -0.0014654561 -0.22316007 0.057311215 0.024091976 -0.04373603 -0.009168308
0.06858736 0.1528834 0.12183434 -0.13401994 0.07225152 0.070208155 0.028052012 0.051775195
0.09161699 0.059962172 0.12816817 -0.16036467 0.10686928 -0.3046088 0.13965988 0.033157278
-0.102328196 -0.16705586 0.10376674 0.24776196 0.0961166 -0.11575639 -0.08181445 -0.092838645
-0.14797045 -0.06766485 0.067953035 -0.04001524 0.022042474 0.09030683 -0.062331486 -0.044081256
-0.13537452 -0.098351374 0.020299548 -0.045296088 -0.05018944 -0.0037455973 0.09494369 0.46244785
0.043438103 -0.004948542 0.109970964 -0.21774837 0.11176077 0.08154106 -0.0044095605 -0.017003452
00000000: ea15 d83d 4936 87bd 0e59 403d 4c74 9a3e
00000010: 7111 87bd 5373 27bb 90af 873d c557 8c3e
00000020: 02e2 8dbd 2a10 fdbd 24d5 8dbe bc4e 2d3d
00000030: 3749 6b3d 6efd 50be 290a 363c 1fa5 933d
00000040: 46ad ff3d a2df a93c b0fe ebbc 3bac 0f3e
00000050: f1d1 e9bd 430a b13d 8df5 03be 4228 bfbc
00000060: a759 3c3e 5cfd 033e 939f 36bc b009 05be
00000070: bfbd c63c 204d bd3d d927 823d bc98 63bd
00000080: b790 063e 964a e73d e209 8dbd 2729 de3c
00000090: 310e d1bd 24f9 1abd ae52 fe3d 28e6 023e
000000a0: 7702 a33d 9e14 bbbd 7162 513c 5ed6 73bc
000000b0: 76e3 54be 6f18 733d 2837 283e 1447 0d3e
000000c0: c60a 1dbb 4a57 08be dc53 53bd d9d1 8d3d
000000d0: f4d9 e3bd 5634 113d 2cb1 e2bd eb5f 063d
000000e0: 070f 4e3d e46d 0ebe 7fe4 053d ce46 543d
000000f0: 4d2a d4bd 78c9 803c 2635 12be 29f6 00be
00000100: 3ae1 2ebd 55a9 1b3c 5e07 3d3e aa43 0fbe
00000110: 9a1a 8dbe 93da 233d 0a5e 573e 5b3d 58bd
00000120: 2f6d a23d 549d 77bd eefb c1bc d6f1 12be
00000130: 653b d73d fe91 37be 7860 12bd 27ca 193d
00000140: 59a5 82bd 4fc7 013e e238 5dbc 07e1 e13d
00000150: 5819 3fbe a53d 9dbd 5170 c03d 400d 93bc
00000160: bdc4 e1bd 2969 8f3d fe28 86bd ee77 043e
00000170: 0450 a63d 054a c5bd 6d2e 00be cc96 8a3e
00000180: 6a7f 603e 5693 033e adc0 a73c c709 0fbc
00000190: d939 7dbd fbb3 d2bd 505c 01be c012 29be
000001a0: 207f 54bd 5538 843d d83b 243e cb03 b33c
000001b0: 5d44 953d 6ac9 b73c 2940 e9bd efe2 7e3c
000001c0: 2a7a d6bd 3768 eebd f0ae ee3d fdb0 4abe
000001d0: 488a bbbd b7ed 2bbd 2d7e abbb 0e9f c43c
000001e0: e5ef dbbc aa13 62be 76df 033e 980e 36be
000001f0: 9f3d 40bd 7288 e83c c437 c3bd 7748 e7b9
00000200: 72b3 bc3d 8667 44be d422 ae3d 5fb9 8bbe
00000210: 8757 373e ab7d 8fbd d0ac 403e 98a4 4f3d
00000220: 886d d83d 96d4 ccbd 8e86 983d 754a 2cbe
00000230: e329 cebb 8e4a ec3d c908 673e 9415 99ba
00000240: c2a1 5abc 2042 fabd 5391 493e 24b7 893c
00000250: 61c8 ab3d bd9a 813d c1ba 93bd cdb2 59bc
00000260: 7316 183e ab59 cabd 9c29 a5bd d9e1 763d
00000270: 3c47 7c3d 866c ee3d 9a51 123e 03f8 29bd
00000280: 7344 243d 2407 423d 0b44 02be 86b2 ecbd
00000290: f88a 0fbd 2ec0 7a3e 34a4 5abe 2b38 5d3c
000002a0: 0a12 73bd 776a 293e ff1b 483e deaf 813d
000002b0: a131 5f3d 45ec bfbd c20e 7fbd d119 c63c
000002c0: 2b4b f4ba b130 9ebd 8fe1 8fbe a740 193d
000002d0: 3d86 1b3e c67e 23be fe23 8d3d 1fa3 1dbd
000002e0: 89f7 20bd 3ef1 72bd 771f a73d ee33 433d
000002f0: 2ab1 9d3c a435 7ebe 76b0 f23c b031 f43c
00000300: 3889 e7bc 0f82 09be 60a2 02ba 1d62 883b
00000310: faa7 f43c 02cb edbd 0672 883d 94bb 0fbd
00000320: ff70 8abd c7ee 143e 8c14 c0ba 1384 64be
00000330: 2abf 6a3d 895c c53c 8d24 33bd ac36 16bc
00000340: 8877 8c3d 778d 1c3e 4884 f93d 863c 09be
00000350: 9bf8 933d 4bc9 8f3d 55cd e53c 3a12 543d
00000360: b0a1 bb3d e59a 753d 843e 033e a336 24be
00000370: 48de da3d aff5 9bbe 0003 0f3e edcf 073d
00000380: 7291 d1bd b110 2bbe a883 d43d 50b5 7d3e
00000390: c8d8 c43d b011 edbd 568e a7bd 3022 bebd
000003a0: 9185 17be de93 8abd f62a 8b3d 05e7 23bd
000003b0: 6b92 b43c caf2 b83d 4d4f 7fbd 8c8e 34bd
000003c0: 9e9f 0abe 726c c9bd 3d4b a63c 6488 39bd
000003d0: 7193 4dbd b278 75bb d671 c23d f7c5 ec3e
000003e0: 27ec 313d 6127 a2bb 7538 e13d 6ef9 5ebe
000003f0: d5e2 e43d 00ff a63d 137e 90bb d34a 8bbc

model.channel_expansion.1.weight f4 [16]
1.0391437 0.8648331 1.1435112 1.1316224 1.0995976 1.0054563 0.9455583 0.85945284
1.1872098 1.0705829 1.0188842 1.132987 1.1360964 0.8011179 1.0315915 1.1325909
00000000: a902 853f b465 5d3f 935e 923f 01d9 903f
00000010: 9dbf 8c3f cbb2 803f 1c10 723f 1a05 5c3f
00000020: 7ef6 973f dc08 893f cc6a 823f b805 913f
00000030: 9b6b 913f 1016 4d3f 310b 843f bdf8 903f

model.channel_expansion.1.bias f4 [16]
-0.41267473 -0.28083923 -0.57307714 -0.23005158 -0.37831074 0.26832807 0.28813878 -0.095844395
-0.370367 -0.20638755 -0.13089657 -0.36664534 -0.37985292 0.065527886 0.007280666 -0.33416122
00000000: 1a4a d3be 29ca 8fbe 2fb5 12bf a492 6bbe
00000010: f2b1 c1be 4c62 893e ed86 933e 114a c4bd
00000020: bea0 bdbe 4257 53be c009 06be f0b8 bbbe
00000030: 157c c2be 7c33 863d a792 ee3b 2e17 abbe

model.channel_expansion.1.running_mean f4 [16]
0.0033971288 -0.000971644 -0.00784005 -0.0017000998 0.0029085518 -0.009064188 -0.008288329 -0.009242681
0.0020765087 -0.0038243618 0.0012928554 0.0070049795 -0.012729027 -0.0038376495 -0.0052456427 -0.014321186
00000000: 5da2 5e3b edb5 7eba 8e73 00bc e2d5 deba
00000010: 679d 3e3b f681 14bc c5cb 07bc 9d6e 17bc
00000020: 0916 083b 25a2 7abb 0775 a93a 078a e53b
00000030: 698d 50bc 1381 7bbb a4e3 abbb 68a3 6abc

model.channel_expansion.1.running_var f4 [16]
0.04925668 0.028736318 0.027475514 0.065370016 0.043564457 0.05209542 0.03261903 0.03771206
0.05601709 0.025371678 0.037601735 0.058482237 0.053883377 0.028165035 0.039948717 0.03477401
00000000: 5fc1 493d 6d68 eb3c 5414 e13c b7e0 853d
00000010: a570 323d 0262 553d 889b 053d f677 1a3d
00000020: 2d72 653d 44d8 cf3c 4704 1a3d 128b 6f3d
00000030: d1b4 5c3d 5cba e63c 44a1 233d 316f 0e3d

model.fe.0.weight f4 [16, 1, 1, 15]
-0.25825873 -0.030423727 -0.22256446 -0.056987423 -0.07348953 -0.16958381 -0.20361169 -0.17486206
-0.2336345 -0.029133918 -0.14680983 -0.21299165 0.04756711 -0.1520272 -0.1197084 -0.20338596
-0.13050337 -0.14824173 0.045699786 -0.0013755428 0.082541585 -0.14220063 -0.025927156 -0.1280169
0.09028496 -0.058235683 -0.033991676 0.027528564 0.12963903 0.008368303 -0.23207793 -0.18467009
-0.2761894 -0.16914739 -0.2210045 -0.071097955 -0.19595018 -0.08067967 -0.20760721 -0.07572051
-0.13982004 -0.18919842 -0.1034287 -0.19582334 -0.117797606 0.14980623 0.30213714 0.27868882
0.17556702 0.1343961 0.06852069 0.14904785 0.017410906 0.14021026 0.06755724 0.193363
0.177437 0.24314474 0.10942723 0.2170907 -0.2496484 -0.080391735 -0.21084814 -0.16151647
-0.09789424 -0.22766644 -0.14676665 -0.017756904 -0.13218656 -0.11060299 -0.007456059 -0.06971725
-0.17361145 -0.13783474 -0.16588886 0.13549969 0.07393576 0.029910928 0.20942755 -0.23967011
0.29776677 -0.13635723 0.16743754 -0.10624678 0.24928904 -0.1971242 0.24945402 -0.15981361
0.108683944 -0.031621404 -0.03159443 0.18392125 -0.14222102 0.20867252 -0.15002836 0.1815713
-0.3355846 0.19134773 -0.2172771 0.23841842 -0.2272889 0.26046 -0.10362884 0.091137
-0.06921442 0.02189162 0.015301754 0.010506504 -0.013310511 0.15021461 0.060684673 -0.041315805
0.2658754 0.15968868 0.14631061 0.06412978 0.15732014 0.054208357 0.12467535 0.022613937
-0.18805408 -0.26191962 -0.32068524 -0.17875874 -0.19511168 -0.16911538 -0.25978026 -0.010912239
-0.16684861 -0.097443365 -0.21238111 -0.13812555 -0.20689757 -0.14903635 -0.17462045 -0.09497529
-0.055344913 -0.22673868 -0.018397296 -0.042716388 -0.06997594 0.050271805 -0.17289773 -0.017242525
0.012627194 -0.18269013 0.006892055 -0.11791254 -0.22577226 -0.13479905 -0.15845905 -0.052985057
-0.08314674 -0.031466953 -0.07552743 -0.072170265 0.08050363 -0.115497835 0.12626679 -0.18262762
0.10483974 -0.15505788 0.067277744 -0.05618625 0.09032499 0.3974819 0.19132291 0.3199052
0.2267825 0.084751345 0.16958812 0.16096188 0.09295909 0.22940972 0.09529938 0.16451731
0.13759196 0.037078895 0.13659835 0.1615487 0.3507487 0.15526745 0.2587753 0.25532696
0.14219028 0.058016695 0.14285998 -0.12488366 0.12068781 -0.021808079 0.060912784 -0.0710562
0.12974094 -0.11877955 0.14988108 0.19361573 -0.2728036 0.23039208 -0.23864573 -0.014230597
0.12096163 -0.16706724 0.19305925 -0.14573959 0.023793746 -0.15916239 -0.048732158 0.09627886
0.08240126 -0.0524074 0.19965625 -0.32318217 0.1847698 -0.23348276 0.17033635 -0.26055714
0.23581122 -0.13393414 0.17631072 -0.1018908 0.01974369 0.13396958 -0.1210144 0.025096413
-0.054340288 0.14718203 0.27271268 0.23679858 0.12837087 0.109437816 0.14078756 0.07771896
0.19365944 0.047529884 0.163611 0.16371591 0.12832941 -0.05340511 0.11426718 -0.049093187
00000000: 7d3a 84be 2e3b f9bc f0e7 63be a56b 69bd
00000010: ae81 96bd 61a7 2dbe 957f 50be 0a0f 33be
00000020: e23d 6fbe 41aa eebc 5155 16be 7c1a 5abe
00000030: bbd5 423d 05ad 1bbe ad29 f5bd 6944 50be
00000040: ada2 05be aecc 17be b32f 3b3d 8f4b b4ba
00000050: 900b a93d 0b9d 11be 3065 d4bc dd16 03be
00000060: 52e7 b83d 8a88 6ebd db3a 0bbd 9583 e13c
00000070: 18c0 043e 351b 093c d6a5 6dbe 281a 3dbe
00000080: b268 8dbe f934 2dbe 014f 62be ce9b 91bd
00000090: 2aa7 48be 623b a5bd fc96 54be 5b13 9bbd
000000a0: fc2c 0fbe 3bbd 41be 6dd2 d3bd ea85 48be
000000b0: df3f f1bd ce66 193e b8b1 9a3e 4db0 8e3e
000000c0: d7c7 333e 229f 093e 9354 8c3d 00a0 183e
000000d0: 51a1 8e3c 4793 0f3e 735b 8a3d f300 463e
000000e0: 0cb2 353e effa 783e 621b e03d 064d 5e3e
000000f0: d5a3 7fbe 6ca4 a4bd 93e8 57be 9364 25be
00000100: c67c c8bd 6421 69be ff49 16be ed76 91bc
00000110: ea5b 07be d283 e2bd f551 f4bb ebc7 8ebd
00000120: 33c7 31be 8d24 0dbe c5de 29be 6ec0 0a3e
00000130: a26b 973d c307 f53c 2d74 563e 156c 75be
00000140: e374 983e 3ba1 0bbe bf74 2b3e e997 d9bd
00000150: a045 7f3e edda 49be e070 7f3e 2ea6 23be
00000160: b095 de3d 7285 01bd 2969 01bd da55 3c3e
00000170: 63a2 11be 40ae 553e 09a1 19be d4ed 393e
00000180: bfd1 abbe a9f0 433e e37d 5ebe f523 743e
00000190: 6cbe 68be 035b 853e 5b3b d4bd 09a6 ba3d
000001a0: 4ac0 8dbd 0e56 b33c 35b4 7a3c 7923 2c3c
000001b0: 5414 5abc dcd1 193e 7e90 783d c33a 29bd
000001c0: d220 883e 6e85 233e 73d2 153e 7956 833d
000001d0: 8818 213e 9509 5e3d ca55 ff3d dd40 b93c
000001e0: 4091 40be 541a 86be db30 a4be 880c 37be
000001f0: 5bcb 47be 952c 2dbe eb01 85be 3fc9 32bc
00000200: 5dda 2abe 6390 c7bd 6f7a 59be c970 0dbe
00000210: f5dc 53be fc9c 18be b4cf 32be 6882 c2bd
00000220: 59b1 62bd 2f2e 68be edb5 96bc 61f7 2ebd
00000230: 8c4f 8fbd cfe9 4d3d 1a0c 31be 3240 8dbc
00000240: 4ae2 4e3c 1f13 3bbe bfd6 e13b 217c f1bd
00000250: d830 67be c308 0abe 1743 22be dc06 59bd
00000260: d748 aabd 7ee3 00bd 20ae 9abd 01ce 93bd
00000270: 16df a43d 218a ecbd 154c 013e bc02 3bbe
00000280: 38b6 d63d 7ec7 1ebe eac8 893d 8e23 66bd
00000290: 4ffc b83d bf82 cb3e 27ea 433e 9dca a33e
000002a0: ac39 683e 1d92 ad3d 82a8 2d3e 31d3 243e
000002b0: 5661 be3d 62ea 6a3e 522c c33d 3a77 283e
000002c0: e8e4 0c3e 0ae0 173d 70e0 0b3e 066d 253e
000002d0: 5595 b33e 6efe 1e3e 327e 843e 37ba 823e
000002e0: 549a 113e eaa2 6d3d e349 123e 01c3 ffbd
000002f0: 2c2b f73d dba6 b2bc af7f 793d ea85 91bd
00000300: cfda 043e b142 f3bd 6d7a 193e 3443 463e
00000310: eaac 8bbe e7eb 6b3e 8c5f 74be 7327 69bc
00000320: bbba f73d ad13 2bbe 53b1 453e c23c 15be
00000330: 1aeb c23c 77fb 22be 5f9b 47bd da2d c53d
00000340: fec1 a83d 24a9 56bd b072 4c3e 2278 a5be
00000350: 4b34 3d3e 1b16 6fbe a76c 2e3e bf67 85be
00000360: 7f78 713e 0826 09be cc8a 343e 20ac d0bd
00000370: 85bd a13c 522f 093e 66d6 f7bd fe96 cd3c
00000380: ec93 5ebd e3b6 163e ffa0 8b3e 547b 723e
00000390: a773 033e ef20 e03d 9d2a 103e 1e2b 9f3d
000003a0: a94e 463e b2ae 423d a489 273e 25a5 273e
000003b0: c968 033e 51bf 5abd e904 ea3d f015 49bd

model.fe.1.weight f4 [16, 16, 1, 1]
-0.14506169 -0.13915576 0.20664658 -0.27755255 0.010036715 -0.013931238 0.12883902 -0.09863988
0.20661932 -0.07801342 0.14887093 0.25036326 0.05714726 -0.08082397 -0.0980999 0.08548408
0.23246318 -0.029617613 -0.13514166 0.1858888 0.19034147 0.24399625 0.0051315622 -0.12289041
-0.21034323 0.057623472 0.08543915 -0.2624751 -0.09820635 -0.048284143 0.23894195 -0.17868721
-0.08496009 -0.087904654 0.21850191 -0.23104149 0.05732388 -0.10021984 -0.22201924 -0.16321425
0.1533077 -0.08826685 -0.06673741 0.26734665 0.14159337 0.07699667 0.114332 0.089204185
-0.0353243 -0.119549274 0.22415495 -0.16741633 -0.084709816 -0.10522914 -0.3600635 -0.07612141
0.28095487 -0.148091 -0.03763694 0.27964762 0.17830364 0.10432516 0.1463107 0.04315132
0.20118049 -0.07119315 -0.13213857 0.116930604 0.1734114 -0.11163833 0.018529769 0.04320202
-0.10958694 0.002171384 -0.16812123 -0.10965787 -0.17217572 -0.020979136 -0.01769215 -0.1792461
-0.11487216 -0.022193613 0.19205785 -0.2005214 -0.046399895 0.0033561678 0.22293003 -0.043579634
0.12564653 -0.03942472 0.14532578 0.16620894 0.0683163 -0.08214676 -0.12131952 0.048138566
-0.11918988 0.060790256 0.15734248 -0.12104027 0.097579286 -0.1834239 -0.14025046 -0.23215865
0.064081706 0.13826147 0.2305079 0.07464652 0.28244403 0.060910445 0.10853018 0.23026595
0.22088005 0.058599405 -0.23951702 0.13694537 0.18952732 -0.19613902 -0.024854982 -0.057235043
-0.13554597 0.065164536 -0.0254505 -0.102230825 -0.21286723 0.077780806 -0.10152704 -0.18489414
0.09922717 0.17260563 -0.14922878 0.21468957 0.23319472 -0.25967002 -0.06895227 -0.021592561
-0.18527257 0.10303212 -0.028810667 -0.07079949 -0.26206315 0.1341199 -0.2606255 -0.114811905
0.18659131 -0.058658812 -0.14825468 0.17590113 0.15463448 0.20871215 0.009007872 -0.058335353
-0.17193805 0.02066635 0.08868598 -0.20701142 -0.08924399 -0.08944052 0.246215 -0.12115422
-0.040067103 -0.1614148 0.13384396 -0.2542292 0.007286825 -0.13442104 -0.22469497 -0.14492375
0.30877492 -0.12299414 -0.20105886 0.23730128 0.162742 0.068150744 0.15972632 0.21153721
-0.0576573 -0.09164934 0.2185741 -0.19392894 -0.07625957 0.120839104 0.2729676 0.012496044
0.20305698 -0.29081866 0.10391123 0.27892965 -0.088758856 -0.14937365 -0.20565094 0.0068879137
-0.2401316 -0.12145001 0.16545661 -0.15957908 0.047200773 -0.040411588 -0.2967839 -0.22178793
0.24498323 -0.047553252 -0.14909944 0.22890414 0.051821474 0.064328 0.07837805 0.05675907
-0.24007098 0.080028936 0.118799604 -0.18144274 -0.054050054 -0.0072788433 0.22477804 -0.16254744
0.21127605 0.040476833 0.14122045 0.060743786 0.117493935 -0.065478146 -0.12656473 0.11836042
-0.15808544 0.024490252 0.1467692 -0.1539384 -0.044913232 -0.083450176 -0.26273096 -0.2075108
0.24348952 -0.011242877 -0.03470427 0.22846922 0.10637949 0.093004815 0.12865688 0.03146549
0.12925458 -0.008351387 -0.26403046 0.08299225 0.07165573 -0.3041968 -0.07703945 -0.019803515
-0.19148481 0.15025936 0.04820627 -0.08523821 -0.2829418 0.19200481 -0.22726811 -0.06907008
00000000: 0d8b 14be d97e 0ebe 299b 533e 5e1b 8ebe
00000010: 0971 243c d93f 64bc 60ee 033e b503 cabd
00000020: 0494 533e 80c5 9fbd 9f71 183e 9d2f 803e
00000030: 3f13 6a3d 0a87 a5bd 9ae8 c8bd 4712 af3d
00000040: d40a 6e3e a3a0 f2bc 9362 0abe a259 3e3e
00000050: e0e8 423e 27da 793e aa26 a83b f8ad fbbd
00000060: 3764 57be 9706 6c3d b9fa ae3d 2363 86be
00000070: 6920 c9bd 98c5 45bd 33ad 743e c8f9 36be
00000080: 8eff adbd 5b07 b4bd f7be 5f3e 2496 6cbe
00000090: 72cc 6a3d 0f40 cdbd 0359 63be a321 27be
000000a0: b2fc 1c3e 40c5 b4bd a0ad 88bd a9e1 883e
000000b0: dafd 103e 6eb0 9d3d e526 ea3d afb0 b63d
000000c0: 37b0 10bd 40d6 f4bd e088 653e 306f 2bbe
000000d0: 577c adbd 6082 d7bd 3e5a b8be 8be5 9bbd
000000e0: 51d9 8f3e 2ba5 17be 3129 1abd f92d 8f3e
000000f0: 3b95 363e 6ea8 d53d 79d2 153e 70bf 303d
00000100: 4202 4e3e b7cd 91bd 554f 07be 5079 ef3d
00000110: c292 313e a3a2 e4bd becb 973c 9af4 303d
00000120: 1e6f e0bd c74d 0e3b f927 2cbe 4e94 e0bd
00000130: d54e 30be 70dc abbc 21ef 90bc 4a8c 37be
00000140: 1842 ebbd 61cf b5bc d0aa 443e 7b55 4dbe
00000150: d10d 3ebd 27f3 5b3b c547 643e 8f80 32bd
00000160: 7ca9 003e d17b 21bd 48d0 143e ad32 2a3e
00000170: 6be9 8b3d 8f3c a8bd 5e76 f8bd f22c 453d
00000180: d319 f4bd 34ff 783d 631e 213e f6e3 f7bd
00000190: a6d7 c73d 7ad3 3bbe d19d 0fbe ffba 6dbe
000001a0: 453d 833d 6a94 0d3e 430a 6c3e 46e0 983d
000001b0: 819c 903e 3b7d 793d 1245 de3d d6ca 6b3e
000001c0: 612e 623e ee05 703d f343 75be 683b 0c3e
000001d0: 7313 423e abd8 48be ad9c cbbc 4b6f 6abd
000001e0: 90cc 0abe fc74 853d 917d d0bc 655e d1bd
000001f0: def9 59be 8b4b 9f3d 69ed cfbd e454 3dbe
00000200: 9d37 cb3d 88bf 303e 6ecf 18be 95d7 5b3e
00000210: 99ca 6e3e 78f3 84be d936 8dbd e2e2 b0bc
00000220: 18b8 3dbe 8102 d33d 5904 ecbc 53ff 90bd
00000230: 242d 86be ba56 093e b570 85be 8122 ebbd
00000240: cb11 3f3e 3944 70bd 13d0 17be 6d1f 343e
00000250: 8058 1e3e a3b8 553e c195 133c 0df1 6ebd
00000260: 8710 30be 7a4c a93c ffa0 b53d cdfa 53be
00000270: 8ec5 b6bd 972c b7bd c91f 7c3e b41f f8bd
00000280: 671d 24bd ec49 25be 640e 093e 542a 82be
00000290: 52c6 ee3b aba5 09be 7016 66be e466 14be
000002a0: bf17 9e3e 5ae4 fbbd 60e2 4dbe 1bff 723e
000002b0: d7a5 263e 9e92 8b3d 4c8f 233e 369d 583e
000002c0: 102a 6cbd a6b2 bbbd e4d1 5f3e 4f95 46be
000002d0: fa2d 9cbd 7e7a f73d 69c2 8b3e 35bc 4c3c
000002e0: 2bee 4f3e 2fe6 94be 69cf d43d decf 8e3e
000002f0: 34c7 b5bd 68f5 18be 2996 52be 02b4 e13b
00000300: 0fe5 75be c8ba f8bd 756d 293e b368 23be
00000310: 9955 413d 9f86 25bd 0ff4 97be 601c 63be
00000320: e2dc 7a3e 33c7 42bd 86ad 18be d965 6a3e
00000330: c142 543d 66be 833d ac84 a03d 337c 683d
00000340: 2bd5 75be 36e6 a33d 354d f33d 20cc 39be
00000350: 9763 5dbd 5d83 eebb 372c 663e d672 26be
00000360: c058 583e 09cb 253d 189c 103e 7ace 783d
00000370: a9a0 f03d 6819 86bd 2f9a 01be f366 f23d
00000380: 26e1 21be c89f c83c aa4a 163e 07a2 1dbe
00000390: f0f6 37bd ede7 aabd ac84 86be b67d 54be
000003a0: 5155 793e 0b34 38bc 1126 0ebd d6f3 693e
000003b0: 7ddd d93d 4f79 be3d a1be 033e f5e1 003d
000003c0: 505b 043e 42d4 08bc 002f 87be d7f7 a93d
000003d0: 3dc0 923d afbf 9bbe dcc6 9dbd fb3a a2bc
000003e0: 9814 44be 97dd 193e f073 453d 5f91 aebd
000003f0: bfdd 90be e99c 443e f9b8 68be 9d74 8dbd

model.fe.2.weight f4 [16]
1.326978 1.6012154 1.3350378 1.3595593 1.4473394 1.2729282 1.2839049 1.6321583
1.5512986 1.5877581 1.3711017 1.3702457 1.3183337 1.2839091 1.3911685 1.5962874
00000000: 6ada a93f a0f4 cc3f 85e2 aa3f 0a06 ae3f
00000010: 6b42 b93f 50ef a23f ff56 a43f 90ea d03f
00000020: f490 c63f a83b cb3f 4380 af3f 3664 af3f
00000030: 29bf a83f 2257 a43f cf11 b23f 2553 cc3f

model.fe.2.bias f4 [16]
-0.0877436 -0.05021872 -0.1036361 -0.09838545 0.016306484 -0.08356799 -0.16144305 -0.011219717
0.050982106 0.024881508 -0.075852245 -0.11626306 -0.0993604 -0.09523536 -0.070337534 0.088130035
00000000: ebb2 b3bd 25b2 4dbd 2a3f d4bd 507e c9bd
00000010: 2d95 853c b225 abbd 5451 25be e7d2 37bc
00000020: 9dd2 503d 4ed4 cb3c 6c58 9bbd 541b eebd
00000030: 777d cbbd c20a c3bd 200d 90bd 857d b43d

model.fe.2.running_mean f4 [16]
0.018999143 0.13274916 -0.0052003423 0.0032515633 0.05163277 0.028751587 -0.07164366 -0.018342001
-0.02528669 0.08950721 -0.030199312 0.10646474 -0.025918234 -0.025544066 -0.041563332 -0.13011146
00000000: 17a4 9b3c 65ef 073e a267 aabb 2e18 553b
00000010: e27c 533d 7388 eb3c e9b9 92bd f741 96bc
00000020: 0826 cfbc 8e4f b73d 8c64 f7bc 300a da3d
00000030: 7a52 d4bc ca41 d1bc 503e 2abd f03b 05be

model.fe.2.running_var f4 [16]
0.06401189 0.0864755 0.07859961 0.12954658 0.041313156 0.058344286 0.07866464 0.0773475
0.11939109 0.06564657 0.11466591 0.12520215 0.10100385 0.06283806 0.08718567 0.11580216
00000000: aa18 833d 111a b13d d5f8 a03d dca7 043e
00000010: fc37 293d 6bfa 6e3d ed1a a13d 5e68 9e3d
00000020: 5183 f43d b571 863d f6d5 ea3d fe34 003e
00000030: 1bdb ce3d 3eb1 803d 678e b23d af29 ed3d

model.classifier.0.weight f4 [1, 16]
0.46945336 -0.5715194 0.64566326 0.6808952 -0.50350064 0.5875861 0.6649288 -0.5617083
-0.7447921 -0.68065447 0.53877854 0.56681514 0.75674367 0.5694191 0.6176579 -0.44815975
00000000: 315c f03e 184f 12bf 304a 253f 264f 2e3f
00000010: 6be5 00bf 0b6c 163f c638 2a3f 1dcc 0fbf
00000020: b2aa 3ebf 5f3f 2ebf 64ed 093f cc1a 113f
00000030: f4b9 413f 73c5 113f d41e 1e3f 3275 e5be

exp_avg f4 [40, 1, 1, 25]
-0.0013083462 -0.0008986093 -0.00052055944 -0.00021196374 1.5264644e-05 0.00015997318 0.00021229571 0.00015184013
-3.4830828e-05 -0.00032927847 -0.0006711021 -0.00097513304 -0.0011683071 -0.0012264177 -0.0011676153 -0.0010394411
-0.00087968627 -0.00069590384 -0.00047320893 -0.00019735108 0.00013116818 0.0005042945 0.0009124646 0.0013590418
0.001841208 0.003248731 0.003091439 0.0028021655 0.0023857541 0.0018864229 0.0013771182 0.0009142815
0.00050984015 0.00013484576 -0.00023738961 -0.0005864776 -0.0008409891 -0.00091835257 -0.0007871729 -0.0004895339
-0.00013553826 0.00014232863 0.00024108167 0.000113840535 -0.00021719655 -0.000668766 -0.0011177596 -0.0014406282
-0.0015429292 -0.0013937529 0.0001444063 0.00071220566 0.0012365002 0.0015924736 0.0017016629 0.0015556979
0.0012375023 0.00086254004 0.0005364886 0.00033012437 0.0002753058 0.00037125638 0.00058949913 0.0008847084
0.001187006 0.0014222723 0.0015221537 0.0014373887 0.0011560454 0.0007212964 0.00023529802 -0.00017716603
-0.00041292707 -0.00043485075 -0.00027560265 0.001115829 0.0010761772 0.0010083638 0.0008825358 0.00069038506
0.00043723514 0.00013803526 -0.00020928634 -0.00059474626 -0.00097030035 -0.0012428412 -0.0013100577 -0.0011256477
-0.00073745905 -0.0002849758 8.0799946e-05 0.0002680301 0.00027543327 0.0001686729 2.2969041e-05 -0.00011875398
-0.00023819256 -0.00032112232 -0.00033919007 -0.00027261802 0.0026537024 0.0026793794 0.0025249121 0.0022899457
0.0020511819 0.0018201548 0.0015747153 0.0012754825 0.000909818 0.0005118047 0.00015879214 -5.7306566e-05
-6.5423905e-05 0.00014837494 0.00053885236 0.0010038691 0.0014171541 0.0016655893 0.0016711906 0.001406663
0.00089517306 0.0001958661 -0.00059631525 -0.001385184 -0.0020805341 0.0006473486 0.00066788 0.0006297576
0.0005035041 0.00028936606 3.0266065e-05 -0.00021264334 -0.0003911746 -0.0004947092 -0.00054890424 -0.00059160456
-0.0006430264 -0.0006926634 -0.00071121694 -0.000674217 -0.00058037514 -0.00045127983 -0.0003132389 -0.00018070142
-4.879431e-05 9.925912e-05 0.00028108913 0.0005019316 0.0007577913 0.0010342238 -0.00059254194 -0.0009374743
-0.0013187255 -0.0016691874 -0.0018948015 -0.0019245292 -0.0017641125 -0.0014878587 -0.001199349 -0.0009736101
-0.00082092773 -0.00069941 -0.00055972283 -0.0003903256 -0.00022312294 -0.00010833339 -6.642783e-05 -6.591891e-05
-4.1500953e-05 6.1409686e-05 0.00024799193 0.0004689763 0.0006585188 0.00077806157 0.00084038166 0.0029528216
0.00203625 0.0011786125 0.00033810618 -0.0005600372 -0.0015529657 -0.0025721325 -0.0034864007 -0.004121718
-0.0043175337 -0.0039737704 -0.003088411 -0.0017823216 -0.00032400148 0.0009785838 0.0018103058 0.0019758078
0.0014901173 0.00059878686 -0.00031721347 -0.00088519667 -0.00088422734 -0.00028239266 0.0007400838 0.0018817264
-0.003322611 -0.002875864 -0.00224964 -0.0014497433 -0.0005200663 0.0004329744 0.0013056193 0.0020008436
0.0024825688 0.002787836 0.0029934845 0.0031538657 0.0032563629 0.0032241156 0.0029560337 0.0024039727
0.0016077944 0.0006807957 -0.00024251016 -0.0010562332 -0.0017008452 -0.0021473896 -0.0023679691 -0.002325997
-0.0019966846 -0.0034943668 -0.0029085279 -0.0023126323 -0.001796227 -0.0014340617 -0.0012528588 -0.0012413025
-0.0013080023 -0.0013076011 -0.0010969313 -0.0006062292 0.0001202734 0.0009484992 0.0017243 0.0023552736
0.002830115 0.0031865134 0.0034542137 0.0036253356 0.0036704533 0.0035721604 0.0033492278 0.0030430316
0.0026747687 0.0022194984 0.0010471707 0.0016173972 0.0020945016 0.0024265496 0.0025194653 0.002279477
00000000: d07c abba a690 6bba 2776 08ba 9542 5eb9
00000010: 930c 8037 79be 2739 b29b 5e39 4637 1f39
00000020: 5117 12b8 02a3 acb9 e6ec 2fba 12a0 7fba
00000030: e221 99ba c0bf a0ba ab0a 99ba db3d 88ba
00000040: bf9a 66ba 516d 36ba 0719 f8b9 07f0 4eb9
00000050: 318a 0939 a232 043a 7632 6f3a e021 b23a
00000060: b054 f13a a9e8 543b bd99 4a3b 89a4 373b
00000070: 505a 1c3b d941 f73a 6b80 b43a 65ac 6f3a
00000080: cba6 053a 6265 0d39 caeb 78b9 d8bd 19ba
00000090: d375 5cba 99bd 70ba 475a 4eba 1054 00ba
000000a0: 461f 0eb9 0d3e 1539 deca 7c39 acbd ee38
000000b0: 41bf 63b9 2050 2fba ca81 92ba 76d3 bcba
000000c0: 1d3c caba 96ae b6ba c56b 1739 50b3 3a3a
000000d0: 1012 a23a 8cba d03a 550a df3a 8fe8 cb3a
000000e0: b033 a23a 151c 623a 24a3 0c3a 8b14 ad39
000000f0: eb56 9039 30a5 c239 9e88 1a3a c7eb 673a
00000100: 5095 9b3a 8a6b ba3a 0183 c73a c366 bc3a
00000110: 7286 973a 6215 3d3a 55ba 7639 a5c5 39b9
00000120: 227e d8b9 aefc e3b9 c37e 90b9 0241 923a
00000130: 840e 8d3a 132b 843a fa59 673a f5fa 343a
00000140: b53c e539 8fbd 1039 e073 5bb9 bfe8 1bba
00000150: c15b 7eba d5e6 a2ba 3eb6 abba 788a 93ba
00000160: 0a52 41ba ce68 95b9 2473 a938 6486 8c39
00000170: 0768 9039 c9dd 3039 a4ad c037 8f0b f9b8
00000180: 54c3 79b9 4f5c a8b9 52d5 b1b9 2cee 8eb9
00000190: bde9 2d3b 8798 2f3b ff78 253b ea12 163b
000001a0: 1f6d 063b 4392 ee3a ad66 ce3a 172e a73a
000001b0: da80 6e3a a22a 063a 7181 2639 755c 70b8
000001c0: 3134 89b8 1895 1b39 c541 0d3a 4294 833a
000001d0: cdbf b93a e74f da3a da0b db3a c75f b83a
000001e0: 0caa 6a3a 6861 4d39 0a52 1cba 108f b5ba
000001f0: 9259 08bb d4b2 293a ab14 2f3a 5116 253a
00000200: 97fd 033a 0eb6 9739 e1e3 fd37 03f9 5eb9
00000210: 9116 cdb9 5faf 01ba 57e4 0fba e915 1bba
00000220: c590 28ba db93 35ba f670 3aba f0bd 30ba
00000230: 5124 18ba c199 ecb9 373a a4b9 ab7a 3db9
00000240: 7ea8 4cb8 5629 d038 255f 9339 0f94 033a
00000250: 83a6 463a cb8e 873a d154 1bba d6c0 75ba
00000260: 16d9 acba a3c8 daba fd5a f8ba 7c40 fcba
00000270: cb39 e7ba 4104 c3ba 7933 9dba de39 7fba
00000280: 8733 57ba 9c58 37ba 5dba 12ba 9da4 ccb9
00000290: 1cf6 69b9 0c31 e3b8 2b4f 8bb8 f23d 8ab8
000002a0: 4f11 2eb8 13c9 8038 ea04 8239 efe0 f539
000002b0: 73a0 2c3a d4f6 4b3a 0f4d 5c3a 2084 413b
000002c0: 9b72 053b ac7b 9a3a d843 b139 76cf 12ba
000002d0: e28c cbba 3991 28bb 197c 64bb 7a0f 87bb
000002e0: 197a 8dbb 6736 82bb f066 4abb ca9c e9ba
000002f0: bede a9b9 d343 803a c847 ed3a 8e7c 013b
00000300: 0a50 c33a e8f7 1c3a ac4f a6b9 8b0c 68ba
00000310: 7ecb 67ba 1a0e 94b9 2f02 423a 43a4 f63a
00000320: 2ac0 59bb fe78 3cbb b26e 13bb 5005 beba
00000330: 0f55 08ba d700 e339 5021 ab3a 9620 033b
00000340: 98b2 223b 20b4 363b 562e 443b 16b1 4e3b
00000350: b468 553b af4b 533b 04ba 413b f88b 1d3b
00000360: a1bc d23a 6d77 323a 534a 7eb9 4e71 8aba
00000370: e5ee deba 38bb 0cbb ee2f 1bbb c16f 18bb
00000380: cfda 02bb bf01 65bb 009d 3ebb 888f 17bb
00000390: 606f ebba 20f7 bbba f736 a4ba 33b3 a2ba
000003a0: 4671 abba d063 abba e8c6 8fba 5aeb 1eba
000003b0: 4a3b fc38 b4a4 783a e801 e23a ef5a 1a3b
000003c0: 7379 393b d3d4 503b 1760 623b 0a97 6d3b
000003d0: fd8b 703b e81a 6a3b b87e 5b3b 996d 473b
000003e0: 2c4b 2f3b 0175 113b 3841 893a d8fe d33a
000003f0: e843 093b bf06 1f3b 9d1d 253b 4763 153b
