eeg_online/lightning_logs/dreyer_source/version_0/checkpoints/epoch=99-step=9800.ckpt (torch, 67146 bytes, 50 tensors)

model.input_block.1.weight f4 [40, 1, 1, 25]
0	0x3e5031e2	0.20331529
1	0x3e6a7c20	0.22898912
2	0xbe000f48	-0.1250583
3	0xbe39261b	-0.18080942
4	0xbe2ac5f3	-0.16677074
5	0xbd89e99b	-0.0673401
6	0xbdfeb597	-0.12436979
7	0x3d92f32f	0.0717529
8	0xbd4a697e	-0.04941701
9	0x3da640f6	0.08117859
10	0x3c6f6bb3	0.01461308
11	0x3d6243ea	0.05524055
12	0xbdd63228	-0.10458785
13	0xbd8fd6ed	-0.07023416
14	0xbd464d77	-0.04841372
15	0x3ca8c04f	0.020599512
16	0x3dabcd1d	0.08388732
17	0x3e02f8bc	0.12790197
18	0xbded8331	-0.115972884
19	0xbd4ef52d	-0.050526787
20	0x3e001db7	0.12511335
21	0x3e6355b0	0.22200656
22	0xbbe8a146	-0.0070993034
23	0x3e04a6c3	0.1295424
24	0xbe0dc939	-0.13846292
25	0x3e93e08a	0.28882247
26	0x3ecc45ce	0.39897007
27	0xbd1e5f3f	-0.038665053
28	0xbd32c10c	-0.043641135
29	0xbc09ed2c	-0.008418363
30	0xbd35f9dd	-0.04442774
31	0x3e620c66	0.22075042
32	0xbd76252b	-0.06009404
33	0xbc5b0694	-0.013368268
34	0xbda984aa	-0.08277257
35	0xbe41d07f	-0.18927191
36	0xbe491364	-0.19636303
37	0x3d00783d	0.03136467
38	0xbd8e63c8	-0.069526255
39	0xbd133a1d	-0.035944093
40	0xbd6c4ccf	-0.057690438
41	0xbda0d965	-0.07853965
42	0x3e1e11dd	0.15436502
43	0x3c5df8e2	0.013548108
44	0x3dda6832	0.10664405
45	0x3e265d58	0.16246545
46	0x3ebe91d6	0.3722064
47	0x3ea72910	0.32648516
48	0x3d9ab92f	0.07554852
49	0x3dcca269	0.09991915
50	0x3eab4bb7	0.33456203
51	0x3ea03402	0.3128968
52	0x3dc8f6b7	0.09812682
53	0xbcc6385c	-0.024196796
54	0x3d492747	0.049109723
55	0xbe4e541a	-0.2014927
56	0xbcb09b37	-0.021558387
57	0xbe35818e	-0.17725202
58	0xbdffc8be	-0.124894604
59	0xbd8fef2f	-0.070280425
60	0x3de696cd	0.11259232
61	0x3d7bdea6	0.06149163
62	0xbe45e68c	-0.19326228
63	0xbd7e4868	-0.06208077
64	0xbd0156d8	-0.03157696
65	0xbe1668d4	-0.14688426
66	0xbd6f6805	-0.05844881
67	0x3d66baa4	0.056330338
68	0x3e5369f5	0.20645888
69	0x3ea30986	0.31843203
70	0xbce1b6fa	-0.02755307
71	0x3c00fc41	0.007872642
72	0x3da43186	0.08017258
73	0x3d909e7f	0.07061481
74	0xbc96b074	-0.018394686
75	0xbe11ae2e	-0.142266
76	0xbe63b0aa	-0.2223536
77	0xbeb8d540	-0.36100197
78	0xbdbaa0a1	-0.09112669
79	0xbe2bc551	-0.16774489
80	0xbe3e472f	-0.18581842
81	0x3e47f1d1	0.1952584
82	0x3e29658b	0.16542642
83	0xbe4bc475	-0.19899161
84	0x3d026041	0.031830076
85	0xbcec8dea	-0.028876264
86	0xbbb24c38	-0.005441215
87	0xbd2de65a	-0.04245601
88	0x3e076436	0.13221821
89	0xbda34307	-0.07971769
90	0x3da89783	0.082320236
91	0x3db1c064	0.08679274
92	0x3dfe88d2	0.1242844
93	0x3d8ce439	0.068794675
94	0xbe3c5c42	-0.18394569
95	0xbdd359ac	-0.10319838
96	0x3dedac1c	0.11605093
97	0x3c376fc7	0.011196083
98	0xbe8ad219	-0.27113417
99	0xbea9a0a8	-0.33130383
100	0x3ea0f9b7	0.31440517
101	0x3e39dc23	0.18150382
102	0xbdc1af0a	-0.09457214
103	0xbdb59252	-0.08865799
104	0xbe774c86	-0.24150285
105	0xbd46c120	-0.048524022
106	0xbe300a20	-0.17191362
107	0xbe0e6029	-0.1390387
108	0x3d2adec3	0.04171635
109	0x3dd9dcb2	0.106377974
110	0xbbb24387	-0.005440179
111	0x3e2f194b	0.17099492
112	0xbde1f3d7	-0.11032837
113	0x3e165ddc	0.14684242
114	0x3d8bfe70	0.068356395
115	0xbe7daa1d	-0.24771924
116	0xbde9fd48	-0.11425263
117	0xbcc509bc	-0.024052493
118	0x3cfda2b2	0.030961368
119	0x3d99d1c0	0.0751071
120	0x3df27d90	0.118403554
121	0x3d4de24b	0.050264638
122	0xbd933cc4	-0.071893245
123	0x3dcc01d2	0.09961285
124	0xbe594c77	-0.21220575
125	0x3c2d8f25	0.01059321
126	0x3db32de3	0.087489866
127	0x3d172664	0.036901847
128	0x3d5738f5	0.052544553
129	0xbd80907c	-0.06277558
130	0x3ccaccf2	0.024755929
131	0x3d874631	0.06605185
132	0xbe1ca540	-0.15297413
133	0xbd93e54e	-0.07221471
134	0x3d565f11	0.052336756
135	0xbe07a1dc	-0.13245338
136	0xbe028c34	-0.12748796
137	0xbe37a4bb	-0.17933933
138	0xbe1c8ca4	-0.15288025
139	0xbdb76667	-0.089550786
140	0xbcdd5f22	-0.027022902
141	0xbd6d2150	-0.057893097
142	0x3d884f96	0.06655805
143	0xbd6bbcb3	-0.057553004
144	0xbe0f873b	-0.1401643
145	0x3c8159c8	0.015789881
146	0x3e97298d	0.29523888
147	0x3e340fed	0.175842
148	0x3d82cf3e	0.063871846
149	0xbd0811cb	-0.033220094
150	0xbe6dea0b	-0.23233812
151	0xbe0506c2	-0.12990859
152	0x3d895ed5	0.06707541
153	0x3e83187e	0.25604624
154	0x3e82cf6a	0.2554887
155	0xbd9cacd1	-0.076501496
156	0x3e47e320	0.19520235
157	0xbdfdcf00	-0.12392998
158	0xbcb8073e	-0.02246439
159	0xbd393cb7	-0.045223918
160	0x3d07112d	0.032975364
161	0x3d903844	0.07041982
162	0xbd3d0af6	-0.04615303
163	0xbd289c68	-0.041164786
164	0x3d949662	0.07255246
165	0x3d8116b1	0.06303156
166	0xbd94241d	-0.072334506
167	0x3d8ce2a9	0.068791695
168	0xbe414a61	-0.1887603
169	0xbbc6fbd6	-0.0060725017
170	0x3e52f9fb	0.20603172
171	0xbd0a4784	-0.03375961
172	0x3e70a715	0.23501237
173	0x3dfec0f6	0.12439148
174	0xbe097ca5	-0.13426454
175	0x3dd6d854	0.1049048
176	0x3d45cf56	0.048293434
177	0xbcbea346	-0.023271214
178	0x3e14891d	0.1450543
179	0xbe847575	-0.25870863
180	0xbddaf432	-0.10691108
181	0xbe0302e8	-0.12794077
182	0x3e17d74b	0.14828221
183	0x3e00547b	0.12532227
184	0x3e2d2358	0.16908014
185	0x3da46a99	0.080281444
186	0xbde993fb	-0.11405178
187	0xbe068bd0	-0.13139272
188	0xbe556696	-0.20839915
189	0x3e196618	0.14980352
190	0x3e841cb3	0.25803146
191	0x3e700568	0.23439562
192	0xbdd22d8a	-0.10262592
193	0xbd0caf94	-0.03434713
194	0xbe5dccb9	-0.21660127
195	0xbe1986ad	-0.14992781
196	0xbd85da0e	-0.06535731
197	0x3e4d4a86	0.2004796
198	0x3cc8112f	0.024422256
199	0x3dd27f07	0.10278135
200	0x3d1c1e4d	0.038114835
201	0x3e13495f	0.14383458
202	0xbe1479b3	-0.1449955
203	0xbe03767d	-0.12838168
204	0xbdbf72a9	-0.093480416
205	0x3e3b70f3	0.18304805
206	0xbc5702a4	-0.013123188
207	0x3e6ae7a6	0.2293993
208	0x3df439a3	0.11925056
209	0x3d413f72	0.047179647
210	0xbc08360d	-0.008313668
211	0xbd93eb01	-0.07222558
212	0xbce825e7	-0.028338386
213	0xbde67eb4	-0.112546355
214	0xbda28006	-0.07934575
215	0xbd71a3b5	-0.058994014
216	0xbe7356da	-0.237636
217	0xbe2c9ff3	-0.16857891
218	0x3e02e03a	0.12780848
219	0xbe261daf	-0.16222261
220	0x3c187889	0.009306082
221	0x3e649376	0.22321877
222	0x3d9a0bfb	0.07521816
223	0xbcfa79e7	-0.030575706
224	0xbe80032b	-0.25002417
225	0xbd577d29	-0.052609596
226	0xbe96d02f	-0.29455706
227	0xbe368c24	-0.17826897
228	0xbe128f9c	-0.14312595
229	0xbd7109b3	-0.05884714
230	0x3c020608	0.007936008
231	0x3e3e2271	0.18567826
232	0x3d1de621	0.038549546
233	0x3e2f6066	0.17126617
234	0x3dc1bd25	0.094599046
235	0xbe1f6d61	-0.15569068
236	0x3da5dde3	0.08098962
237	0xbdf5d672	-0.12003793
238	0xbd296714	-0.04135807
239	0x3dd2541b	0.10269948
240	0x3db82523	0.08991458
241	0x3e11e8f3	0.1424902
242	0xbdd84152	-0.10559334
243	0xbd91bc42	-0.071159855
244	0x3bda709f	0.0066662575
245	0xbe9e29d0	-0.30891275
246	0x3c9fb9f6	0.019497853
247	0xbe8fb878	-0.28070426
248	0xbd91bdbb	-0.07116266
249	0xbced042c	-0.028932653
250	0xbe01e3a9	-0.12684502
251	0xbcbbfe21	-0.022948327
252	0x3dc00ef5	0.09377853
253	0xbe15e817	-0.14639316
254	0xbe5a79a6	-0.21335468
255	0xbe278a23	-0.16361289

model.input_block.2.weight f4 [40]
0	0x3f7b7e8a	0.9823996
1	0x3f8fb6ae	1.1227624
2	0x3f89cf7d	1.0766445
3	0x3f8f3984	1.1189427
4	0x3f8483a1	1.035267
5	0x3f688ea3	0.90842646
6	0x3f757650	0.95883656
7	0x3f8d5ac7	1.1043328
8	0x3f851f3e	1.0400159
9	0x3f8c3fb6	1.0956943
10	0x3f919d97	1.1376218
11	0x3f94aeb4	1.1615815
12	0x3f94aec4	1.1615834
13	0x3f86529c	1.049396
14	0x3f8134e1	1.0094262
15	0x3f830a91	1.02376
16	0x3f86b072	1.0522597
17	0x3f728926	0.9474052
18	0x3f87b71c	1.0602756
19	0x3f88e775	1.0695635
20	0x3f6d373d	0.9266241
21	0x3f898fec	1.0747046
22	0x3f93cbf5	1.1546618
23	0x3f5c4830	0.8604765
24	0x3f838eed	1.0277992
25	0x3f80a49c	1.0050235
26	0x3f8f7393	1.1207145
27	0x3f71a4ad	0.943919
28	0x3f8ae9d5	1.085261
29	0x3f8db663	1.1071285
30	0x3f93574a	1.1511014
31	0x3f7d73b6	0.99004686
32	0x3f930609	1.1486217
33	0x3f8b18c3	1.0866932
34	0x3f8bfd12	1.0936606
35	0x3f8244cb	1.0177244
36	0x3f702795	0.938104
37	0x3f834cf1	1.0257856
38	0x3f8193b3	1.0123199
39	0x3f858543	1.0431293

model.input_block.2.bias f4 [40]
0	0xbd06cceb	-0.03291027
1	0xbda9e890	-0.08296311
2	0xbd3df629	-0.046377335
3	0xbc4bf1a7	-0.012447751
4	0x3d6a617c	0.057221875
5	0x3cf1ada6	0.029501747
6	0xbdafaa4b	-0.08577403
7	0xbc2af068	-0.010433294
8	0xbc0cf04c	-0.008602213
9	0x3e2dda27	0.1697775
10	0xba8e7254	-0.0010867813
11	0x3b899b3b	0.004199413
12	0x3cbf1ddd	0.02332967
13	0x3da91959	0.08256788
14	0xbdf1e03a	-0.11810346
15	0x3db49ae9	0.08818609
16	0xbceb46aa	-0.028720219
17	0x3daec39d	0.08533404
18	0xbe12bb4e	-0.14329264
19	0x3d06e966	0.03293743
20	0x3d3d6578	0.046239346
21	0xbccf7e1b	-0.025328686
22	0xbccc4a14	-0.024937667
23	0x3cb0fdc5	0.021605382
24	0x3dbc8183	0.0920439
25	0xbd589852	-0.05287964
26	0x3c1e9f05	0.009681468
27	0xbcb1b6cc	-0.02169361
28	0x3da879c8	0.08226353
29	0x3cc6720e	0.024224307
30	0x3e4c6016	0.19958529
31	0xbd23db8d	-0.0400043
32	0x3c76c3f1	0.0150613645
33	0x3e22f509	0.15913786
34	0xbc35851a	-0.011079097
35	0x3c3ae868	0.011407949
36	0x3c11444b	0.00886638
37	0x3da6c4e9	0.081430264
38	0x3ccb4953	0.024815237
39	0x3c83b237	0.01607619

model.input_block.2.running_mean f4 [40]
0	0xafad69eb	-3.1543776e-10
1	0x3109aef9	2.0035584e-09
2	0x30d40541	1.5426523e-09
3	0xb188942b	-3.9749657e-09
4	0x2e82121a	5.914931e-11
5	0xb113c883	-2.1505293e-09
6	0x30619c74	8.2076856e-10
7	0x301d1cbe	5.715711e-10
8	0xafd3ad57	-3.8503842e-10
9	0xb1143d89	-2.1571813e-09
10	0xb11f7549	-2.3204214e-09
11	0xb157c19f	-3.1396679e-09
12	0xb184d51c	-3.8659334e-09
13	0x317ca36b	3.6763719e-09
14	0xb0845674	-9.628836e-10
15	0xadb34397	-2.037996e-11
16	0xb0edbfa4	-1.7298487e-09
17	0x2ffa6aba	4.555057e-10
18	0x31456534	2.87248e-09
19	0xb1753355	-3.5681371e-09
20	0x2f860ae4	2.4382196e-10
21	0x3017eee1	5.527295e-10
22	0xb1a68ed9	-4.8474758e-09
23	0x31107653	2.1022017e-09
24	0xb0f9bb65	-1.8170395e-09
25	0x3072db0a	8.835036e-10
26	0xb05b5f5e	-7.980726e-10
27	0xb0c413ea	-1.4266537e-09
28	0x314e868b	3.0053424e-09
29	0x31999ee1	4.4709485e-09
30	0xb1846a02	-3.8537573e-09
31	0x3114dd0d	2.1662487e-09
32	0x30edf25a	1.73129e-09
33	0x3172c1b7	3.532575e-09
34	0xb15efe3d	-3.244977e-09
35	0xb1a8f6a2	-4.9174824e-09
36	0xb0e8b62e	-1.6932e-09
37	0xb18420f3	-3.8454515e-09
38	0xb14f53cd	-3.01701e-09
39	0xb02cc1d5	-6.284869e-10

model.input_block.2.running_var f4 [40]
0	0x2da93eee	1.9241022e-11
1	0x2ec8015e	9.09519e-11
2	0x2e701425	5.4587574e-11
3	0x2e7b0d82	5.708279e-11
4	0x2dc2e38b	2.2156296e-11
5	0x2e2a00c5	3.865421e-11
6	0x2d729b22	1.3790554e-11
7	0x2d9d865e	1.7908505e-11
8	0x2dd91e99	2.4683632e-11
9	0x2e3f69a0	4.3522186e-11
10	0x2e832ca1	5.965118e-11
11	0x2e07f85e	3.091604e-11
12	0x2de05b01	2.5506266e-11
13	0x2dd17e6a	2.3816688e-11
14	0x2dc20940	2.2059354e-11
15	0x2ded3af4	2.6969961e-11
16	0x2df5c3af	2.7940176e-11
17	0x2ddcf8b3	2.5121549e-11
18	0x2e74147c	5.549737e-11
19	0x2e159706	3.4012813e-11
20	0x2d467f14	1.1283214e-11
21	0x2e78931b	5.6519327e-11
22	0x2e5b7f5c	4.9907953e-11
23	0x2d892a2c	1.5593825e-11
24	0x2df52a08	2.787194e-11
25	0x2dd9d571	2.476483e-11
26	0x2e3621f1	4.1412155e-11
27	0x2d5208a8	1.193904e-11
28	0x2e0ffa2b	3.273663e-11
29	0x2e3ccf90	4.2930604e-11
30	0x2db19a53	2.0191104e-11
31	0x2debcb11	2.6806586e-11
32	0x2eb3e620	8.180856e-11
33	0x2e8be673	6.361924e-11
34	0x2e4f0546	4.7071035e-11
35	0x2e6488ab	5.1962584e-11
36	0x2e2a4db1	3.872253e-11
37	0x2e19ec5b	3.4998098e-11
38	0x2e0f37ac	3.2563882e-11
39	0x2dcebb6d	2.3502722e-11

model.input_block.3.weight f4 [40, 1, 27, 1]
0	0x3c67129b	0.014103557
1	0xbdd6e146	-0.10492186
2	0x3d09e514	0.03366573
3	0xbdbee02a	-0.093201
4	0x3cb06820	0.021534026
5	0x3dadd166	0.08487205
6	0xbe794470	-0.24342513
7	0x3d48c152	0.04901249
8	0xbd1821e7	-0.037141707
9	0xbd366f47	-0.044539716
10	0x3d8a7988	0.067614615
11	0x3df62013	0.120178364
12	0x3e194e29	0.14971222
13	0xbdcafc02	-0.09911348
14	0xbbb5b1bf	-0.0055448706
15	0x3e163c20	0.14671373
16	0x3e37fdb9	0.17967881
17	0x3cd961da	0.026535917
18	0xbe1cd787	-0.15316592
19	0x3dc0c979	0.09413428
20	0x3e2ae787	0.16689883
21	0xbddf5c6a	-0.109062985
22	0x3d90b1fb	0.07065197
23	0x3d22184b	0.03957395
24	0xbe20f4ba	-0.15718356
25	0xbde5de58	-0.11224049
26	0xbe745d9b	-0.23863833
27	0x3de1c2e1	0.11023498
28	0x3d0ba15d	0.034089435
29	0x3e68cf3f	0.22735308
30	0x3e2df0a6	0.16986331
31	0xbc943f49	-0.018096583
32	0xbdc4d4ec	-0.09610924
33	0xbe844f73	-0.25841865
34	0x3ca52899	0.02016096
35	0xbc39d70a	-0.011342773
36	0xbe9f9083	-0.3116494
37	0x3bcdd987	0.006282035
38	0xbdcf04f1	-0.101083644
39	0x3e22677b	0.15859787
40	0xbd63152c	-0.055440113
41	0x3e2a325d	0.16620775
42	0xbe05afc4	-0.1305533
43	0xbde58284	-0.112065345
44	0x3de12784	0.10993865
45	0x3d2b85a6	0.041875504
46	0x3d9c2da4	0.07625893
47	0x3ca16b8c	0.019704603
48	0xbe34ce79	-0.17656888
49	0x3dcec2ee	0.10095774
50	0xbd9fcbb0	-0.07802522
51	0xbe22a710	-0.15884042
52	0x3e075bde	0.13218638
53	0x3e27e3b0	0.1639545
54	0xbe556530	-0.20839381
55	0xbe3f47b3	-0.18679695
56	0xbcf26e48	-0.029593602
57	0xbda62694	-0.08112827
58	0xb9c5436c	-0.00037625
59	0x3ca7b1da	0.020470548
60	0x3e3df246	0.18549451
61	0x3e5c5594	0.2151702
62	0x3d782cbf	0.06058955
63	0x3ecd208e	0.400639
64	0xbdac782a	-0.08421357
65	0xbe0374de	-0.1283755
66	0xbd8d0ac1	-0.06886817
67	0xbe03109b	-0.12799303
68	0x3dfec02e	0.12438999
69	0x3e1279d5	0.14304288
70	0x3d1f4744	0.038886324
71	0xbda9ac7b	-0.08284851
72	0xbd502369	-0.05081502
73	0xbabeb829	-0.0014550734
74	0x3e70af4a	0.23504367
75	0xbda9a296	-0.08282964
76	0xbddaf1c1	-0.10690642
77	0xbd96d20b	-0.07364281
78	0x3e48ef41	0.19622518
79	0xbdf45e5f	-0.11932062
80	0xbe1c4df3	-0.1526411
81	0xbdb0c9b3	-0.08632221
82	0x3e09ac27	0.13444577
83	0x3cd3570d	0.025798345
84	0x3d3b105f	0.04566991
85	0x3d43c079	0.047790978
86	0x3e26c0d7	0.162845
87	0x3e095639	0.13411798
88	0xbd9a8b27	-0.075460725
89	0xbe709636	-0.23494801
90	0xbe92ffa1	-0.28710654
91	0x3df314bd	0.1186919
92	0x3d9eb227	0.077488236
93	0x3e1bc4b3	0.15211754
94	0xbd4ccd4f	-0.050000485
95	0x3d229a5d	0.039697994
96	0xbd8399b2	-0.064257994
97	0xbe57f042	-0.21087745
98	0x3d94549c	0.072427005
99	0x3e6d3a11	0.23166682
100	0xbe24f804	-0.16110235
101	0x3b621f97	0.0034503692
102	0x3d920a32	0.07130851
103	0x3d597cca	0.053097524
104	0xbda7e04c	-0.08197078
105	0x3e1a477c	0.15066332
106	0xbddc0897	-0.10743826
107	0xbdf51043	-0.11965992
108	0x3e3967e7	0.18106042
109	0x3e0d243c	0.13783354
110	0x3d770fa4	0.06031765
111	0xbdd5df81	-0.104430206
112	0xbd4e4faf	-0.05036896
113	0x3da4c2e2	0.080449834
114	0xbe784453	-0.24244814
115	0xbea1155d	-0.3146161
116	0x3d982a9f	0.07430004
117	0xbe5146b7	-0.20437132
118	0x3cd86ba8	0.026418522
119	0x3de1682b	0.110061966
120	0x3dcaf9ed	0.09910951
121	0xbe09d7ee	-0.13461277
122	0x3c6cc17e	0.014450429
123	0x3e05a3f2	0.13050821
124	0xbe295bb4	-0.16538888
125	0xbdf9235a	-0.12164946
126	0xbe1bc4f2	-0.15211847
127	0x3d839765	0.064253606
128	0x3e866f0b	0.26256594
129	0x3c9f0167	0.019409848
130	0x3ca9e734	0.020740129
131	0x3ddaff13	0.10693183
132	0xbdbaa0fa	-0.09112735
133	0x3e37c882	0.17947581
134	0xbe35ca00	-0.17752838
135	0xbdb7a256	-0.0896651
136	0x3d0ad9b4	0.033899024
137	0x3cc3c6d1	0.023898514
138	0x3e08d8fc	0.13364023
139	0xbe0c86b3	-0.13723259
140	0x3c4fd3ac	0.012684744
141	0x3de280be	0.11059712
142	0xbd5f4f02	-0.054518707
143	0xbdd4a1a3	-0.10382392
144	0x3d528bef	0.051402982
145	0xbd79a6e8	-0.06095019
146	0x3d8c55f0	0.06852329
147	0xbe1e71c5	-0.15473087
148	0x3d5fcf15	0.05464085
149	0xbe48bc54	-0.19603091
150	0x3e63af19	0.22234763
151	0xbdbd068c	-0.09229764
152	0xbdd9b8a0	-0.106309175
153	0x3e37e23f	0.179574
154	0x3e6497a0	0.22323465
155	0xbe07eaa3	-0.132731
156	0xbd588b05	-0.052866954
157	0x3e638ce0	0.22221708
158	0xbc8311ab	-0.015999636
159	0x3dfeb9e2	0.12437798
160	0xbdfcfe01	-0.12353135
161	0xbe2d7149	-0.16937746
162	0xbd60d852	-0.0548938
163	0x3e3bdb6f	0.18345426
164	0x3e2c9826	0.16854915
165	0xbe31e7d0	-0.17373586
166	0xbcc88b21	-0.024480404
167	0x3d9cd2d5	0.076574005
168	0xbc04fe09	-0.008117207
169	0xbccf5724	-0.025310107
170	0x3cdab938	0.026699647
171	0x3e4b2afd	0.19840617
172	0x3d1c89d8	0.038217396
173	0xbe34b2ca	-0.17646328
174	0x3c55b65a	0.013043964
175	0x3dfb47ca	0.12269552
176	0x3caa5f32	0.020797346
177	0x3d98a1fb	0.0745277
178	0xbccdfdf7	-0.025145514
179	0x3c02c78a	0.007982144
180	0xbcecd598	-0.028910443
181	0xbddd274e	-0.107985124
182	0x3df244ca	0.11829527
183	0xbde1821b	-0.11011144
184	0xbe20cd69	-0.15703358
185	0xbdd43c9d	-0.103631236
186	0x3c4a5143	0.012348476
187	0x3e30dd6d	0.17271967
188	0x3e9e46cd	0.30913392
189	0xbd912122	-0.07086398
190	0x3dcecb7c	0.10097405
191	0x3e674360	0.22584295
192	0x3e210b5a	0.15726987
193	0x3e44b987	0.19211398
194	0xbcbcc586	-0.023043405
195	0xbeadc09a	-0.33936006
196	0x3ecbd3f5	0.39810148
197	0xbdc7e942	-0.09761287
198	0x3c77528b	0.015095363
199	0xbcd48aed	-0.025945151
200	0xbd0c4008	-0.034240752
201	0x3e18b10c	0.14911288
202	0x3e3d13c2	0.18464568
203	0xbdd4730f	-0.10373508
204	0xbe4a5799	-0.19759978
205	0xbde649cf	-0.112445466
206	0xbd006610	-0.031347334
207	0x3e01ff3d	0.12695022
208	0x3d0ac099	0.03387508
209	0xbd851cd5	-0.0649964
210	0xbd318054	-0.043335274
211	0xbcb472a3	-0.02202732
212	0x3da1d0ef	0.07901179
213	0xbe575289	-0.21027578
214	0xbe4a0dad	-0.1973178
215	0xbdf8a3b8	-0.12140602
216	0xbc5ac770	-0.013353214
217	0x3d28a8c4	0.041176572
218	0xbe04b348	-0.12959015
219	0x3db21207	0.08694845
220	0x3e3f8570	0.18703246
221	0x3dcb0558	0.099131286
222	0x3c0b32a0	0.008495957
223	0xbdc4eaec	-0.0961512
224	0xbd60a88a	-0.05484823
225	0x3c906b9b	0.017629435
226	0xbe407c3f	-0.18797396
227	0x3d5764b4	0.052586272
228	0x3d92af9c	0.07162401
229	0xbe643a3b	-0.22287838
230	0x3e53be12	0.20677975
231	0x3e4b0fc4	0.19830233
232	0xbe1ced0e	-0.15324804
233	0xbdecbdb3	-0.1155962
234	0x3e320256	0.17383704
235	0xbe8713d3	-0.26382312
236	0x3d959208	0.07303244
237	0xbd90d1c9	-0.07071263
238	0x3e1b3b72	0.15159395
239	0xbdaa9378	-0.08328909
240	0xbe462c63	-0.1935287
241	0x3ba188f9	0.0049296585
242	0x3dcb7d99	0.09936065
243	0xbe460f51	-0.1934178
244	0xbe7880e8	-0.24267924
245	0xbe92ad08	-0.28647637
246	0xbe5b6fdb	-0.21429388
247	0xbe0b73c7	-0.13618384
248	0x3e70e8da	0.23526326
249	0x3e361d7b	0.17784683
250	0x3d820306	0.06348233
251	0x3e73e038	0.23816001
252	0x3ea9f03e	0.33191103
253	0xbd32a7eb	-0.04361717
254	0x3dc2fe64	0.095211774
255	0x3d4f9640	0.0506804

model.input_block.4.weight f4 [40]
0	0x3f7b6fe1	0.9821759
1	0x3f8f6193	1.1201652
2	0x3f89b6a7	1.0758866
3	0x3f8f0361	1.1172906
4	0x3f8433b7	1.0328282
5	0x3f699bbc	0.91253257
6	0x3f751847	0.9574017
7	0x3f8e3840	1.1110916
8	0x3f84fbbc	1.0389323
9	0x3f8bdd2b	1.092687
10	0x3f90f6fc	1.1325374
11	0x3f949431	1.1607724
12	0x3f94511e	1.1587255
13	0x3f865038	1.0493231
14	0x3f81b9f3	1.0134872
15	0x3f82afc9	1.0209895
16	0x3f868c84	1.0511632
17	0x3f722242	0.94583523
18	0x3f876806	1.057862
19	0x3f88593c	1.0652232
20	0x3f6cf584	0.9256213
21	0x3f893259	1.071849
22	0x3f93b244	1.1538777
23	0x3f5c41bd	0.8603781
24	0x3f834d0d	1.0257889
25	0x3f809159	1.0044357
26	0x3f8f3736	1.1188724
27	0x3f71708f	0.94312376
28	0x3f8acd45	1.0843893
29	0x3f8dbf1d	1.1073948
30	0x3f935efe	1.1513364
31	0x3f7d1083	0.9885332
32	0x3f92a7a5	1.1457411
33	0x3f8a9e35	1.0829531
34	0x3f8ba7dd	1.0910603
35	0x3f81fd81	1.0155488
36	0x3f701f67	0.93797916
37	0x3f82e03c	1.0224681
38	0x3f8169e2	1.0110438
39	0x3f855397	1.0416135

model.input_block.4.bias f4 [40]
0	0x3ba5e176	0.0050622774
1	0xbc4068e9	-0.0117437625
2	0xbcc66a52	-0.02422062
3	0xbc5e7061	-0.013576598
4	0xbd0b0f1e	-0.033949964
5	0x3b0d524c	0.0021563945
6	0xbbeba95d	-0.0071918205
7	0xbc69ca0b	-0.014269362
8	0xbccb05d0	-0.024783045
9	0xbc77e49c	-0.015130188
10	0xbcf0ebdc	-0.029409342
11	0xbca5be83	-0.020232445
12	0x3b61d35b	0.0034458253
13	0xbc109907	-0.008825547
14	0xbbe542e5	-0.0069965
15	0xbd2157c3	-0.039390337
16	0x3b5a3b25	0.0033299413
17	0xbc18839e	-0.009308724
18	0xbb6842ed	-0.0035440281
19	0xbc41297b	-0.011789675
20	0x3a842bae	0.0010083818
21	0x3b4680c8	0.0030289162
22	0x3920c5bf	0.00015332455
23	0xbbf770b9	-0.0075512794
24	0x3bb80339	0.0056156185
25	0x3adc8931	0.0016825554
26	0x3bc0b959	0.00588147
27	0xbc86f905	-0.016476164
28	0xbbc15091	-0.005899497
29	0xbc80edea	-0.015738446
30	0xbbf3d987	-0.0074417028
31	0x3cae50ab	0.0212787
32	0xbced3776	-0.02895711
33	0xbc9d6eef	-0.019217936
34	0x3c0ba2c3	0.008522692
35	0xbb62f7d2	-0.0034632576
36	0xbc4f7340	-0.012661755
37	0xbc56f9ff	-0.013121127
38	0xbab8a64d	-0.0014087647
39	0xbc8a3d6b	-0.01687499

model.input_block.4.running_mean f4 [40]
0	0x3b8fc629	0.004387636
1	0xbb20483d	-0.002445712
2	0xbacd418e	-0.0015659796
3	0xba097082	-0.00052429
4	0xbc32dd41	-0.010917009
5	0xba6063c7	-0.000855979
6	0xbd4062f7	-0.04696938
7	0x39b1cda5	0.00033913288
8	0x3a7db28e	0.0009677791
9	0x3bcaa5ec	0.00618433
10	0x37801774	1.526971e-05
11	0xb8e56089	-0.00010937552
12	0xbac5b470	-0.0015083682
13	0x3bd33c15	0.0064463713
14	0x3d1b1aeb	0.037867468
15	0xbbaebd7b	-0.0053326464
16	0x3b1a6482	0.0023558442
17	0xbb39fd27	-0.002837965
18	0x38b576fc	8.652915e-05
19	0x3ba0f4c7	0.0049119922
20	0xbba1eec5	-0.0049417936
21	0xb9ca0ab0	-0.00038536405
22	0xba725bb3	-0.00092452316
23	0xbc35abdc	-0.011088338
24	0x3c1c7a9a	0.009550715
25	0xbc2f797c	-0.0107101165
26	0xb90fe19a	-0.00013721586
27	0xbb24757d	-0.0025094443
28	0x3a71f880	0.000923045
29	0x3b6a69c5	0.003576861
30	0x3bdf48c1	0.006814093
31	0x3ad48d49	0.0016216423
32	0xb9c6eed2	-0.00037943438
33	0x3c1f7804	0.009733204
34	0x3917b740	0.00014468748
35	0xba59b37e	-0.00083046395
36	0xba624b13	-0.0008632403
37	0xbc63832f	-0.013886257
38	0x39f8a2fe	0.00047423685
39	0x3a15a57d	0.00057085586

model.input_block.4.running_var f4 [40]
0	0x34c2050e	3.6138994e-07
1	0x35356447	6.7573677e-07
2	0x3522e694	6.068524e-07
3	0x34ebd22d	4.3925084e-07
4	0x3564bd01	8.5211656e-07
5	0x34655f49	2.1361951e-07
6	0x34f33b2e	4.5305336e-07
7	0x34e6f466	4.3018662e-07
8	0x34c073f6	3.584716e-07
9	0x352bf7c5	6.4063016e-07
10	0x3527096c	6.222606e-07
11	0x3499b11a	2.862733e-07
12	0x3519162b	5.70292e-07
13	0x350dbce1	5.280145e-07
14	0x351d2045	5.8534016e-07
15	0x34b271cb	3.323788e-07
16	0x34d84599	4.0283774e-07
17	0x350c27eb	5.221215e-07
18	0x34a9fc24	3.166216e-07
19	0x35398837	6.911609e-07
20	0x3435564f	1.6888337e-07
21	0x34e14529	4.1959836e-07
22	0x34c26a09	3.6212467e-07
23	0x3525d29b	6.177376e-07
24	0x3475efc4	2.290463e-07
25	0x34a05544	2.986436e-07
26	0x34d49b55	3.9601096e-07
27	0x3483690a	2.4477077e-07
28	0x3516d8e9	5.6195e-07
29	0x3513fa87	5.512633e-07
30	0x3521e829	6.031501e-07
31	0x34cc292f	3.8027926e-07
32	0x351994df	5.721358e-07
33	0x3505e721	4.98827e-07
34	0x34cb641f	3.7884544e-07
35	0x351a3c2d	5.745704e-07
36	0x348ab377	2.583508e-07
37	0x3528848e	6.277777e-07
38	0x3505c0d6	4.9826974e-07
39	0x3500d7a4	4.7997514e-07

model.channel_expansion.0.weight f4 [16, 40, 1, 1]
0	0x3d9c93c0	0.076453686
1	0xbd76b204	-0.060228363
2	0x3d1fd2a5	0.039019246
3	0x3e9a038f	0.3008084
4	0xbcc70d64	-0.024298377
5	0xbdaad532	-0.08341445
6	0x3dbbb5d8	0.09165543
7	0x3e689e24	0.22716576
8	0xbcafff1b	-0.021483948
9	0xbdfa85a2	-0.1223252
10	0xbe8d1692	-0.27556282
11	0x3cd6ac13	0.026205098
12	0x3d5cd15a	0.05391059
13	0xbe64fd99	-0.22362365
14	0xbd68466e	-0.056707792
15	0x3d620991	0.055184904
16	0x3de0bd6a	0.10973628
17	0xbd6cf635	-0.05785199
18	0xbd1fe4a2	-0.0390364
19	0x3e14b65b	0.14522688
20	0xbe05b767	-0.13058244
21	0x3dc5b2cb	0.09653243
22	0xbe00f00e	-0.12591574
23	0x3d47d962	0.048791297
24	0x3e34d81f	0.17660569
25	0x3d9df490	0.07712662
26	0xbd4e83d8	-0.050418705
27	0xbe2c1eee	-0.16808674
28	0x3de9ed77	0.11422246
29	0x3ddbe3b8	0.10736793
30	0xbd5da164	-0.054108992
31	0xbd347600	-0.044057846
32	0x3df4b6ef	0.11948954
33	0x3db032cd	0.086034395
34	0xbdc63092	-0.09677233
35	0x3d60289f	0.05472624
36	0xbdc103ad	-0.09424529
37	0xbd496159	-0.049165104
38	0x3e1d0e46	0.15337476
39	0x3dd5087b	0.10402008
40	0x3bd385b8	0.0064551495
41	0xbd9d80e8	-0.076906025
42	0x3c23ab0e	0.009989513
43	0x3cfc5d15	0.030806104
44	0xbdb2e95f	-0.08735918
45	0xbd865a50	-0.065601945
46	0x3d4ec713	0.05048282
47	0x3e0a7910	0.13522744
48	0xbc87b581	-0.01656604
49	0xbe936ac2	-0.28792387
50	0xbdecfc1e	-0.11571525
51	0x3c2e67b2	0.01064484
52	0xbda17cc8	-0.07885128
53	0x3e1e350e	0.15449926
54	0xbe212d82	-0.15740016
55	0x3d238558	0.03992209
56	0x3e474db1	0.1946323
57	0xbd91299e	-0.07088016
58	0x3e009e55	0.12560399
59	0xbc3c3cd8	-0.011489116
60	0xbd08c2fe	-0.033389084
61	0x3cf62718	0.030047938
62	0xbe1e988e	-0.15487882
63	0xbe1c8125	-0.1528364
64	0xbdcd8a94	-0.10036197
65	0xbd2ad011	-0.041702334
66	0x3dcff424	0.10153988
67	0x3d6227e8	0.05521384
68	0xbe74c6d6	-0.23903975
69	0x3d48ac45	0.048992414
70	0x3e316f43	0.17327599
71	0xbbe22f1a	-0.0069025876
72	0x3d920906	0.07130627
73	0x3cbc5508	0.022989765
74	0x3e08ed9b	0.1337189
75	0xbea1dd00	-0.31613922
76	0xbcd32211	-0.02577308
77	0xbd47f801	-0.0488205
78	0xbdb6d7fa	-0.08927913
79	0x3cf1cc14	0.029516257
80	0xbe128df1	-0.14311959
81	0x3de074af	0.10959756
82	0x3b7a1c71	0.0038163925
83	0x3dcb879e	0.09937976
84	0xbe51edd3	-0.20500879
85	0xbe24f99d	-0.16110845
86	0x3d20d69d	0.03926717
87	0xbcadef58	-0.021232292
88	0xbda2eb4c	-0.079550356
89	0x3d745f94	0.059661463
90	0xbd5b651a	-0.053563215
91	0x3dd7a899	0.10530204
92	0x3b62e000	0.0034618378
93	0xbd933033	-0.07186928
94	0x3c8828c9	0.01662101
95	0x3e8e593d	0.27802458
96	0x3e2a1dd1	0.16612937
97	0x3e16363b	0.14669125
98	0x3c87268e	0.016497876
99	0xbcea0447	-0.028566493
100	0xbc0e1d1a	-0.008673931
101	0xbde43c12	-0.1114427
102	0xbe37944b	-0.17927663
103	0xbe2a0097	-0.16601788
104	0xbd9572b7	-0.07297271
105	0x3d26c0b8	0.040711135
106	0x3e1b30fa	0.15155402
107	0x3dedaf99	0.11605758
108	0x3d7e2bd2	0.06205351
109	0x3ce55d0e	0.027998473
110	0xbde0514a	-0.10953005
111	0xbc4e9905	-0.012609725
112	0xbdbaa2f3	-0.09113111
113	0xbe0fe734	-0.1405304
114	0x3dcc9f85	0.099913634
115	0xbd835815	-0.06413285
116	0xbe3fcae4	-0.1872974
117	0xbc2b4ff9	-0.010456079
118	0xbc057fd8	-0.008148156
119	0x3d112698	0.035437196
120	0xbd20e3d2	-0.039279766
121	0xbe3d4156	-0.18481955
122	0x3df24ed7	0.11831444
123	0xbdfe56fa	-0.12418933
124	0xbdcdaa82	-0.100422874
125	0x3d2accf4	0.041699365
126	0xbdf788aa	-0.120866135
127	0x3d08f628	0.033437878
128	0x3d33b43b	0.043873053
129	0xbe33f258	-0.17572916
130	0x3d580d9f	0.052747365
131	0xbe82f207	-0.25575277
132	0x3e67755f	0.22603367
133	0xbdaaf113	-0.083467625
134	0x3e2457a2	0.16049054
135	0x3daf3965	0.08555869
136	0x3e253901	0.16135027
137	0xbdb27b2e	-0.08714901
138	0x3e06295b	0.13101713
139	0xbe27be95	-0.16381295
140	0xbd4f8344	-0.050662294
141	0x3d7264bf	0.05917811
142	0x3e3e7e4f	0.1860287
143	0xbc26f8e4	-0.010191176
144	0xbca8dd66	-0.020613384
145	0xbe0e82f2	-0.13917139
146	0x3e8297c7	0.25506422
147	0x3da07f16	0.0783674
148	0x3de51eff	0.11187553
149	0x3d1c9379	0.03822658
150	0xbdc06b71	-0.09395493
151	0xbc3fafa6	-0.011699593
152	0x3e04729b	0.12934344
153	0xbd9a65e9	-0.07538969
154	0xbcda73fd	-0.026666636
155	0xbdad0a35	-0.084492125
156	0x3d911439	0.07083935
157	0x3de9f5e0	0.1142385
158	0x3e22dce2	0.15904573
159	0x3cf7d214	0.03025154
160	0x3adc63f4	0.0016814456
161	0x3d359ba3	0.04433788
162	0xbdd07dfa	-0.10180278
163	0xbe08600a	-0.13317886
164	0xbd946cf9	-0.072473474
165	0x3e0a4723	0.13503699
166	0xbe143f36	-0.14477238
167	0xbc610d35	-0.013736059
168	0xbd19ff8f	-0.037597235
169	0x3e2a9efa	0.16662207
170	0x3e57b8cb	0.21066587
171	0x3d9a95bb	0.0754809
172	0x3db1d019	0.086822696
173	0xbdf7d03f	-0.12100267
174	0xbc6b7797	-0.014371774
175	0xbc271f85	-0.010200386
176	0xbdbb0add	-0.091329314
177	0xbcbbad3d	-0.022909755
178	0xbe79e89d	-0.24405141
179	0x3d870d25	0.06594304
180	0x3d9cb46e	0.07651602
181	0xbe1bee9d	-0.15227742
182	0x3daf93a4	0.08573082
183	0xbc278afc	-0.010226008
184	0xbd144423	-0.036197793
185	0x3c4dc41d	0.012558964
186	0x3d944d3d	0.072412945
187	0x3cc06bc8	0.023488894
188	0x3d181aa4	0.03713478
189	0xbe938436	-0.28811806
190	0xbbe26abb	-0.006909696
191	0x3d0d72dc	0.034533367
192	0xbd834f0c	-0.06411561
193	0xbda11a4d	-0.078663446
194	0xbd5f203d	-0.054474104
195	0x3e253fa6	0.16137561
196	0x3ceccc37	0.028905971
197	0xbdfcd50b	-0.12345322
198	0x3d8ae6d7	0.067823105
199	0xbb461225	-0.0030223217
200	0x3c277b62	0.010222288
201	0x3dc82f7f	0.09774684
202	0xbc9dfc29	-0.019285278
203	0xbe9e7bf3	-0.3095394
204	0x3d712904	0.058877006
205	0x3caed664	0.021342464
206	0xbe4dea19	-0.20108832
207	0xbcb6f5ce	-0.022334006
208	0x3b863bcf	0.004096485
209	0x3dd3f63e	0.10349701
210	0x3e0c03fe	0.13673398
211	0xbe00b0c0	-0.12567425
212	0x3dba45a6	0.09095316
213	0x3db43465	0.08799056
214	0xbe1b8d7e	-0.15190694
215	0x3d007b0b	0.031367343
216	0x3d97984f	0.074020974
217	0x3d837f46	0.0642076
218	0x3e14aac4	0.14518267
219	0xbe3c2f46	-0.18377408
220	0x3d8572e0	0.06516051
221	0xbe878379	-0.26467493
222	0x3e2fc247	0.17163955
223	0x3dd72cd6	0.10506599
224	0xbc4e8970	-0.01260601
225	0xbd088f56	-0.03333982
226	0x3d4f7698	0.05065021
227	0x3e821ded	0.25413457
228	0x3dad380d	0.084579565
229	0xbe2af53f	-0.16695116
230	0xbd70f665	-0.05882873
231	0xbcf932fb	-0.030419817
232	0xbd9af53d	-0.07566307
233	0xbd9018c7	-0.07035976
234	0x3d289ed1	0.041167084
235	0x3d3bae1c	0.04582034
236	0xbc7ccc37	-0.015429548
237	0x3ddd69c3	0.10811188
238	0xbce9796d	-0.028500283
239	0xbdf160e3	-0.11786058
240	0xbd2152b8	-0.039385527
241	0xbdba834d	-0.09107075
242	0x3d246808	0.040138274
243	0xbd06138f	-0.032733496
244	0xbbea1891	-0.007144042
245	0x3d87ed9d	0.06637118
246	0x3d754f80	0.05989027
247	0x3ef8da75	0.4860417
248	0xbcbe977c	-0.023265593
249	0xbda12570	-0.07868469
250	0x3da65b6f	0.08122908
251	0xbe5b00e4	-0.21387058
252	0x3e1ccc9a	0.15312424
253	0x3dba10fb	0.0908527
254	0x3d48d37c	0.049029812
255	0xbced8992	-0.028996263

model.channel_expansion.1.weight f4 [16]
0	0x3f8395ed	1.0280129
1	0x3f635878	0.8880687
2	0x3f910755	1.1330363
3	0x3f90fb4e	1.1326692
4	0x3f8cb03e	1.0991285
5	0x3f7d4d2a	0.9894587
6	0x3f75389f	0.9578952
7	0x3f6aee14	0.9176953
8	0x3f986772	1.1906569
9	0x3f8ed108	1.1157541
10	0x3f822eba	1.017051
11	0x3f91bc60	1.1385612
12	0x3f90a18f	1.1299304
13	0x3f5332b0	0.8249922
14	0x3f7e8cb7	0.99433464
15	0x3f8ea824	1.1145062

model.channel_expansion.1.bias f4 [16]
0	0xbecd36d4	-0.40080893
1	0xbeb0d515	-0.3453757
2	0xbf01ed70	-0.50752926
3	0xbe4a4486	-0.19752702
4	0xbeb8a651	-0.3606439
5	0x3ec312b6	0.38100213
6	0x3e9ef3a7	0.31045267
7	0xbe8505a6	-0.25980872
8	0xbec1f4fc	-0.3788222
9	0xbe85c084	-0.2612344
10	0xbe66615b	-0.22498076
11	0xbeab16c7	-0.33415815
12	0xbec451d5	-0.38343683
13	0xbccd0de7	-0.025031043
14	0x3e118ac1	0.14213087
15	0xbea2408c	-0.3168987

model.channel_expansion.1.running_mean f4 [16]
0	0x3b51a047	0.0031986402
1	0xbb79a276	-0.003809122
2	0xbb8d98e4	-0.0043212045
3	0x3bd6559d	0.0065409676
4	0x3b499ef7	0.0030764916
5	0xb940469d	-0.00018336852
6	0xbb87c417	-0.004143249
7	0xbbe134e0	-0.0068727583
8	0x3a8e5e4a	0.001086184
9	0x3b36d9e4	0.002790087
10	0x3ac88e6a	0.0015301232
11	0x3c76a47b	0.015053864
12	0xbc429a2d	-0.011877579
13	0x3bb6e28c	0.0055812057
14	0xbae5a870	-0.0017521512
15	0xbc8076a9	-0.015681582

model.channel_expansion.1.running_var f4 [16]
0	0x3d31ffc6	0.043456815
1	0x3cf75120	0.03019005
2	0x3cd99d78	0.026564345
3	0x3d888d43	0.066675685
4	0x3d2d6e86	0.04234173
5	0x3d49d44c	0.049274728
6	0x3cfebda4	0.031096287
7	0x3d2b36ef	0.041800436
8	0x3d7547a5	0.05988278
9	0x3cecb464	0.02889461
10	0x3cf04479	0.029329525
11	0x3d86431b	0.06555768
12	0x3d426e8e	0.047468714
13	0x3ce49b4c	0.027906083
14	0x3d1466a0	0.036230683
15	0x3d0ccaa4	0.03437294

model.fe.0.weight f4 [16, 1, 1, 15]
0	0xbe8a3e5f	-0.2700071
1	0xbcef9edf	-0.02925056
2	0xbe6c7460	-0.23091269
3	0xbd797a54	-0.060907677
4	0xbd8e4d12	-0.06948294
5	0xbe297c75	-0.16551383
6	0xbe4c6215	-0.1995929
7	0xbe28748a	-0.16450706
8	0xbe6b370a	-0.22970214
9	0xbc7e0235	-0.015503456
10	0xbe1546d7	-0.14577805
11	0xbe4c0986	-0.19925508
12	0x3d490bd0	0.04908353
13	0xbe0d62e1	-0.1380725
14	0xbddd4903	-0.108049415
15	0xbe5eec37	-0.21769796
16	0xbe01e7c4	-0.12686068
17	0xbe13d006	-0.14434823
18	0x3d075fa8	0.03305021
19	0xbc41107d	-0.011783716
20	0x3d316268	0.04330674
21	0xbe19c11e	-0.15015075
22	0xbd51bf9a	-0.051208116
23	0xbe3f6b05	-0.18693168
24	0x3d0c6fb9	0.034286235
25	0xbd91f2bc	-0.07126376
26	0xbde2374c	-0.11045703
27	0x3c83ab72	0.016072962
28	0x3d75dce5	0.060025115
29	0x3cd2c0e2	0.02572674
30	0xbe6db13a	-0.23212138
31	0xbe389a94	-0.18027717
32	0xbe832aee	-0.2561869
33	0xbe1ec6a9	-0.1550547
34	0xbe5d41e8	-0.21607172
35	0xbd5122e9	-0.051058684
36	0xbe3d1782	-0.18465999
37	0xbd84049f	-0.06446194
38	0xbe545101	-0.20734026
39	0xbd6166e9	-0.055029783
40	0xbe02842e	-0.12745735
41	0xbe282302	-0.16419604
42	0xbdb65be5	-0.08904246
43	0xbe3858fe	-0.18002698
44	0xbdd72b31	-0.10506285
45	0x3e098812	0.13430813
46	0x3e97ee90	0.29674196
47	0x3e89c295	0.26906267
48	0x3e33638f	0.17518447
49	0x3df12253	0.11774125
50	0x3da7802a	0.08178742
51	0x3e15968f	0.14608215
52	0x3caf8745	0.021426806
53	0x3e04a7ec	0.12954682
54	0x3d4cf16e	0.050034933
55	0x3e4d4acc	0.20048064
56	0x3e309cba	0.17247286
57	0x3e7f6fe5	0.24945028
58	0x3de9fdb9	0.11425347
59	0x3e5e01cd	0.21680374
60	0xbe87188c	-0.26385915
61	0xbdc8dd66	-0.098078534
62	0xbe64a304	-0.2232781
63	0xbe0d895d	-0.13821931
64	0xbdd49e94	-0.10381809
65	0xbe727027	-0.23675595
66	0xbe11414d	-0.14185067
67	0xbc63848a	-0.01388658
68	0xbdf2351e	-0.118265375
69	0xbdfe46fa	-0.124158815
70	0x3c20b8fc	0.009809729
71	0xbdac20ac	-0.08404669
72	0xbe2ecde8	-0.17070735
73	0xbe1b7563	-0.15181498
74	0xbe1f57ce	-0.15560839
75	0x3e300bcb	0.17191999
76	0xbc795927	-0.0152190095
77	0x3d8fd514	0.07023063
78	0x3e553b5b	0.20823424
79	0xbe753390	-0.23945451
80	0x3e9dc25a	0.3081234
81	0xbe0e9075	-0.13922293
82	0x3e1bd97f	0.15219687
83	0xbde09544	-0.1096597
84	0x3e8b443d	0.272005
85	0xbe525896	-0.20541605
86	0x3e8521af	0.2600226
87	0xbe2bcc8e	-0.1677725
88	0x3dd58ed1	0.10427631
89	0x3d01d346	0.031695627
90	0xbd5a49c8	-0.05329302
91	0x3e5e140e	0.21687338
92	0xbe34ad48	-0.17644227
93	0x3e8d91b7	0.27650234
94	0xbe49c794	-0.1970504
95	0x3dfba61b	0.122875415
96	0xbea97827	-0.3309948
97	0x3e025789	0.12728705
98	0xbe59ed26	-0.21281871
99	0x3e35bf0b	0.17748658
100	0xbe3c165e	-0.18367907
101	0x3e5bdeae	0.21471664
102	0xbd78c6a2	-0.060736306
103	0x3d466634	0.048437312
104	0xbc0671be	-0.008205829
105	0x3de34917	0.11097925
106	0x3d6fc0fd	0.058533657
107	0x3dcc0a17	0.09962862
108	0x3dabe4ff	0.08393287
109	0x3dedfe50	0.11620772
110	0x3ddd155b	0.10795089
111	0x3cf1deef	0.029525248
112	0x3e963bf8	0.29342628
113	0x3e1a1eca	0.15050808
114	0x3e63ae15	0.22234376
115	0x3dab80f8	0.08374208
116	0x3e1ce42b	0.15321414
117	0x3d9de275	0.07709209
118	0x3e1f9fcc	0.15588301
119	0x3d49ca57	0.049265232
120	0xbe4c4fa4	-0.19952255
121	0xbe8980dc	-0.26856124
122	0xbea87cba	-0.3290766
123	0xbe3252a0	-0.17414331
124	0xbe4ae20c	-0.19812793
125	0xbe2c0de7	-0.16802178
126	0xbe8402e9	-0.2578347
127	0xbb6a8b38	-0.0035788547
128	0xbe2faac0	-0.1715498
129	0xbdd017ed	-0.101608135
130	0xbe57b014	-0.21063262
131	0xbe0b8bb6	-0.13627514
132	0xbe507377	-0.20356546
133	0xbe112e23	-0.14177756
134	0xbe33a872	-0.17544726
135	0xbe02095d	-0.12698884
136	0xbd9f23bc	-0.07770488
137	0xbe88242d	-0.265901
138	0xbd7b791f	-0.061394807
139	0xbdc54349	-0.09631974
140	0xbdd443c7	-0.1036449
141	0x3c76c2bd	0.015061078
142	0xbe5b62e1	-0.21424438
143	0xbd9653c7	-0.07340198
144	0xbca76699	-0.020434665
145	0xbe662069	-0.22473301
146	0xbcc6b590	-0.024256498
147	0xbe248fbd	-0.16070457
148	0xbe77ea1e	-0.24210402
149	0xbe24bb4a	-0.1608707
150	0xbe1ffc3c	-0.15623564
151	0xbde356f1	-0.11100567
152	0xbe19ab28	-0.15006697
153	0xbd3dbdd3	-0.04632361
154	0xbde36400	-0.11103058
155	0xbdb53e9e	-0.08849834
156	0x3ca21ffb	0.01979064
157	0xbd8aaae2	-0.067708746
158	0x3d41093a	0.04712794
159	0xbdf4b900	-0.119493484
160	0x3d281ce0	0.041043162
161	0xbd6c6664	-0.057714835
162	0x3d27a60b	0.040929835
163	0xbcceef8c	-0.02526071
164	0x3d61ece7	0.05515757
165	0x3ec3b810	0.38226366
166	0x3e38967b	0.18026154
167	0x3ea2ff62	0.31835467
168	0x3e6ceefb	0.23138039
169	0x3d97636d	0.07392011
170	0x3e333aa1	0.17502834
171	0x3e2c0605	0.16799171
172	0x3d94c6fc	0.07264516
173	0x3e7212a3	0.23639922
174	0x3dc147b8	0.094375074
175	0x3e1a90d8	0.15094316
176	0x3e187dbb	0.14891712
177	0x3d079fdc	0.03311144
178	0x3e024be5	0.12724264
179	0x3e1efd31	0.15526272
180	0x3eb53ab7	0.35396358
181	0x3e239743	0.1597567
182	0x3e7c7a02	0.24655917
183	0x3e8416f0	0.2579875
184	0x3e0742c7	0.13209067
185	0x3d76cb0a	0.060252227
186	0x3e0ae7be	0.13564965
187	0xbe0e8c36	-0.13920674
188	0x3e087b13	0.13328199
189	0xbd3018e2	-0.04299248
190	0x3d6e6f01	0.05821133
191	0xbd7a13e4	-0.061054125
192	0x3dd67341	0.10471202
193	0xbdf54ca0	-0.11977506
194	0x3e1bf90a	0.1523172
195	0x3dfbf77a	0.12303062
196	0xbe6c23bb	-0.23060505
197	0x3e7e1726	0.24813518
198	0xbe8db9f7	-0.27680942
199	0xbc2f1a17	-0.010687373
200	0x3e20e6a7	0.15712987
201	0xbe262f36	-0.16228947
202	0x3e4900de	0.19629237
203	0xbd9d4eaf	-0.07681023
204	0x3ca76793	0.02043513
205	0xbe51552f	-0.20442651
206	0x3cec8714	0.028873004
207	0xbd01385d	-0.031547893
208	0x3e549593	0.20760183
209	0xbdeae3f4	-0.1146926
210	0x3e5f2db4	0.21794778
211	0xbe89c577	-0.26908466
212	0x3e2da25b	0.16956465
213	0xbe462dfd	-0.1935348
214	0x3e05242d	0.13002081
215	0xbe7d3444	-0.24726969
216	0x3e762e62	0.24041131
217	0xbe4e735b	-0.20161192
218	0x3e87a5cb	0.26493677
219	0xbe1bbc4f	-0.15208553
220	0xbc807ee9	-0.015685515
221	0x3da35089	0.07974345
222	0xbd88e9a9	-0.06685192
223	0xbd17fb08	-0.037104636
224	0xbc4fa5b1	-0.012673781
225	0x3dfd2e4f	0.12362348
226	0x3e826978	0.2547109
227	0x3e46aff8	0.19403064
228	0x3d9eb9be	0.07750271
229	0x3e06fc63	0.13182215
230	0x3dee0834	0.11622658
231	0x3d61f06d	0.05516093
232	0x3e716602	0.23574069
233	0x3c113591	0.008862869
234	0x3e41944c	0.18904227
235	0x3e307834	0.17233354
236	0x3ddbf14e	0.107393846
237	0xbcecd56a	-0.028910358
238	0x3e0f3039	0.13983239
239	0xbd47ab35	-0.04874726

model.fe.1.weight f4 [16, 16, 1, 1]
0	0xbe00dfca	-0.12585369
1	0xbe154c5c	-0.1457991
2	0x3e4bef2e	0.19915459
3	0xbe8f47ea	-0.27984554
4	0xbc2d5928	-0.010580339
5	0x3c8c7640	0.01714623
6	0x3d3dbf05	0.04632475
7	0xbe0c04b7	-0.13673674
8	0x3e5506ed	0.20803423
9	0xbdf71e2d	-0.120663024
10	0x3e28ff00	0.16503525
11	0x3e7d9ec4	0.24767596
12	0x3d51e40f	0.051242884
13	0xbd97360d	-0.07383356
14	0xbdcfa37c	-0.10138604
15	0x3d443829	0.04790512
16	0x3e69ed64	0.22844464
17	0x3c9be014	0.019027747
18	0xbdfeb2ce	-0.12436448
19	0x3e496f47	0.19671355
20	0x3e3a6178	0.18201244
21	0x3e5b4840	0.2141428
22	0xbc0b5a2f	-0.008505388
23	0xbb20d23e	-0.0024539377
24	0xbe64f650	-0.22359586
25	0x3db77a0d	0.08958826
26	0x3d5136f6	0.051077805
27	0xbe8185ff	-0.25297543
28	0xbdbf81ef	-0.09350955
29	0xbc9e7613	-0.019343412
30	0x3e782c75	0.24235709
31	0xbe2f587d	-0.171236
32	0xbda6d0f9	-0.08145327
33	0xbdd6d92c	-0.10490641
34	0x3e5240f4	0.2053259
35	0xbe670d57	-0.22563682
36	0x3d59f94a	0.053216256
37	0xbe197ec4	-0.14989763
38	0xbe824b5a	-0.25448114
39	0xbe366d0d	-0.17815037
40	0x3e1d3649	0.1535274
41	0xbdfb00a0	-0.122559786
42	0xbc89ccef	-0.016821353
43	0x3e848819	0.25885084
44	0x3e14baee	0.14524433
45	0x3dc4df56	0.096129104
46	0x3dd866bf	0.10566472
47	0x3d91d296	0.07120244
48	0xbcc13476	-0.023584586
49	0xbdfe15ee	-0.124065265
50	0x3e5d853a	0.21632853
51	0xbe2c7297	-0.16840588
52	0xbdae57ca	-0.08512838
53	0xbe19b34d	-0.15009804
54	0xbec03e8c	-0.3754772
55	0xbdddee8a	-0.10836513
56	0x3e8f83b0	0.28030157
57	0xbe40b7de	-0.1882014
58	0x3d00b5e9	0.031423483
59	0x3e89284d	0.2678856
60	0x3e2fc864	0.17166287
61	0x3e0aea03	0.13565831
62	0x3dfe2884	0.124100715
63	0x3c99f68a	0.018794317
64	0x3e543988	0.20725071
65	0x3b83c77f	0.0040215845
66	0xbdd257f7	-0.10270684
67	0x3dda5e2d	0.10662494
68	0x3e2d3e6d	0.16918345
69	0xbe011043	-0.1260386
70	0xbcae82e5	-0.02130265
71	0x3e3f7cbf	0.1869993
72	0xbdd76f6a	-0.105192974
73	0x3d61e8b9	0.055153582
74	0xbe51fc59	-0.20506419
75	0xbdbcffea	-0.09228499
76	0xbe2db583	-0.16963772
77	0x3c688a50	0.0141931325
78	0xbd846248	-0.06464058
79	0xbe1b46bd	-0.15163703
80	0xbddac6f5	-0.10682479
81	0xbd0309da	-0.031991817
82	0x3e39aa67	0.1813141
83	0xbe4aeba7	-0.19816457
84	0xbd547ca0	-0.051876664
85	0x3d3b4c29	0.04572693
86	0x3e36a259	0.17835368
87	0xbda2523b	-0.079258405
88	0x3e040818	0.12893713
89	0xbda401b2	-0.08008136
90	0x3e0dd7ef	0.13851903
91	0x3e1fbf0a	0.1560022
92	0x3d862f8c	0.065520376
93	0xbde59626	-0.11210279
94	0xbe065e1e	-0.1312184
95	0x3d049173	0.032365274
96	0xbdf9dd29	-0.12200386
97	0x3b372a70	0.0027948879
98	0x3df42a4b	0.11922129
99	0xbdd7113b	-0.10501333
100	0x3db11483	0.086464904
101	0xbe768329	-0.24073471
102	0xbe34984c	-0.17636222
103	0xbe67f9fe	-0.22653958
104	0x3d58e1d2	0.052949734
105	0x3dae4d96	0.08510892
106	0x3e82c130	0.25538015
107	0x3d9e2a27	0.07722884
108	0x3e916e7c	0.28404605
109	0x3dec83d4	0.11548582
110	0x3e2319f0	0.15927863
111	0x3e82aed6	0.25524014
112	0x3e6a97e9	0.22909512
113	0x3dea0f3d	0.11428688
114	0xbe741c8a	-0.23839012
115	0x3e078763	0.1323524
116	0x3e41cff0	0.18926978
117	0xbe4f8f2c	-0.2026946
118	0xbd1602e5	-0.036623854
119	0x3dad9bf6	0.08477013
120	0xbe0f4b64	-0.13993603
121	0x3ded4728	0.115858376
122	0xbd18f84c	-0.03734617
123	0xbdaa3742	-0.08311321
124	0xbe51b5db	-0.20479529
125	0x3da60c4f	0.081078164
126	0xbe08f157	-0.13373314
127	0xbe307d2c	-0.1723525
128	0x3dcba599	0.099436946
129	0x3e4246a8	0.18972266
130	0xbe0e0ace	-0.13871309
131	0x3e5d62cb	0.21619718
132	0x3e7e2ed1	0.24822547
133	0xbe72dd3e	-0.2371721
134	0xbd9361cc	-0.07196388
135	0x3daa2970	0.08308685
136	0xbe40ec8b	-0.18840234
137	0x3dfa60e5	0.122255124
138	0xbd3da05f	-0.04629552
139	0xbd94fa4c	-0.07274303
140	0xbe7d531f	-0.2473874
141	0x3debd32d	0.11514888
142	0xbe8dacf3	-0.27671012
143	0xbdf5a8c2	-0.119950786
144	0x3e37f1ae	0.17963287
145	0xbc1915e2	-0.009343596
146	0xbe0dd5e3	-0.13851123
147	0x3e37d692	0.17952946
148	0x3e199b13	0.15000562
149	0x3e4a1e75	0.19738181
150	0xb95c426f	-0.00021005583
151	0x3d2a1927	0.041527893
152	0xbe359b9b	-0.1773514
153	0x3d6bc9d6	0.057565533
154	0x3d887bbe	0.06664227
155	0xbe5b5f68	-0.21423113
156	0xbdb0aaaa	-0.086263016
157	0xbd2b34e7	-0.0417985
158	0x3e712348	0.23548615
159	0xbdf8cf29	-0.12148888
160	0xbd10e340	-0.035372972
161	0xbe3acc81	-0.18242075
162	0x3df6e7f4	0.1205596
163	0xbe77b5fc	-0.24190515
164	0xbb11bdda	-0.0022238404
165	0xbe4719ba	-0.19443408
166	0xbe8fd41d	-0.28091517
167	0xbe40ce0d	-0.18828602
168	0x3e9d8138	0.3076265
169	0xbe25affc	-0.16180414
170	0xbe0c4ab1	-0.13700368
171	0x3e6826b3	0.22671013
172	0x3e2b25bd	0.16713615
173	0x3dce8aac	0.10085043
174	0x3e1c4199	0.15259399
175	0x3e4282a7	0.18995152
176	0xbd43ae3f	-0.047773596
177	0xbd8eb58f	-0.06968223
178	0x3e576c46	0.21037397
179	0xbe405ec7	-0.18786155
180	0xbd99816b	-0.07495388
181	0x3e3493ee	0.17634556
182	0x3e5aae44	0.2135554
183	0xbdbb66c6	-0.09150462
184	0x3e53e20b	0.20691697
185	0xbea44309	-0.32082394
186	0x3db5771a	0.088606074
187	0x3e8aac60	0.27084637
188	0xbdc5f4de	-0.09665845
189	0xbe409461	-0.18806602
190	0xbe6df191	-0.23236682
191	0xbcc7f577	-0.024409039
192	0xbe6af547	-0.22945128
193	0xbdfab19b	-0.12240907
194	0x3e1b6da0	0.15178537
195	0xbe1c763b	-0.15279476
196	0x3d229d2f	0.039700683
197	0xbde11a96	-0.10991399
198	0xbea0c414	-0.31399596
199	0xbe6c63fc	-0.23085016
200	0x3e7948fd	0.24344249
201	0xbdc029c7	-0.093829684
202	0xbdd0d8cd	-0.101976015
203	0x3e6591a2	0.22418836
204	0x3d849468	0.06473619
205	0x3dd5caad	0.10439048
206	0x3d9dd65f	0.07706904
207	0x3d446a2e	0.047952823
208	0xbe7ebc31	-0.24876477
209	0x3ce4d873	0.027935242
210	0x3da89975	0.082323946
211	0xbe2b64c3	-0.16737656
212	0xbd860f85	-0.06545929
213	0xbe0e26ea	-0.13882032
214	0xbdc996cf	-0.098432176
215	0xbe56bce1	-0.20970489
216	0x3e545364	0.20734936
217	0xbc3168d4	-0.010828216
218	0x3dd0db87	0.101981215
219	0x3d4a2561	0.049352054
220	0x3e17ffd7	0.14843689
221	0x3dab56a4	0.08366135
222	0x3d9eba18	0.07750338
223	0x3e0c10c2	0.13678268
224	0xbe1cc0a7	-0.15307866
225	0x3cd60c27	0.026128842
226	0x3de99911	0.11406148
227	0xbe12bb95	-0.1432937
228	0xbd61ca2f	-0.055124458
229	0xbe116e70	-0.14202285
230	0xbe9717b0	-0.2951026
231	0xbe69376a	-0.22775045
232	0x3e784767	0.24245988
233	0xbd83fee1	-0.06445099
234	0x3cf6c0f0	0.030121297
235	0x3e6694b4	0.22517663
236	0x3de58ae9	0.11208136
237	0x3df38c88	0.118920386
238	0x3dfdd77f	0.12394618
239	0x3d043438	0.032276362
240	0x3e06bc38	0.13157737
241	0x3ca33cef	0.019926516
242	0xbe8b967c	-0.27263248
243	0x3d8c707b	0.068573914
244	0x3d980397	0.0742256
245	0xbe920d93	-0.2852598
246	0xbd8231c7	-0.063571505
247	0x3d83fe58	0.064449966
248	0xbe4d2b3a	-0.20036021
249	0x3e272ffd	0.163269
250	0x3d507918	0.050896734
251	0xbdaaa5a0	-0.08332372
252	0xbe8b785e	-0.2724027
253	0x3e0ea371	0.13929535
254	0xbe800ea6	-0.25011176
255	0xbdca9eb0	-0.098935485

model.fe.2.weight f4 [16]
0	0x3fac016d	1.3437935
1	0x3fc993bd	1.5748211
2	0x3fad2253	1.35261
3	0x3fb1957b	1.3873743
4	0x3fbe02d5	1.4844614
5	0x3fa1b870	1.2634411
6	0x3fa80e86	1.3129432
7	0x3fd2bd78	1.6464071
8	0x3fc7370d	1.5563675
9	0x3fc75e47	1.5575646
10	0x3fb18db7	1.3871373
11	0x3fb47caa	1.4100544
12	0x3fa9c53f	1.326332
13	0x3fa65fab	1.2997946
14	0x3fb39bdb	1.4031938
15	0x3fcda670	1.6066418

model.fe.2.bias f4 [16]
0	0xbdc78420	-0.09741998
1	0xbd27f62f	-0.041006263
2	0xbdd28589	-0.10279376
3	0xbdd16d2f	-0.10225903
4	0x3cacfc39	0.021116363
5	0xbdbf913f	-0.09353875
6	0xbe2ecd9e	-0.17070624
7	0xbc41d96d	-0.0118316235
8	0x3d3996de	0.045309894
9	0x3ce150f0	0.027504414
10	0xbda84656	-0.082165405
11	0xbdf43f64	-0.11926153
12	0xbdd0d949	-0.10197694
13	0xbddd6a32	-0.10811271
14	0xbd9edc36	-0.07756846
15	0x3db55712	0.08854498

model.fe.2.running_mean f4 [16]
0	0x3cb7e557	0.022448225
1	0x3e17b45f	0.148149
2	0xbcbda519	-0.023150014
3	0xbc0c3b84	-0.0085591115
4	0x3cb82897	0.022480292
5	0x3cf3e3b7	0.029771669
6	0xbdb2f419	-0.08737964
7	0xbc73579a	-0.014852429
8	0xbbba621f	-0.0056879665
9	0x3ddbc0aa	0.10730107
10	0xbd5f1ba4	-0.05446972
11	0x3deb58bb	0.11491533
12	0xbcd686ea	-0.026187379
13	0xbd937965	-0.072008885
14	0xbd0fcc10	-0.03510672
15	0xbdf3552d	-0.1188148

model.fe.2.running_var f4 [16]
0	0x3d74397e	0.05962514
1	0x3da4badd	0.08043454
2	0x3dbbe8e5	0.091752805
3	0x3e0d3dc5	0.13793094
4	0x3d3f12ab	0.046648663
5	0x3d47631e	0.04867851
6	0x3df149fc	0.117816895
7	0x3dafdc49	0.08586938
8	0x3dfd3dbe	0.12365292
9	0x3d7e15e0	0.06203258
10	0x3e0c2f0d	0.13689823
11	0x3e100b6e	0.1406686
12	0x3ddb2fb3	0.10702457
13	0x3d8f2623	0.06989696
14	0x3dce9822	0.10087611
15	0x3dfc6465	0.12323836

model.classifier.0.weight f4 [1, 16]
0	0x3ef8f415	0.4862372
1	0xbf0b9436	-0.54523027
2	0x3f298304	0.6621554
3	0x3f36ec9e	0.714548
4	0xbf0a0ffc	-0.5393064
5	0x3f110448	0.5664716
6	0x3f3770f1	0.7165671
7	0xbf1403b4	-0.5781815
8	0xbf3ea6b5	-0.74473125
9	0xbf27b094	-0.6550381
10	0x3f10b364	0.5652373
11	0x3f19ab89	0.60027367
12	0x3f44d8d9	0.76893383
13	0x3f132808	0.5748296
14	0x3f22c706	0.63584936
15	0xbee683da	-0.4502247
