eeg_online/lightning_logs/lee_source/version_7/checkpoints/epoch=99-step=8300.ckpt (torch, 63818 bytes, 50 tensors)

model.input_block.1.weight f4 [40, 1, 1, 25]
00000000: 6333 303e 0bd1 a03e 5687 dd3c 590c b8b9
00000010: 870f 693c a4bb bd3d 1a8e a6bb 5e95 083e
00000020: ca9e 52bd 3984 c23c ed36 96bd 1171 c8bc
00000030: 3687 11be 3d2f 57bd 1cf7 603c aa1d c93d
00000040: 8a0a 143e dba5 1a3e 7dcb 06be 2a90 aebd
00000050: 6ef2 dd3d 78cb 893e 0e95 123e cd54 cc3e
00000060: e4c2 753e c2b4 46bd 8222 663d 08ed adbe
00000070: 2c91 90be 4d9a 40be 3195 3ebe b08a bd3d
00000080: d3a9 43be 7b5e 14be 8317 41be ba2d 6abe
00000090: a15a 0fbe e5c9 383e 873a 0d3e 9952 3b3e
000000a0: d917 f23d d679 373b 30a1 ea3d 8a33 11be
000000b0: b29b 09be 5aa6 f1bd 2d8e cb3d 86b6 b53d
000000c0: e614 f0bd 24a6 3cbd f4ac b03e d69a ab3e
000000d0: bd53 0e3e 6ce6 fb3c 0f58 e93d b23f 03be
000000e0: da37 7e3d 0793 aabd e32f cabc 0ea8 073d
000000f0: 9432 643e fbc2 3d3e 352f 5ebd 1dc4 ae3d
00000100: 8d14 de3d 94b6 0abd b609 1d3c 1550 8f3d
00000110: 0e72 2d3e 11dd 7b3e 7913 edbd 900f a2bd
00000120: faa1 a13b e21d 283c 91d0 8abd de72 e0bd
00000130: c438 51be 9f10 b4be 7142 b0bd 2e5c 2ebe
00000140: bedd 4cbe 3421 2c3e a4bb 033e 37f5 77be
00000150: 2e10 9bbc 081b bcbd 0df7 a6bd f65e ffbd
00000160: a07c 6f3d 2f63 07be 59d6 473d 9fb4 513d
00000170: e2db 763d e968 1cbd b589 a7be c3ad 81be
00000180: 60f7 ff3b 8368 0e3c c9e0 dfbd 4598 973c
00000190: 0f39 753e 324c 393e 435a 41bd 10d0 96bc
000001a0: a4a3 2bbe cc1c 603c a95a 05be 8338 f8bd
000001b0: 003a 1f3d 0d88 bb3d fada aebc d63f 263e
000001c0: 1f37 e1bd 3fae 1c3e 828b 963d 1442 80be
000001d0: 2059 03be fd01 42bd a560 9d3b 9c50 553d
000001e0: 07d1 c53d fc04 9f3c 1284 02be 7a19 013c
000001f0: 4e35 aebe 9b33 e43d 581d 8b3d 6f81 b0bd
00000200: 9fda 12be 340d 92be 7af6 2cbe 0735 60bd
00000210: 03e0 3cbe 012d dbbc af29 143e 3ead e5bc
00000220: ed1f 1dbd eb9f efbd 15de f2bd 9368 95bd
00000230: 8e5f 8abc 9899 37bd f5a5 ab3d 2fd5 3bbd
00000240: 5e59 1bbe 084f 22bd 075b 383e 5ade 02bc
00000250: 6961 41be 80af aebe 5eae abbe 7515 58be
00000260: 9e43 193c db78 6a3e df5b 873e d0bf 0fbd
00000270: 1eea 813e 6426 96bd 68c4 88bb b516 95bd
00000280: 5876 1ebd 13a5 e8bc 9213 15be 1971 edbd
00000290: d285 193d a3c1 863d d335 4ebd b6ae aa3d
000002a0: bc18 50be fd66 65bd cca5 063e 561b e3bd
000002b0: 560d 383e 210a dd3d 518e dabd 30c3 c0bd
000002c0: e153 2cbe 9972 16be ed4f 393e 768a b3bd
000002d0: 5584 e83d 20b6 113d a3d1 3b3e 33d1 533d
000002e0: de5c 593d 59a1 6c3b d73a fdbd be2e edbd
000002f0: 4bb8 6ebe cc78 393d 21d5 c73d 8c4a 933d
00000300: 0ad9 5cbe 41a9 a2bd 1c35 7abe 1a96 68be
00000310: 5b31 74be c0fc 1fbd 7091 3bbe 4cd2 673b
00000320: 02aa bc3c e7f9 db3d 9a8a 4abe 2de3 4abe
00000330: d451 3cbe 3cc1 8b3d 3f34 16be 84f9 ba3d
00000340: cd5f 89bb 6970 2dbd c223 4dbd be7f 7ebd
00000350: d0ac db3c 6137 fbbc 7627 0b3c f1c2 473c
00000360: 0203 4fbe 1a22 36be 74f8 a03d 5298 6bbe
00000370: 5f7b 2dbd c948 643e e0bb 193e ce4f 033e
00000380: d6c6 92bc 043e 5f3d 51d9 68be 2202 2dbe
00000390: ccbd 47be 69e7 27be 6508 03be 9e59 4d3d
000003a0: cc1e 90bd acb3 ce3d b32a 703d c4a7 34be
000003b0: b8e8 503d c0ea 31be 5272 ebbd 4b11 e63c
000003c0: 4ba4 093d e58e ed3d 433e c7bd 6608 d9bc
000003d0: 3dfd af3d f9fd 4bbe 30c9 173e 0c07 1fbe
000003e0: 0fb9 6d3c ea53 cbbc 9493 d9be 25a6 41be
000003f0: 0d9e 7d3d 2467 7fbd 0d66 46bd 2439 113d
0.17207102 0.31409487 0.027042072 -0.00035104415 0.014224893 0.09264305 -0.005082858 0.13338229
-0.051420964 0.02374469 -0.07334695 -0.024467977 -0.14211735 -0.052535284 0.0137307905 0.09820111
0.14457145 0.15102331 -0.13163562 -0.08523591 0.108372554 0.26913047 0.14314672 0.39908448
0.24000126 -0.048512228 0.056185253 -0.33969903 -0.28235757 -0.18808861 -0.186116 0.09254968
-0.19107752 -0.14489166 -0.18856625 -0.22869006 -0.13999416 0.18045767 0.13791858 0.18293227
0.11820955 0.0027996204 0.11456525 -0.14179817 -0.134383 -0.11799307 0.09939227 0.08872704
-0.11722736 -0.04605688 0.34506953 0.33516568 0.13899131 0.030749522 0.11393749 -0.12817267
0.062064983 -0.083288245 -0.024681037 0.033119254 0.22284919 0.1853141 -0.05424424 0.085334994
0.108437635 -0.033865526 0.009584835 0.06997696 0.1693804 0.24596049 -0.1157598 -0.079131246
0.004932639 0.010261031 -0.06778062 -0.10959409 -0.2043181 -0.3516893 -0.08606423 -0.17027351
-0.20006463 0.16809541 0.12864548 -0.24214636 -0.018928614 -0.09184843 -0.0815259 -0.12469284
0.05846846 -0.1322143 0.048788402 0.051197644 0.06026829 -0.038185988 -0.3272225 -0.25327882
0.007811472 0.00869191 -0.10931546 0.018505225 0.23947547 0.18095472 -0.04720522 -0.018409759
-0.16761643 0.013678741 -0.13022865 -0.12120154 0.038873672 0.09156809 -0.02134465 0.16235289
-0.10996842 0.15300845 0.07350828 -0.25050414 -0.12826967 -0.047365177 0.0048027807 0.05207883
0.096590094 0.019411556 -0.12745693 0.007879609 -0.34025043 0.111426555 0.06792706 -0.086184375
-0.1434121 -0.28525698 -0.16890898 -0.05473807 -0.18444829 -0.026754858 0.14469026 -0.02803671
-0.038360525 -0.11700424 -0.11858765 -0.072953366 -0.016891267 -0.044824213 0.08381263 -0.045857605
-0.1517081 -0.03962615 0.18003474 -0.007987583 -0.18884815 -0.3411827 -0.3353147 -0.21101935
0.0093545 0.22897665 0.2643728 -0.035095036 0.2537393 -0.07331541 -0.004173804 -0.07279722
-0.03868708 -0.028399026 -0.14558247 -0.11593837 0.037481137 0.06579902 -0.0503443 0.08334105
-0.20321935 -0.05600642 0.13149184 -0.11089198 0.17973837 0.107929476 -0.10671676 -0.09412229
-0.16828872 -0.14692153 0.18096896 -0.08766644 0.11353365 0.03557408 0.18341689 0.05171318
0.05306708 0.0036106913 -0.123647384 -0.11581181 -0.2331249 0.045281217 0.09757448 0.07191953
-0.21567169 -0.07942439 -0.24434322 -0.22713509 -0.23846953 -0.0390594 -0.18317199 0.003537315
0.023030285 0.107410245 -0.19779435 -0.19813223 -0.1839059 0.06823966 -0.14668368 0.091296226
-0.0041923285 -0.04234353 -0.05008293 -0.062133543 0.026815802 -0.030666055 0.008493295 0.012192474
-0.20215991 -0.17786446 0.07859889 -0.23007324 -0.042353984 0.2229339 0.15013075 0.12823412
-0.017917078 0.054502502 -0.2273915 -0.16895345 -0.19505996 -0.1639687 -0.12796171 0.050134294
-0.07037124 0.100928634 0.05863447 -0.17642123 0.051003188 -0.17374706 -0.11496414 0.028084418
0.033603948 0.115995206 -0.09728672 -0.026493262 0.08593223 -0.19921102 0.1482284 -0.15530032
0.014509453 -0.024820287 -0.42495406 -0.18911035 0.061918307 -0.062354222 -0.048437167 0.035454884

model.input_block.2.weight f4 [40]
00000000: 7a48 8f3f ae86 8e3f 3654 863f 362f 8e3f
00000010: b6cf 803f 2dda 843f e76d 823f 95e1 883f
00000020: 22c7 7f3f 900c 7e3f 2239 883f 419b 933f
00000030: eac2 923f cde4 8e3f b4e5 803f 6150 893f
00000040: a7ea 903f 8be6 8b3f 6ad0 873f d6bb 843f
00000050: ef1f 7c3f 51f4 813f 112d 873f 99b9 863f
00000060: ade0 813f b110 773f f506 8c3f cdb4 763f
00000070: 5c6e 863f 30a4 9d3f 59db 953f 71f7 763f
00000080: a28e 933f fe62 863f 3f3c 853f 78ce 843f
00000090: cf31 683f b00b 863f 18b4 9f3f 3d73 8c3f
1.1193993 1.1134851 1.0494449 1.1108158 1.0063388 1.0379082 1.018979 1.0693842
0.9991323 0.9923792 1.0642436 1.1531755 1.1465733 1.1163574 1.00701 1.0727655
1.132161 1.0929731 1.0610478 1.0369823 0.98486227 1.0152684 1.0560628 1.052539
1.0146691 0.96509844 1.0939623 0.9636963 1.0502429 1.2315731 1.1707565 0.96471316
1.1527903 1.049896 1.0409011 1.0375509 0.90701 1.0472317 1.2476835 1.0972668

model.input_block.2.bias f4 [40]
00000000: 08d4 7fbd ecc4 d5bc 3a05 6d3d 92d6 0b3d
00000010: bbf3 6ebd 162f fabc ac3d dabd 3938 8f3d
00000020: e8ba 94bc d0e7 c2bc cd40 c53c d68b 1cbe
00000030: d71c eb3c 9a69 9cbb 5fb6 1dbe a35e 593d
00000040: 5b4f dcbc 4af6 44bd 94cd 75bd 6162 43bc
00000050: 0e8b 563b 22ea af3b 4ade 32bd 10ea 85bd
00000060: 466c ee3d a722 e13d 6ab6 a13d b721 b2bd
00000070: 8d02 fe3b 51d6 e3bc 7877 ad3d 2877 c8bd
00000080: dd61 1b3d e0bf 02bd 8420 3d3c 4a33 cbbc
00000090: b28c 72bb 6faf 61bd fbd2 8dbd bc93 b2bc
-0.062458068 -0.026094876 0.057866313 0.034140177 -0.05833791 -0.03054003 -0.10656294 0.069931455
-0.01815553 -0.023792177 0.024078751 -0.15287718 0.028700275 -0.004773331 -0.154016 0.05306877
-0.026893308 -0.048086442 -0.060010508 -0.011925311 0.0032736692 0.005368487 -0.043669023 -0.065387845
0.11641745 0.109929375 0.07896121 -0.08697837 0.007751769 -0.027812155 0.084700525 -0.09788352
0.037935127 -0.031921268 0.011543397 -0.02480473 -0.003701013 -0.055098947 -0.06925007 -0.02179896

model.input_block.2.running_mean f4 [40]
00000000: dc64 97b0 b9a2 9431 b48d d7b1 36b0 b931
00000010: 3c5a 12b0 8265 7931 3ea5 d430 4fee 9730
00000020: 450e 8a31 14df 8331 4b29 9731 a26d a331
00000030: 0802 9731 cc81 0db1 284e 51b1 4283 c3b1
00000040: f2c5 64b1 36f8 e731 f812 dfb0 a828 6731
00000050: 65dc 20b0 4bc5 1431 e06b 1930 a19b d2b1
00000060: e82f d730 0b05 70b0 c8c1 9db1 fbae 6031
00000070: c777 8f31 5f74 96b1 a603 c9b1 db11 9e31
00000080: 5a1a b1b1 af3f 8cb1 6130 d730 510b 9e30
00000090: b26c a1b1 5f8b 1131 f07b e2b1 5a92 712f
-1.1015362e-09 4.3258663e-09 -6.2734333e-09 5.4042415e-09 -5.324272e-10 3.629197e-09 1.5471995e-09 1.1054427e-09
4.017951e-09 3.837963e-09 4.399373e-09 4.756388e-09 4.3949093e-09 -2.0591981e-09 -3.045793e-09 -5.6901692e-09
-3.3290886e-09 6.751203e-09 -1.6230777e-09 3.3638035e-09 -5.852086e-10 2.1648983e-09 5.5814375e-10 -6.1294974e-09
1.5656925e-09 -8.731866e-10 -4.5913318e-09 3.2695755e-09 4.175465e-09 -4.3788044e-09 -5.8502847e-09 4.600435e-09
-5.154374e-09 -4.0817763e-09 1.5657059e-09 1.1499229e-09 -4.698074e-09 2.11795e-09 -6.5915557e-09 2.1970817e-10

model.input_block.2.running_var f4 [40]
00000000: 8c84 522e 7c39 632e 637e a32d d929 c32d
00000010: b9b6 782d 2a92 8e2d 44ab a32d 7eda 392e
00000020: 5f06 6e2d 3e97 842d 7784 7d2d b780 c82d
00000030: 4011 562d 206b 012e bedc 1c2e 20a5 b62d
00000040: b97a 9b2d c963 572d f89a 552e 909e 132d
00000050: 105e 412d abb7 4b2d 2646 332e fb53 622d
00000060: d72e ac2d 43d4 9e2d 9b77 332d 0b14 002d
00000070: 49c5 892d 230e 782e 5be3 f62d 8f55 c12d
00000080: 3216 a72d 592b 2b2d 90dd 182e cd94 252e
00000090: eec0 892d 7465 712d d129 3d2e 69c1 a82d
4.7866197e-11 5.166488e-11 1.8587082e-11 2.2187517e-11 1.41377405e-11 1.620844e-11 1.8607012e-11 4.225819e-11
1.3530148e-11 1.5073828e-11 1.4410798e-11 2.2794528e-11 1.2168322e-11 2.942635e-11 3.5666352e-11 2.0764335e-11
1.767596e-11 1.2243492e-11 4.8568233e-11 8.3911905e-12 1.0991666e-11 1.15799965e-11 4.0762192e-11 1.286526e-11
1.9574937e-11 1.8056783e-11 1.020153e-11 7.280408e-12 1.5662709e-11 5.6401227e-11 2.8067928e-11 2.1979555e-11
1.8995559e-11 9.72985e-12 3.4757586e-11 3.7648818e-11 1.5660775e-11 1.3721791e-11 4.3010765e-11 1.918528e-11

model.input_block.3.weight f4 [40, 1, 20, 1]
00000000: e786 203e 5e8c 01bd 454e 103e 62f3 fdbd
00000010: c3d6 03bd 98da 9c3d 12bc bfbd 8d00 c5be
00000020: 6232 8ebd b242 a7bd 6e00 183e 8332 913d
00000030: bd2c c73d 5956 053e 8466 3abd 11c3 b43d
00000040: 9a21 8d3e 1e7e acbd 1fa7 3dbe 450e f3bc
00000050: 86d4 b33d 78c8 acbd d343 09be 36e3 6f3e
00000060: 6f30 abbd b46c 23be b87f dabd 15c4 1d3d
00000070: 2fc7 d1bd f648 343e 7451 8a3e 5259 40bd
00000080: 75e3 a93d 223b 323d 0cb7 c53b b28a c83d
00000090: 272b 36be 5102 c6bd b755 9ebe 8e1e 5b3e
000000a0: e53d 5cbe 453e 2b3e 980e 5ebe cacf 73bd
000000b0: 1c14 b83e e8d2 0cbd c2ed f93d fbba 103e
000000c0: a198 a8be 781e 0f3d 8ba8 04be 71ea 2abe
000000d0: 0c74 9bbc 8b8e 4d3e 18e2 46bd b96d 1f3d
000000e0: ca4c fa3d fb3e 053d fdaf 6f3d 910d bebd
000000f0: 6526 44bc 2a4c 323e 4357 383e d77d 813e
00000100: 368a 7ebe 460a 24be 6688 a4bc e0e3 d0be
00000110: 20ac 5d3c 8074 293e 76b5 1e3e 81b0 9cbb
00000120: 9b98 143d daf6 b33d 045e 163e 2358 97be
00000130: 655f 0dbe 97b2 97bd bc07 1b3e 7565 59bd
00000140: 9b96 e73d dba1 61be 1fa9 493c 567e 7cbd
00000150: a823 0c3e 00be 153e 68f5 b23d ff86 19be
00000160: 1dc5 8fbd 691a 00be d65f 99bc bf37 753e
00000170: 5460 c6bc 048e 843e 21bb 66bd 2648 23bd
00000180: a3c0 5a3d 4956 09be e3f5 ed3d fe3b 95bc
00000190: 7f9c 833c f332 ea3c c7f5 043e 1d29 ae3e
000001a0: 6b6f 123c c765 ca3d 202a 79ba 3687 36be
000001b0: e994 e63d a777 84bc aad3 2e3d ab4c 68be
000001c0: 1a42 45bd 6d1d 943e d571 22bd 31d7 43bd
000001d0: e797 2c3e 52d1 2abe e86c b7be 9b4a e33d
000001e0: 1fef 6dbd 3332 31be 9775 20be 78c5 b33d
000001f0: f9e5 0cbe e944 b0bd 57c5 e6bd 3289 adbd
00000200: 3cc2 73bb 2bcb 74bd 31d9 01be 64d2 223e
00000210: 6b40 8bbd a282 ce3e 9019 043e 3523 d2bc
00000220: c9d3 143c 4c0d b03d 29ec 8a3e 081e 29be
00000230: d5e2 1a3d 35a2 1b3e a64b 18be caff 563c
00000240: fe8c 9c3e d828 c3bd 051e 063e 383b 23be
00000250: 9e57 983d cabc 25be af0a 4e3e e9de a3be
00000260: 4d83 05be 1eff 3fbd e545 1c3e 5522 7bbe
00000270: 644a 533b 61bf 8f3e 9a00 96bd 214f b43d
00000280: 675c f6bd 0837 a53d be5f 833c 5083 5a3e
00000290: fc85 973e d83b 21be 5f9c 123e ed88 d8bc
000002a0: d76d 25be e72f 27be b0a1 52bd fb76 963e
000002b0: 4035 1cbd 7855 47bc fd9c c9bd 2885 d5bd
000002c0: cf8a 2bbc f49d e23b 7a92 67bc e683 dbbd
000002d0: 6239 0cbe 9856 15bc 09f2 2c3e 6897 29be
000002e0: ab67 033d 0e66 913b b472 0fbd 6c3b ba3e
000002f0: 116f a33e f040 5dbe 9cb5 4bbd 2150 0b3e
00000300: 65e5 c13c a595 173c 6cf1 4f3d ec01 febd
00000310: 5778 733d cc86 2bbe 5441 ca3c 701b debd
00000320: 31b7 903d 15e1 803e 3f6b ca3e 581d 3dbe
00000330: f446 07be a9f3 c63c e6a2 6cbe 1a96 ce3d
00000340: f4ad 033d ebb6 65bd 48e9 edbd a2c1 23be
00000350: b225 dc3d 7e96 cfbc 6ff1 72be c7ce 6cbe
00000360: 7176 6f3e ce78 fe3d 1409 56bc 5e87 c93d
00000370: 30c3 1b3e 180a a33b 88c5 a8bd f69e 91bd
00000380: 51eb 0ebe 5792 4fbb 6be3 02be aa77 c93d
00000390: 1d8f ce3d 74ed 81be aa6d 653e b1ff c53e
000003a0: e0e8 eabd 92f1 41bc 300f 9b3d a59b 41be
000003b0: b509 b6bc fa9e c73c 3de0 3e3e 6e10 61be
000003c0: 6d5c 72bd 83fb 873d 1a4e 943d 6fd6 adbe
000003d0: ccb5 46be 67e6 c9bd bdb3 13be 860d 093e
000003e0: b4f2 503e 21f1 05be e318 d4bc 4f09 aa3e
000003f0: f539 1b3e 9757 97be 10a4 383e 14d1 c23d
0.15676461 -0.031628005 0.14092357 -0.12399937 -0.032187235 0.07658881 -0.093620434 -0.38476983
-0.069432035 -0.08167018 0.14843914 0.070897125 0.0972533 0.1302122 -0.045507923 0.088262685
0.27564698 -0.084224924 -0.18520783 -0.02966989 0.0878077 -0.08436674 -0.13404779 0.23426518
-0.08358847 -0.15959436 -0.10668892 0.038517077 -0.102430694 0.17605957 0.2701527 -0.046960182
0.08295337 0.043513425 0.006033784 0.09792079 -0.17789899 -0.096684106 -0.3092477 0.21398374
-0.21507986 0.16722973 -0.21685255 -0.059524335 0.35952842 -0.034380823 0.12203552 0.14133827
-0.32928947 0.034941167 -0.12954919 -0.16690995 -0.018976234 0.20073907 -0.048555464 0.038923
0.122216776 0.032530766 0.058517445 -0.09279931 -0.011972045 0.17411867 0.18002038 0.2529132
-0.24857411 -0.16019544 -0.020084571 -0.40798855 0.013529807 0.16548347 0.1549891 -0.004781783
0.03627835 0.087873176 0.14684302 -0.2955943 -0.13805921 -0.0740711 0.15139669 -0.053075273
0.113080226 -0.22034399 0.012308388 -0.06164392 0.13685477 0.1462326 0.08738214 -0.14992903
-0.07020018 -0.12510075 -0.018722456 0.23947047 -0.024215855 0.258896 -0.056330804 -0.039863728
0.05340637 -0.13411821 0.11619165 -0.018217083 0.016065834 0.028588748 0.12984382 0.34015742
0.008937697 0.09882694 -0.00095048733 -0.17825016 0.11258871 -0.016170336 0.042682327 -0.22685497
-0.048158742 0.289287 -0.03965934 -0.047812644 0.16854821 -0.16681412 -0.35825276 0.11098214
-0.05808937 -0.17304306 -0.15669857 0.087778986 -0.13759603 -0.086068936 -0.11268108 -0.084734336
-0.003719463 -0.05976407 -0.12680508 0.1590057 -0.06799396 0.4033404 0.12900376 -0.025651554
0.009083697 0.08596286 0.271333 -0.16515362 0.03781398 0.15198596 -0.14872608 0.013122508
0.30576319 -0.09529275 0.13097389 -0.15940559 0.07438587 -0.16185299 0.20121263 -0.32006004
-0.13038369 -0.046874158 0.15261038 -0.24524815 0.0032240385 0.28075698 -0.073243335 0.08804155
-0.12029343 0.08067137 0.016036864 0.21339154 0.2959441 -0.15745485 0.14317463 -0.026432479
-0.16155182 -0.16326867 -0.05142373 0.2938765 -0.03813672 -0.012166373 -0.09844396 -0.10425788
-0.010470106 0.006915802 -0.014134044 -0.10718517 -0.13693765 -0.009114884 0.16889204 -0.16561663
0.032081287 0.0044372147 -0.0350215 0.3637346 0.31920674 -0.21606803 -0.049733743 0.13604786
0.023668954 0.009251987 0.050767347 -0.1240271 0.059440937 -0.1675064 0.024689354 -0.10845077
0.07066191 0.25171724 0.39534947 -0.18468225 -0.1321066 0.024286108 -0.23109016 0.10087223
0.032148317 -0.056082647 -0.116167605 -0.15991834 0.10749377 -0.025340315 -0.23724912 -0.23125754
0.23385026 0.124253854 -0.013063688 0.09840272 0.15211177 0.0049755685 -0.08240801 -0.071103975
-0.13956954 -0.0031672919 -0.12782066 0.09837277 0.100858904 -0.25376475 0.22405115 0.3867164
-0.11470199 -0.01183738 0.07571256 -0.1890703 -0.022221426 0.024367798 0.18640228 -0.21978924
-0.059170175 0.06639769 0.07241459 -0.33952662 -0.19405288 -0.09858399 -0.14424033 0.13384065
0.20405084 -0.13080265 -0.025890773 0.33210227 0.15158828 -0.29559013 0.18031335 0.09512535

model.input_block.4.weight f4 [40]
00000000: e4f8 8e3f 8851 8e3f 235e 863f 8a18 8e3f
00000010: dabc 803f 2f5b 843f 2166 823f 23a4 883f
00000020: 7861 7f3f 83fc 7d3f 4f2a 883f b768 933f
00000030: 8c94 923f aa6b 8e3f ce8a 7f3f da18 893f
00000040: b8c4 903f 01e2 8b3f 7474 873f 00a6 843f
00000050: f9ae 7b3f c42d 823f 6b13 873f 95bf 863f
00000060: 09b5 813f 55e6 763f 42e3 8b3f 6f9b 763f
00000070: 3d32 863f 33d5 9c3f 0fbb 953f 34bf 763f
00000080: eb74 933f 1263 863f 7eee 843f 7391 843f
00000090: cee2 673f 201b 863f 8a80 9f3f 1c3d 8c3f
1.1169705 1.1118631 1.0497478 1.1101239 1.0057633 1.0340327 1.0187417 1.067509
0.997581 0.9921343 1.0637912 1.1516331 1.1451583 1.1126606 0.99821174 1.0710709
1.1310034 1.0928346 1.0582414 1.0363159 0.9831386 1.0170217 1.0552801 1.0527216
1.0133373 0.9644521 1.0928729 0.9633092 1.0484082 1.2252563 1.1697711 0.963855
1.1520056 1.0498984 1.0385282 1.0356888 0.9058045 1.0477028 1.2461102 1.0956149

model.input_block.4.bias f4 [40]
00000000: c803 c23c 3d99 b3bb 88f6 85bb 82db b7ba
00000010: c697 abbb d2c9 e83a 38d3 7dbc 6094 16bc
00000020: b853 0d3c 0c1b 14bb e972 04bc cd86 6d3c
00000030: a108 5abc f722 6e3a a394 18bc 8757 f8bc
00000040: 64f4 6ebb 664f 07bb 239b 0d38 dc96 07bc
00000050: 4131 96bb 4400 a6bb 2226 20bc 37f1 8ebb
00000060: 8171 6b3c d8bc f5bb 4dda 143c dcf5 cf3b
00000070: ec6f 0b3c be18 debb ab0d 41bb 7615 b3bb
00000080: af72 67bb 7e16 02bc 6b71 fe3b 7530 0e3c
00000090: 5933 85bb d1c0 57bb bee4 96ba a558 2ebb
0.023683444 -0.005480914 -0.0040882267 -0.001402721 -0.0052365987 0.0017760342 -0.015492253 -0.009190649
0.008625917 -0.002259913 -0.008084037 0.014497471 -0.013307721 0.00090841897 -0.0093127815 -0.030315174
-0.0036461586 -0.002064669 3.3761502e-05 -0.008275714 -0.0045835082 -0.0050659496 -0.009774717 -0.004362251
0.014370323 -0.0074993186 0.00908525 0.0063464474 0.008510571 -0.006777852 -0.002945761 -0.005465205
-0.003531616 -0.007939933 0.0077649853 0.008678545 -0.004064959 -0.0032921324 -0.0011512262 -0.002660313

model.input_block.4.running_mean f4 [40]
00000000: 3fcd bcba 0006 ac3a faa1 00bb fcfc e3ba
00000010: 1d4f 6abc 2fe5 03bc ee64 443c 86c3 863b
00000020: 80d7 9039 4923 8cbb 1b51 a43a dc62 35bb
00000030: e9cc 5abb 8032 7739 c2c3 5bbc e5a8 8fbc
00000040: fb17 c939 ee90 fabb 7299 6aba 60c0 bdba
00000050: fe82 f8b9 640a d939 a762 c23a ac94 e53a
00000060: a43c 183c a07a fdba b19a af3c a19b b1bc
00000070: cf45 0bbb cc52 a03a 200e 27bb 2a56 32bc
00000080: fdaa 13ba f5cf 333c e859 4cb9 23e5 af39
00000090: 7f14 3cba c4d8 83bb 7127 113b 5581 a3b9
-0.001440443 0.0013124347 -0.0019627796 -0.0017394121 -0.014301089 -0.008050247 0.011986954 0.0041126637
0.0002762638 -0.0042766673 0.0012536378 -0.0027677333 -0.0033386296 0.00023574568 -0.0134133715 -0.01753659
0.00038355574 -0.0076466715 -0.0008949257 -0.0014476888 -0.00047399843 0.00041397207 0.0014830426 0.0017515621
0.009291802 -0.0019338913 0.021436067 -0.021680655 -0.0021251326 0.0012231707 -0.0025490597 -0.010884801
-0.0005633084 0.010974874 -0.00019488449 0.0003354932 -0.0007174685 -0.004023643 0.0022148753 -0.00031186143

model.input_block.4.running_var f4 [40]
00000000: 9e1e 5934 3719 4a34 f2c2 4d34 5de0 4734
00000010: 9be7 6134 de39 9834 b354 ad34 36f3 3834
00000020: a5e1 8234 3016 4234 e02d 5834 28fb 5734
00000030: ceba 5c34 fb6e af34 1d99 9434 5987 2435
00000040: dd66 3834 f0a4 0234 ef0a b334 c397 f733
00000050: 0dd6 2b34 ecc1 b134 1a82 7534 01f5 ee33
00000060: d87d 7734 6b6c 2234 713e 2534 445c 0334
00000070: 5be9 8c34 cd8e b534 bbb8 0b34 f324 c634
00000080: b9f0 6d34 604c 3834 c1c3 3334 c175 8e34
00000090: 98d2 1f34 fe86 2234 e4bb c434 aca2 5e34
2.0220838e-07 1.8821889e-07 1.9163033e-07 1.8614942e-07 2.1039016e-07 2.835431e-07 3.2285388e-07 1.7224815e-07
2.4378565e-07 1.807573e-07 2.0133257e-07 2.0114805e-07 2.0557056e-07 3.267704e-07 2.7678553e-07 6.129172e-07
1.7173757e-07 1.2167197e-07 3.3349303e-07 1.1529439e-07 1.6003487e-07 3.3109916e-07 2.2864734e-07 1.11273046e-07
2.3049449e-07 1.5126868e-07 1.5389539e-07 1.2233892e-07 2.624682e-07 3.3817778e-07 1.3012588e-07 3.6907258e-07
2.215992e-07 1.716412e-07 1.6741889e-07 2.6535238e-07 1.4884642e-07 1.5136536e-07 3.6644553e-07 2.0734541e-07

model.channel_expansion.0.weight f4 [16, 40, 1, 1]
00000000: 3439 b63b 69ad 8f3d 7748 52bd c9b8 cd3d
00000010: e526 3dbe c662 223e bc39 0dbd 35de f63d
00000020: 549f 353d b20d 573d 858d a1bc f26f 06bc
00000030: d442 04be 1bdd c73c 2f54 d13d 1c66 763d
00000040: a605 ec3d a594 503c f55f e43c 6177 06be
00000050: 75ee 21be b84f 1e3d 7512 6dbd c5a0 113e
00000060: 8ce0 61be 1d55 783d 46a5 2bbe b46c 303e
00000070: 847d 26be 7f56 a63d 76d0 a9be 5445 0abe
00000080: 1217 e33d a413 d5bc 5d2a 953d cf61 7dbe
00000090: a3b5 b53d b1e5 023c 1e17 f83d 4076 43bd
000000a0: 6774 a7be d02f 70bd 393b 6ebc aeed 63be
000000b0: 59ed 87bd 218d 96bd c5b7 273c 20f5 f2bd
000000c0: 947a 2d3e 8ece 10be 6bd7 9bbd e867 eabd
000000d0: 5cea 003d 6470 8cbd 001b ae3d 9809 083d
000000e0: 5d42 29bd 2ab9 d13d f2ec 00bd 5665 003d
000000f0: 081f 31be c4ef 283e 9530 b23d eb2b 7b3e
00000100: ada6 87bd 9b79 70be 88d5 78bc 6f99 a93d
00000110: 2279 8d3d c756 2d3e e9ac b23a decb b13d
00000120: c5c2 0dbd dd8d e23d cea7 2a3e cf4c 473d
00000130: fd9b 9ebc 4dc6 f6bd 8e5c 15bc 8a0d 6c3c
00000140: 02fd 3b3d 958c 90be 5763 8dbd f337 0fbe
00000150: b686 9c3d 357b f0bd c18c e0bd b38c 0bbe
00000160: a327 bebc f7a7 463d a66f 1a3d b30b 1d3c
00000170: 24db 323e ecf9 643c c416 ecbd 5759 0bbc
00000180: 4426 68be 6365 35be 3a65 e93d 97c9 bbbd
00000190: 9ab6 993d b9a0 d3bc ed05 eebd 83e4 9dbd
000001a0: 9bdb fa3c c575 0fbd 89b6 1e3e 2593 17be
000001b0: b381 5e3d adf5 e43d 823f 0c3e ebe9 2dbe
000001c0: 4a4d 01bd f110 1cbe 80e8 d53c 7eca 5f3e
000001d0: a37e 973d c3ef 81bd d0fc 10be d965 423e
000001e0: ab27 b43c 209a e43d b0a7 73bb bdab a43d
000001f0: d758 b5bd 3f66 523d 261f c73c 9ac3 2f3e
00000200: 5f69 9f3d 2287 e6bd 6d43 80bd 827e a7be
00000210: d05a 62be b751 d23d 91ac 683e a87e 61bd
00000220: 6d3d 1b3d 366b 8f3c 7bcf dbbb 0f27 8bbc
00000230: 4861 b3bd e695 10bd c440 dabc a4a3 4c3c
00000240: 209c d0bd ab6a 573d 8182 cebd db2a 443e
00000250: dca3 e93d f45f 90bb f603 03be ddfe e93c
00000260: abab 193e 4144 b2ba 6ba6 87bd 3418 d4bd
00000270: c9d3 993d 62ec bebd 5c68 59be c09c e6bd
00000280: e61e 723e a2d6 8a3b cece 9d3d 7ddb 7b3e
00000290: 91c2 1b3e eef3 b6bd 8e56 90be 61a8 523d
000002a0: b68e 44be e8eb fabd e21c 1ebc 123f 553e
000002b0: bc33 bebc c6af ebbd 935c 453d 24f9 39bd
000002c0: 2e36 253e 2fd8 383d 230c 86bd 66ec e6bd
000002d0: f952 59be b5fb 3dbb f62e b8bd 4097 773c
000002e0: d965 8d3c be11 843d e8b0 a53b 0b4d 91be
000002f0: e0f6 1fbd c8e8 87bd 206c c13c 00e6 71be
00000300: 50d2 1f3b 1635 d93a 2399 10be 7968 a0bc
00000310: 7e00 383d 317c df3d fbfa 2ebd 9b58 ce3d
00000320: efd4 b43d bedd 753c 77b6 123d 299f a13d
00000330: 54db b6ba 314f 01be fe5e 93bd 7134 5a3e
00000340: 93b4 a43c 1477 92bd aa1c 3cbc ed63 3bbe
00000350: de9c 92be 78a7 e83d 69a2 cc3d 4e95 51bd
00000360: f610 18be 83b3 353d 006f 9a3d 6e2f b5bd
00000370: 21cd 5ebc a9d3 1dbe f3a6 d53c b263 8cbc
00000380: 346c 98bd 6a9f 613c 092e 403e d867 37bd
00000390: fc2e fe3d d460 003e 29d4 683d a3c8 ba3d
000003a0: 37b1 053e 19c3 103d aaa5 8cb8 eb8f ef3d
000003b0: 2035 993d 2371 17be 78f2 c3bd e8e5 ffbc
000003c0: dbb4 8fbc ff62 843d f902 c63d 80c9 b43d
000003d0: 57f3 bf3c 8e45 533d dcac 593d 41bf c8bd
000003e0: f295 a4bd 5e91 a8bc fa6b 06be 9cdf 383e
000003f0: 6416 d93d bf0b 14be 1ddc 5ebd a15e f0bc
0.0055610184 0.07015497 -0.05133864 0.100450106 -0.18471868 0.15857992 -0.034478888 0.120541014
0.0443414 0.052503295 -0.019720802 -0.008205401 -0.12916118 0.024397423 0.10221135 0.060155973
0.11524515 0.012730752 0.027877787 -0.13131477 -0.1581362 0.038650244 -0.05787893 0.14221485
-0.22058314 0.060628045 -0.16762266 0.17228967 -0.16258818 0.081219666 -0.33166856 -0.13503009
0.11088385 -0.026010342 0.07283471 -0.24744342 0.08872535 0.007989333 0.12113784 -0.047720194
-0.32705995 -0.058639348 -0.014540487 -0.22258636 -0.06637067 -0.07351137 0.010236685 -0.1186316
0.16941291 -0.14141294 -0.07609447 -0.114456 0.031473503 -0.06857374 0.085012436 0.033212274
-0.041323055 0.10240395 -0.03147597 0.03134664 -0.17296994 0.16497713 0.087006725 0.24528472
-0.06623588 -0.23483889 -0.015187629 0.08281218 0.0690787 0.16927634 0.0013631854 0.08681463
-0.034609575 0.110622145 0.16665575 0.048657235 -0.01936149 -0.120495416 -0.009116305 0.014407525
0.045895584 -0.28232256 -0.06903713 -0.13986187 0.076428816 -0.1174225 -0.10964347 -0.13627891
-0.02321226 0.048500028 0.037704132 0.009585309 0.17466408 0.013975602 -0.1152778 -0.008505187
-0.22670847 -0.17714457 0.113962606 -0.091693096 0.075055316 -0.025833474 -0.11622224 -0.07709601
0.030622294 -0.035024423 0.15499319 -0.14802225 0.05432291 0.111796714 0.13696101 -0.16983764
-0.03156785 -0.15240838 0.026111841 0.21854588 0.07397201 -0.06344559 -0.1415894 0.18984164
0.021991571 0.111622095 -0.0037178807 0.08040569 -0.088548355 0.05136704 0.024306845 0.1716446
0.0778377 -0.11256243 -0.062628604 -0.32713705 -0.22104955 0.10269492 0.22722079 -0.05505243
0.037900377 0.017507177 -0.006708083 -0.016986398 -0.08758789 -0.035299204 -0.02664221 0.012490187
-0.101860285 0.05259196 -0.100834854 0.19156973 0.11408207 -0.0044059698 -0.1279448 0.028563911
0.15006892 -0.0013600664 -0.066235386 -0.10356179 0.07511098 -0.0932243 -0.21231216 -0.112603664
0.236446 0.004237012 0.077054605 0.24595447 0.1521094 -0.08933245 -0.28191036 0.05143011
-0.19195065 -0.12252027 -0.009650441 0.2082484 -0.023218028 -0.115081355 0.04818399 -0.045403615
0.16133949 0.045128044 -0.06545284 -0.11275558 -0.21223058 -0.002898914 -0.08993332 0.015111744
0.017260479 0.064486966 0.0050564893 -0.28379092 -0.039053798 -0.066361964 0.023611128 -0.23622894
0.002438683 0.0016571607 -0.14120917 -0.019581066 0.044922344 0.109123595 -0.042719822 0.10075494
0.08829676 0.015006481 0.035818543 0.078916855 -0.0013950863 -0.12627865 -0.07195853 0.21309067
0.020105636 -0.071516186 -0.011481443 -0.18299837 -0.28635305 0.11360067 0.09991915 -0.05116778
-0.1485022 0.04436065 0.07540703 -0.08846937 -0.013598711 -0.15412773 0.026080584 -0.017137382
-0.07442513 0.013770917 0.18767561 -0.044776767 0.12411305 0.12536937 0.056842957 0.091203
0.13055883 0.03534231 -6.7065776e-05 0.11697372 0.07480836 -0.14789252 -0.095677316 -0.031237558
-0.017542293 0.064641945 0.09668536 0.088274956 0.023431463 0.051580004 0.053143367 -0.09802104
-0.08036412 -0.020577129 -0.13127127 0.1805405 0.10599974 -0.14457606 -0.054409135 -0.029341998

model.channel_expansion.1.weight f4 [16]
00000000: d5cf 883f 9da2 8c3f 9ed7 903f 3af4 6e3f
00000010: 4ea7 863f 97a9 883f 15a3 903f c6e4 863f
00000020: 7f83 773f 48cc 993f 05dd 773f 5162 8d3f
00000030: 16d2 6d3f b93a 903f 403e 893f 7492 8b3f
1.0688425 1.0987126 1.1315801 0.9334141 1.0519807 1.0676755 1.1299769 1.0538566
0.9668502 1.2015467 0.96821624 1.1045629 0.9289869 1.1267921 1.0722122 1.0904069

model.channel_expansion.1.bias f4 [16]
00000000: 5bb7 bfbe e256 afbe 4201 9abe 7915 8abe
00000010: 71f7 9cbe 54a5 94be e07b d5be a822 38bd
00000020: 8430 0c3e c564 c6be 22a1 8bbe 16ad a6be
00000030: c722 1b3e a210 9dbe 37b4 81be 882a 50be
-0.37444577 -0.34245974 -0.30079085 -0.26969507 -0.30657533 -0.29032385 -0.41696072 -0.044954926
0.13690382 -0.38748756 -0.27271372 -0.3255393 0.15149985 -0.30676752 -0.25332806 -0.20328724

model.channel_expansion.1.running_mean f4 [16]
00000000: 0b78 c8bb de38 05bc 628f ef3b bb65 dabb
00000010: 1e6d a83b 7619 bd3b c1d3 4bbb 4850 203b
00000020: 0697 d0bb 2be6 913a 96fc acbb 5cca 593b
00000030: 8d2b 8f3b 2515 ee38 b59f 60bc 2647 403b
-0.006117826 -0.008131234 0.0073107937 -0.0066649592 0.005139961 0.0057708574 -0.0031101557 0.0024461914
-0.0063656596 0.0011131217 -0.005279134 0.0033232188 0.0043692053 0.00011352663 -0.013709952 0.0029339283

model.channel_expansion.1.running_var f4 [16]
00000000: 8c5f 713c 03ff 3b3c afc1 6a3c 8dda 4e3c
00000010: dbb3 503c 02ed 0e3c 8780 453c bfc2 8a3c
00000020: 4c53 903c 8f15 843c 0b53 373c 5c23 9f3c
00000030: 6e36 3b3c d91b 8b3c a71d 3b3c 2d40 643c
0.014732253 0.011474374 0.014328404 0.012625349 0.012738193 0.008723499 0.012054569 0.016938565
0.017617844 0.016123561 0.011189233 0.01942604 0.011426551 0.016981052 0.011420644 0.013931316

model.fe.0.weight f4 [16, 1, 1, 15]
00000000: d34f 35be d106 bebd a562 53be b64a 80be
00000010: c01b 38be 7d5e 31ba da2c d2bd b918 02be
00000020: d0db 15be 5fb5 0fbe c222 69bd edc4 0cbd
00000030: 5c26 03be 0f07 fbbd 6d01 d0bb 4907 903d
00000040: 1904 e53d f19b d53d cb84 863e f435 2d3e
00000050: da39 2f3e fab0 a13d 1f41 593e b4e4 8f3d
00000060: 7439 513e deef 0a3e bc14 113e 9ada a73d
00000070: 24d1 a43d 34de 443e a16f d2bd 65f1 9dbe
00000080: eddd 9bbe e57d 54be 1cd5 dd3b c8e1 34be
00000090: 7da2 30bd c159 0fbe cc45 6abe ed80 06be
000000a0: 6b5b c5bd 6f78 57be 47d5 4cbe 1c70 dabd
000000b0: 0ff6 8fbe a3eb 453c d4f3 583e 19a8 163e
000000c0: 7b9b 3a3c b862 5f3d 73a0 353c 8d11 fc3d
000000d0: fe89 1e3e d3eb 853e 83b3 c1bd 7346 8f3d
000000e0: ec5d 423e 4e0e 473e 8ab4 63bd 12a0 393e
000000f0: 1719 3d3e 6c60 4c3e 0346 f43b 8371 6e3e
00000100: 96ab 173d 72bc 6d3c b3de 043e 12ab 933e
00000110: 256d 34bc 346f 4d3e 637e 073e 23b0 f93d
00000120: 61e1 703e 14a2 d83d ff30 2bbd 631b 50be
00000130: 734a 15be abd5 7ebe dad9 acbd 683f 0fbe
00000140: ae42 30be eb91 7dbd 6a31 0bbe c838 dcbd
00000150: f84c d4bd de5e 0ebe faf5 d9bc 1781 56be
00000160: e9a6 f8bd 8810 b6bd 4326 31be e443 a0be
00000170: 1775 35be 1e15 a3bd 380e fdbc e006 4bbe
00000180: 5686 edbd 0cae 9cbd 3955 23be ff8a 8ebd
00000190: c012 73be 7fc0 4bbe abcd 55be 1247 1abe
000001a0: 2275 84be d50b c5bc 9f72 47be e26e c63d
000001b0: 03fb 46be 48d0 2a3e 0a5b 98be bfd0 663e
000001c0: 2359 93be 9406 133e afbe 0dbe 3511 3d3e
000001d0: 38f8 91be d0e8 a63b 42fb 16be 3284 8bbd
000001e0: 4783 683e fdaa 3bbe 544f a33c e76e ac3d
000001f0: e73a 24be 1a1b 813e fdee 04be f2ae c7bd
00000200: c340 823e e987 40be f48e 483e a02c 8cbd
00000210: 070b a33d 7b82 703e 3cb9 7cbe f073 993e
00000220: 4852 e63d f4c2 9d3e 3ba5 733e 3509 253e
00000230: ee67 033c e5fc 843e bdc5 c63d 33b6 423e
00000240: 8ef9 d13d 9fb2 783e 8096 783e 7e65 853e
00000250: 22a1 2a3e f41d 783e c5aa ad3d a7b3 f7bc
00000260: eecb 7abe eafa 09be 40fd 41be c470 01be
00000270: f503 0abd 8bc6 0c3d 5e1b 55be ae55 09be
00000280: a2af 783c af25 4fbe 419c 83be 7e14 11be
00000290: c766 47be 95cc 57be ca04 35be cb14 7fbe
000002a0: f1ce 5ebe faed 89be 1804 2cbe 36c7 03be
000002b0: 6046 30be 2d7a 09be e039 1fbe ee66 22be
000002c0: 51b1 0ebe 773f 42be 7ea5 4c3c 96b1 18bd
000002d0: c314 01be 8fa3 92bb df31 223e 18f8 dcbc
000002e0: 8e30 a63c 1cc4 d23d 2bb3 40ba 7ef2 203d
000002f0: ab01 353e 3a44 65bc fcb7 9b3c 91fc 3c3e
00000300: e965 e3bd 8f11 c43c 64ac 5c3e 67af 913e
00000310: 9eed 0e3e 214e 833e 3e26 293e 9c03 653c
00000320: 1fd0 983d c0ac c53d a0df 883d fb62 7e3d
00000330: d5d2 0b3e 4e14 4a3e 0f45 c93d 955c 253e
00000340: b302 103e 519b df3d 8f6b 803e 7fe8 4c3e
00000350: 7763 a03e f5c2 80bd 37c2 243e 09a5 a23d
00000360: 67b5 4dbc 15f8 413d 28ce 0f3e 738c bd3d
00000370: d369 07bd 980c bb3d 45fb 263e 2c1f 8f3d
00000380: ec10 a83d 0c95 5a3e 90dc 083e 10d4 4b3d
00000390: f2de ba3d c174 c83d 8155 0e3e 9be1 6b3d
000003a0: e7d1 c13d 4ac9 fc3d 08ad a1bd 521d d93d
000003b0: f127 233e 4d46 623d 050e 8e3d 82e8 303e
-0.17706232 -0.09278644 -0.20643099 -0.25057 -0.17979336 -0.0006766094 -0.10262461 -0.12704743
-0.14634633 -0.14034031 -0.056917913 -0.03436749 -0.12807602 -0.12257206 -0.006347826 0.070326395
0.11182422 0.10430134 0.26273188 0.16915113 0.17111912 0.07895084 0.21216248 0.070260435
0.20432073 0.13568065 0.14168066 0.08195992 0.08047703 0.19225389 -0.10275198 -0.30848232
-0.30442753 -0.2075115 0.0067697894 -0.17664254 -0.04312371 -0.13999082 -0.22878188 -0.13135119
-0.09636577 -0.21042036 -0.20003234 -0.106659144 -0.28117415 0.012080106 0.21186763 0.14712562
0.0113896085 0.054537505 0.011085617 0.12308035 0.15482327 0.26156482 -0.09458067 0.06995859
0.18981141 0.1943905 -0.055592097 0.18127468 0.18466602 0.19958657 0.007454635 0.23285489
0.03702887 0.014510261 0.12975578 0.28841454 -0.01101235 0.20061952 0.13231806 0.121917985
0.23523475 0.10577789 -0.041794773 -0.20322947 -0.14579181 -0.24886195 -0.084399894 -0.13989031
-0.17212936 -0.061906736 -0.13593069 -0.10753018 -0.10366243 -0.13903376 -0.026606549 -0.20947681
-0.121412106 -0.08889872 -0.17299752 -0.31301796 -0.17720447 -0.07963012 -0.03089057 -0.19826841
-0.11597888 -0.07650384 -0.15950479 -0.06960105 -0.23737621 -0.1989765 -0.20879237 -0.15066174
-0.25870615 -0.024053494 -0.19477318 0.09689118 -0.19431691 0.16681015 -0.29756957 0.22540568
-0.28778943 0.14357978 -0.13842271 0.18463595 -0.28509688 0.0050936714 -0.14744285 -0.06812324
0.22706328 -0.18326946 0.019935288 0.084195904 -0.16038094 0.2521599 -0.12981792 -0.09750165
0.25440034 -0.18801846 0.19585782 -0.06844449 0.07961088 0.23487274 -0.24680036 0.29971266
0.11246163 0.308128 0.23793499 0.16116793 0.008020384 0.25974193 0.09705684 0.19014816
0.10252677 0.24286889 0.24276161 0.26053995 0.1666303 0.24230176 0.08479837 -0.030237032
-0.24491856 -0.13474622 -0.18944263 -0.12640673 -0.03369518 0.034369033 -0.20811221 -0.1341159
0.015178593 -0.20229219 -0.2570515 -0.14167973 -0.194728 -0.21074136 -0.17677608 -0.24910276
-0.2175863 -0.26939374 -0.16798437 -0.12868962 -0.17214346 -0.13425513 -0.15549421 -0.15859577
-0.13934828 -0.18969522 0.012490628 -0.037278734 -0.12605576 -0.004475064 0.15839337 -0.02697377
0.020286825 0.10291311 -0.0007350917 0.03929376 0.17676418 -0.013993317 0.019008629 0.18455721
-0.11103422 0.023934154 0.21550137 0.28454134 0.13957831 0.25645545 0.16518494 0.013977911
0.07461571 0.0965209 0.06683278 0.062106114 0.13654645 0.19734308 0.09827625 0.16148598
0.1406353 0.10918296 0.2508206 0.20010565 0.31325886 -0.06287185 0.16089712 0.07941634
-0.012555457 0.04735573 0.14043486 0.09255304 -0.033059906 0.091332614 0.16306789 0.069883674
0.082063526 0.2134592 0.13365388 0.049762785 0.09124555 0.09787894 0.13899805 0.0575882
0.09463864 0.1234308 -0.07894331 0.106012955 0.15933205 0.055242825 0.06936268 0.17276195

model.fe.1.weight f4 [16, 16, 1, 1]
00000000: d5c5 13be 3be4 49be 0fa6 18be 1373 443d
00000010: 13f8 3cbe 3ba9 6bbd 88c0 44be 59fa 753e
00000020: 9d4a 13bd 1ef7 6ebe d1a6 463e 1b98 7dbd
00000030: cfed aebd 5772 f2bd 60e1 3c3d 8804 e4bd
00000040: 258b 173c 2f9d 8abe 0790 cabd 993a 263e
00000050: 994f 85bd 2c2c 1fbe 44bc 22be 1023 a03d
00000060: 3975 cdbc 31e4 93be 6511 de3d 49ab b2bd
00000070: c779 163d eb5c 91bd 9f0c c33c 8ccf 96be
00000080: 2680 84be bc4a e8bd ffbe 72be 59cb 15be
00000090: de82 2dbe 056f 51be 9b8a 5fbe 9f4a 0dbe
000000a0: 1111 44bd bd26 23be 7d0d 033e a5ed 943d
000000b0: 0fed 10be 9129 44be 041f 17bd b62e 9abe
000000c0: ebe1 64be c9b5 a9bd 8e32 2dbe 21d6 163c
000000d0: db12 f8bd 0a22 c9bd f544 73be 6f68 703e
000000e0: e342 96bd 128c 96be 1a71 363e 4a7a 8bbd
000000f0: 0aea d3bd 14db 95be a1d5 ba3c 3e90 50be
00000100: 10bc 0d3e 1b38 983d b017 e33d 7122 bfbd
00000110: 1044 8b3d 2902 2d3e 8a0a db3d 1e4f b33c
00000120: c14c c5bd b0f5 f13d 842c 3ebd de4e 573e
00000130: 0159 04be e6d9 313e 675a 00be 9aac 4c3d
00000140: 121e 8fbd cff3 8bbe 90bd 82bd 99ca eebc
00000150: 41f8 2fbe 278f 2abe 129e 02be 53a3 ae3e
00000160: 356b 7fbc 9494 77be ea7e ba3d 2b66 c2bd
00000170: 058b d6bd 36e5 bbbd 18c0 253d 30f2 473d
00000180: 8dc0 563e 8371 1e3e 6c98 c03d 797d 9fbd
00000190: 9b8b b43d 6044 583e 6483 663d 7001 e63c
000001a0: b399 babd 6d12 e33d f9bd 80bd bb9a 853e
000001b0: 2906 21be 50b3 f53d b8b9 c8bd b942 a53d
000001c0: 8702 6fbe 50b1 67be b043 30be 61e0 9c3d
000001d0: fe57 3dbe fd24 06bd a788 cfbd dfa7 7b3e
000001e0: 372f 39bd d4f2 8dbe 3e29 403e 17c5 fdbd
000001f0: f1d5 c6bd 4a5c d5bd f1aa a93d 8910 3bbe
00000200: 0fdb e43d 4909 173d ab14 a63d 3b62 babc
00000210: 8c8e a53d e60f 403e 6ebd c43d 7602 43ba
00000220: f601 b7be b091 a03d 851b 15bb 5d70 c43d
00000230: 57df 1fbe ec9c 453e b693 47bd 340c ba3d
00000240: c99f 5f3e 0755 563d 80ba 053e 6b48 20be
00000250: 2835 233d 4f90 f23d 4250 f93d eb0b 823d
00000260: 7cef 2a3e 4b8d 3d3e e544 30bc fe78 5d3e
00000270: cd02 aebd 9e2c 203e 5dbc 0dbe be73 013d
00000280: e515 64bd 8e56 55be 616c 2abe 7fdd b83c
00000290: 0813 18be a8fa bebd 19e2 59be 0b2b 903e
000002a0: b282 11bd e947 7abe 27aa e43d 5e66 14bd
000002b0: f7c4 b6bd 79de 0ebe f777 553d ac77 7bbd
000002c0: 3cb1 9cbd 912e 2fbe e6ea abbd 1b39 073d
000002d0: 0baf 0bbe d08d d1bd db76 27be fc0f 3d3e
000002e0: 6753 39bd 4ed6 7fbe 5dc5 283e fea5 29be
000002f0: 290c 82bd 47ee 4bbe 695e 113d 8287 0fbe
00000300: f838 963d c79c 293d eed5 2c3e 60d1 febd
00000310: 4955 863d c3cc 033e 4466 433e cd3a 8e3c
00000320: a47c 2dbe ddda 093e 8e85 d9ba 2152 1b3e
00000330: eded 0fbe 9719 523e b694 0dbe 0936 a23d
00000340: be87 6d3e 6e98 3c3d fadd 013e 3015 c5bc
00000350: 5289 d53d 0fbc 4a3e 69f7 0e3e dfb2 6a3c
00000360: 7979 58be 914d c63d 936e 0c3c ce8a 643e
00000370: ef53 20be f44e 2b3e f516 a8bd cd04 0c3e
00000380: c6f0 103e fe01 933d cc54 2a3e 8397 02be
00000390: 3435 8e3d a88b e53d 2694 103e c3e4 c33c
000003a0: 644e 82bd f87a e03d 4cff e3bc 3304 7e3e
000003b0: d120 48be 5211 803e bb98 1abe 5e8d ef3c
000003c0: d5cd 5f3e 17a8 ab3d 6e96 8b3e 2102 a7be
000003d0: aac3 8b3d f878 97bb 6368 133e db39 a93d
000003e0: 337b 7b3e 4854 473e 4617 d7bd c7df fb3d
000003f0: 54f8 473d 07aa f23d 7bac 48be a21b 8abd
-0.14430936 -0.1971597 -0.14907096 0.047961306 -0.18454008 -0.057534438 -0.1921407 0.24021281
-0.03595983 -0.23336455 0.19399573 -0.061912637 -0.08541452 -0.11838215 0.04611337 -0.11133677
0.009249483 -0.27073047 -0.09890752 0.1623329 -0.06509323 -0.15544194 -0.1589213 0.07819188
-0.02508031 -0.28885034 0.108431615 -0.08724076 0.03673723 -0.07097801 0.02380973 -0.2945522
-0.2587902 -0.113423795 -0.23705672 -0.14628352 -0.16944453 -0.20452507 -0.21830218 -0.13797997
-0.04786784 -0.15932746 0.12798114 0.072718896 -0.1415293 -0.19156481 -0.036894813 -0.30113763
-0.22351806 -0.08286626 -0.16913816 0.009206326 -0.121129714 -0.098209456 -0.23756774 0.23477338
-0.073369764 -0.2940374 0.17816582 -0.06810434 -0.10347374 -0.29268706 0.022806944 -0.20367524
0.13841271 0.07432576 0.110885024 -0.09332741 0.06800091 0.16895355 0.106953695 0.021888312
-0.0963378 0.11814439 -0.046429172 0.21026179 -0.12924577 0.17368278 -0.12534486 0.049969293
-0.06988157 -0.2733445 -0.063838124 -0.02914934 -0.17184545 -0.16656171 -0.12755612 0.34108981
-0.015589525 -0.24177772 0.09106238 -0.09492143 -0.104757346 -0.09174578 0.040466398 0.048814952
0.2097189 0.15472989 0.09404072 -0.07787604 0.0881569 0.21119833 0.056277648 0.028076857
-0.09111347 0.11087499 -0.062862344 0.26094612 -0.15725006 0.11997092 -0.09801048 0.08069367
-0.23340808 -0.22626233 -0.1721332 0.076599844 -0.18490598 -0.03275012 -0.10133486 0.24575756
-0.045211043 -0.27724326 0.18765733 -0.123911075 -0.09708775 -0.10417993 0.082845576 -0.18268026
0.111745946 0.03687409 0.08109411 -0.022751918 0.08083829 0.18756065 0.09606443 -0.00074390264
-0.35743684 0.07840288 -0.0022751999 0.09591744 -0.15612541 0.19298142 -0.048724853 0.09084359
0.21838297 0.052327182 0.13059425 -0.15652625 0.039845616 0.11843931 0.12173511 0.063499294
0.16692919 0.1851093 -0.010758613 0.21628186 -0.08496628 0.1564202 -0.13841386 0.03160452
-0.055684943 -0.20833799 -0.16642906 0.022566555 -0.1485101 -0.09325153 -0.21277656 0.2815784
-0.03552503 -0.24441494 0.111652665 -0.036230437 -0.08924287 -0.13952054 0.05211636 -0.061393425
-0.07650992 -0.17107607 -0.08394413 0.033013444 -0.13640992 -0.10232127 -0.16353934 0.18463129
-0.045245554 -0.24984095 0.16481538 -0.16567227 -0.063499756 -0.19915114 0.035490427 -0.14016536
0.07335085 0.04140928 0.16878483 -0.12442279 0.065592356 0.12871079 0.1908198 0.017362023
-0.16942078 0.13462396 -0.0016595589 0.15168048 -0.14055605 0.20517574 -0.1382626 0.07920463
0.23196313 0.046043806 0.12682334 -0.024057955 0.104265824 0.19798301 0.13961567 0.014324873
-0.21140088 0.09682763 0.008571285 0.22318575 -0.15657018 0.16729337 -0.08207504 0.13673706
0.14154348 0.07178114 0.1663391 -0.1275311 0.069437414 0.11208278 0.14119014 0.023912793
-0.06362608 0.109609544 -0.027831696 0.2480629 -0.19543768 0.25013214 -0.15097325 0.029242214
0.21855862 0.0838167 0.27263206 -0.32618812 0.06824429 -0.004622575 0.14395289 0.08262988
0.24558716 0.19465744 -0.10502486 0.122985415 0.04882081 0.118488364 -0.19597046 -0.06743552

model.fe.2.weight f4 [16]
00000000: 9cd9 b93f 142a 9f3f 0564 b13f 07eb d03f
00000010: 4e23 ba3f ea81 ad3f f618 be3f aefc bd3f
00000020: 4d33 cd3f 2f38 b73f 95a7 bc3f 865c c33f
00000030: 8070 bf3f 91b8 b63f 8c6a bc3f ab86 b33f
1.4519534 1.2434716 1.3858649 1.6321725 1.4542024 1.3555272 1.4851367 1.4842737
1.6031281 1.4314021 1.4738642 1.5262611 1.4956207 1.4275075 1.4720016 1.4025472

model.fe.2.bias f4 [16]
00000000: 9700 b7bd 4691 50bd a2ce 53bd 0a05 74bd
00000010: 22f5 e8bc a81e 90bd 1d53 ffbc a270 73bd
00000020: ea99 10bd ae98 873b 6c28 b0bd ee25 afbd
00000030: 4d5c 69bc 0cd6 5abd 32ee 6dbc 1ce5 8abb
-0.089356594 -0.050919794 -0.051710732 -0.059575118 -0.028437201 -0.07037097 -0.031167561 -0.059433587
-0.035303034 0.004138074 -0.0860146 -0.085521564 -0.014243198 -0.053426787 -0.014522122 -0.0042387377

model.fe.2.running_mean f4 [16]
00000000: 8bdd 8ebc 5aa5 f63c b107 17bd e5ae 48bd
00000010: d1ce 213d 17ca e83b 26c6 003d 076b 41bc
00000020: 37da 37bb 8a38 a73d aa01 86bc 07a3 e5ba
00000030: 027e 3e3d e8ee 883d c7a7 493d 9b02 d43d
-0.017439624 0.030108143 -0.03687257 -0.048994917 0.039503876 0.007104169 0.03143897 -0.011805302
-0.002805365 0.08165081 -0.016358215 -0.0017519899 0.04650689 0.06686193 0.04923227 0.103520595

model.fe.2.running_var f4 [16]
00000000: 3056 b73d 0db5 9d3d a23a 853d 3753 fa3d
00000010: 0bde 603d 9978 e33d cf31 743d a9b6 de3d
00000020: f885 d13d 4f4f a23d 4a82 c83d 3ac2 b13d
00000030: 04d9 963d 1e61 c93d 1433 963d 3bf3 e53d
0.08951986 0.07700548 0.06505324 0.12222903 0.054899257 0.111069866 0.059617814 0.108746834
0.10230631 0.07925283 0.09790476 0.08679624 0.07365611 0.09832977 0.07333961 0.11228033

model.classifier.0.weight f4 [1, 16]
00000000: e6c1 2a3f 0148 9d3e ba27 103f 3c09 0b3f
00000010: 3c70 1cbf ef3b be3e 5c5e e2be 0aa2 133f
00000020: 88e4 15bf fac7 04bf 9783 343f b10a 173f
00000030: c52e 10bf db22 bdbe b351 edbe ecb2 b9be
0.66702116 0.30718997 0.5631062 0.54310966 -0.61108756 0.371551 -0.44212615 0.57669127
-0.58551836 -0.5186764 0.7051329 0.5900069 -0.56321365 -0.36940655 -0.46351394 -0.3626932

exp_avg f4 [40, 1, 1, 25]
00000000: 093d 24ba a54c adb9 e925 3db8 cdfd f338
00000010: 81eb c538 3d6e e0b8 99b0 d0b9 9c17 2dba
00000020: 67dc 50ba b294 46ba ec22 12ba d108 7fb9
00000030: 582a 0d39 07a0 0e3a 8472 7c3a 6992 b23a
00000040: 3b8c db3a 84fd e93a 9f0b cd3a 210a 743a
00000050: 31bd afb8 156b abba bd7f 20bb 2fa9 51bb
00000060: 68b2 5abb be05 43bb 7f52 39bb 2a95 2fbb
00000070: df9e 23bb 62e4 10bb 34f6 e4ba 97c0 8cba
00000080: 041b 65b9 ffeb 3f3a 4d62 d73a e16b 1b3b
00000090: e463 383b 7548 403b daee 353b 81f3 203b
000000a0: a282 0a3b 673f f43a 0b3e e63a ad28 e73a
000000b0: b047 ea3a 3fc8 df3a 775f ba3a 4df9 6a3a
000000c0: 1504 2f39 cdc5 2eba 2173 a83a 91d9 153b
000000d0: 7cec 4e3b 4803 753b 31ce 7f3b 0296 6b3b
000000e0: 39a8 353b fac2 c43a 0884 8bb8 1a06 e1ba
000000f0: 22b2 51bb ce01 8cbb 08b6 9bbb d16d 95bb
00000100: 11dd 76bb 6cb3 27bb beb6 9bba 75f6 d038
00000110: be7a 943a 6a88 f13a cb9b 133b 151d 1f3b
00000120: f16e 203b 2c54 1a3b a154 0d3b 576b 8539
00000130: 381b 783a 408c 913a 5b20 5a3a 8cd7 9d39
00000140: c4b5 8ab9 0811 2eba e9b5 4eba 113d 21ba
00000150: 38ff 43b9 0104 de39 b61c 963a 2354 fb3a
00000160: 24ee 2f3b 8345 5d3b b244 7f3b 3d6f 873b
00000170: 0b48 833b 74c7 643b 7aff 2c3b b29a ce3a
00000180: c545 f239 5d53 15ba 7eb4 baba 79f6 07bb
00000190: d5fc fbb9 82e7 3d39 9fcd 293a 4ec6 6e3a
000001a0: bdad 843a 752f 853a 5aa3 853a c74f 8e3a
000001b0: 2ed2 a13a ca71 bc3a c673 d63a c416 e83a
000001c0: ddf1 ec3a cf59 e53a 22ad d23a e79e b53a
000001d0: a26b 8b3a 354e 1e3a f3bf b0b7 dead 4eba
000001e0: 7ab0 d2ba de25 19bb b2ce 38bb a0ba 41bb
000001f0: f3b4 33bb 66b4 d8bb c67f b8bb 9ce1 89bb
00000200: 8e3e 21bb 46b0 0eba 4733 b33a f500 4b3b
00000210: 0894 933b bde6 b33b 525e c53b 59e5 c83b
00000220: 001d c13b 0093 b13b 57d7 9d3b be0d 883b
00000230: 85f1 613b 4ac3 2f3b deeb ec3a 1555 4d3a
00000240: 9b28 d1b9 b8ac deba 33f1 46bb 828c 8cbb
00000250: 6f01 afbb f676 c7bb b464 deba a64d 10bb
00000260: 1e7e 19bb 937f 0abb 4d43 cfba 9716 62ba
00000270: c013 dfb8 e89a 0e3a 6716 803a 4332 943a
00000280: 2088 823a 533e 223a dec9 b838 73ed 01ba
00000290: ab02 85ba c9f0 b4ba 80ab c9ba f111 c1ba
000002a0: daad 9dba 7f28 4bba 3361 83b9 db87 ac39
000002b0: 982b 663a 7761 b13a 69d0 e13a b295 93ba
000002c0: 4d96 56ba 72e3 7db9 a941 de39 02a4 813a
000002d0: 2e30 ac3a 8790 b03a 4478 943a 7fd5 4a3a
000002e0: c84f d039 9888 e638 49b4 c2b7 be59 5237
000002f0: 3d35 2d39 0a90 be39 24f3 023a 9137 f539
00000300: d2f3 4a39 8be9 adb9 c741 88ba 588f ebba
00000310: c02b 20bb 227b 39bb 7f0c 3cbb 6063 27bb
00000320: 4e44 59ba 8bb1 cfba b973 0bbb 1d91 22bb
00000330: 5d79 31bb ac34 3cbb 07ab 42bb a4a7 41bb
00000340: 3c56 34bb ca26 17bb a242 d4ba 4a7f 46ba
00000350: 4186 3c39 6843 8f3a 4abd fa3a 0925 2b3b
00000360: db33 503b e321 6b3b 5c9e 783b 0637 743b
00000370: b069 5a3b dc3e 2b3b 6a63 d73a 60e6 0e3a
00000380: bd91 0eba 3570 ebb9 fcb1 85b9 bf87 e6b8
00000390: d48d 2338 9681 8639 e4eb 1c3a cab7 8b3a
000003a0: 85cf d13a 5815 093b fed2 1d3b 896d 203b
000003b0: 8779 0e3b 9a33 d63a 3694 763a a5d7 8039
000003c0: c515 a7b9 a9a1 30ba 1a1e 54ba 70f6 4aba
000003d0: 2b4e 2bba b988 0cba 5e46 fcb9 e882 0eba
000003e0: 4a6d 3eba b0d0 81ba 0970 6dbb 5709 83bb
000003f0: 6132 89bb 8118 8cbb 322d 8dbb b4a9 8bbb
-0.00062651985 -0.00033054236 -4.5096418e-05 0.00011634417 9.437558e-05 -0.00010701686 -0.00039804427 -0.00066029443
-0.0007967413 -0.0007575258 -0.0005574662 -0.0002432198 0.00013462582 0.0005440716 0.0009630101 0.0013623956
0.0016750166 0.0017852043 0.0015643722 0.00093093707 -8.37989e-05 -0.0013078178 -0.00244902 -0.003199171
-0.0033370499 -0.0029758061 -0.0028277931 -0.002679179 -0.002496652 -0.0022108783 -0.0017468394 -0.0010738549
-0.00021849206 0.0007321238 0.0016432494 0.0023715424 0.0028135711 0.0029340063 0.0027760775 0.0024559202
0.0021134992 0.0018634618 0.0017566098 0.0017636024 0.0017874148 0.0017073228 0.0014219125 0.00089635403
0.00016690821 -0.0006667048 0.0012851694 0.0022865275 0.003157406 0.003738599 0.0039032812 0.0035947566
0.0027718677 0.0015011721 -6.652629e-05 -0.0017167956 -0.0031997045 -0.004272676 -0.0047519244 -0.0045602103
-0.0037668387 -0.0025589122 -0.0011880023 9.964119e-05 0.0011328084 0.0018427495 0.002252328 0.002427881
0.0024480189 0.0023548706 0.0021565335 0.0002544771 0.0009464505 0.001110442 0.00083208614 0.00030105968
-0.00026456837 -0.0006640111 -0.0007885383 -0.0006150762 -0.00018691726 0.00042346123 0.0011452648 0.0019174855
0.0026844824 0.0033763356 0.0038950858 0.0041331337 0.004006391 0.0034908922 0.0026397393 0.0015762656
0.0004620982 -0.0005696321 -0.0014244465 -0.0020746274 -0.00048062825 0.00018110688 0.00064774783 0.0009108529
0.0010122579 0.0010161238 0.0010195777 0.0010857516 0.0012345964 0.0014377174 0.0016361407 0.001770698
0.0018077452 0.0017498079 0.0016073326 0.0013856561 0.0010636935 0.00060388754 -2.1070218e-05 -0.00078841846
-0.0016074323 -0.0023368518 -0.0028199372 -0.00295607 -0.0027421087 -0.006613302 -0.005630466 -0.004207803
-0.0024603936 -0.0005443137 0.0013671898 0.0030975912 0.0045037307 0.0054901526 0.0060232067 0.006130856
0.0058933496 0.005419135 0.0048169303 0.004152029 0.0034476232 0.0026819282 0.0018075665 0.00078328076
-0.0003989384 -0.001698873 -0.0030356168 -0.004289211 -0.005340747 -0.0060871793 -0.0016967268 -0.0022018938
-0.002342112 -0.002113317 -0.0015812904 -0.0008624582 -0.00010637147 0.0005439953 0.0009772301 0.0011306483
0.0009958781 0.00061890966 8.8114044e-05 -0.0004956342 -0.001014789 -0.001380467 -0.0015386194 -0.0014730078
-0.0012029961 -0.000774987 -0.00025058686 0.00032907617 0.00087802997 0.0013533075 0.0017228249 -0.0011259823
-0.0008185849 -0.0002421269 0.0004239206 0.0009890797 0.0013136917 0.0013470807 0.0011327346 0.0007737502
0.00039732293 0.00010992697 -2.3210554e-05 1.253787e-05 0.00016518398 0.00036346941 0.0004995337 0.00046771442
0.00019355051 -0.00033171134 -0.001039558 -0.0017971797 -0.002444014 -0.0028302153 -0.0028693972 -0.002554141
-0.0008288071 -0.0015845759 -0.0021278693 -0.0024805733 -0.0027080395 -0.0028717918 -0.002970399 -0.0029549384
-0.002751722 -0.0023063892 -0.0016194175 -0.0007572068 0.0001797909 0.0010930123 0.0019129899 0.0026114604
0.003176919 0.0035878352 0.0037936186 0.0037264242 0.0033327155 0.0026129996 0.0016432826 0.00054511987
-0.0005438587 -0.00044906294 -0.00025500346 -0.00010992539 3.8994316e-05 0.0002565502 0.0005986078 0.0010659632
0.001600728 0.0020917263 0.002408206 0.002447935 0.0021739916 0.0016342283 0.00094062404 0.0002457473
-0.00031868942 -0.00067379564 -0.00080916437 -0.00077424105 -0.000653478 -0.00053609494 -0.00048117613 -0.00054363767
-0.000726421 -0.0009904113 -0.0036230108 -0.003998916 -0.004186914 -0.004275382 -0.004308366 -0.0042621735
