eeg_online/lightning_logs/lee_source/version_3/checkpoints/epoch=99-step=8300.ckpt (torch, 63818 bytes, 50 tensors)

model.input_block.1.weight f4 [40, 1, 1, 25]
0	0x3e3a161e	0.181725
1	0x3eae411d	0.34034052
2	0x3d8708c1	0.065934666
3	0x3d2ed96b	0.042687815
4	0x3d536331	0.05160827
5	0x3dec0e9c	0.11526224
6	0xbaf28d47	-0.0018505239
7	0x3df724cb	0.120675646
8	0xbd907f08	-0.07055479
9	0x3c177834	0.009244967
10	0xbd99ad7d	-0.075037934
11	0xbc35910b	-0.011081944
12	0xbdf022f1	-0.117254145
13	0xbcbc115b	-0.022957494
14	0x3d2d2c1c	0.042278394
15	0x3dfd751b	0.12375852
16	0x3e2c05eb	0.16799133
17	0x3e31b4fd	0.17354198
18	0xbde25b70	-0.110525966
19	0xbd8ccf14	-0.068754345
20	0x3dec9212	0.11551298
21	0x3e86abc5	0.26302925
22	0x3dfd728e	0.12375365
23	0x3ebe5e59	0.37181357
24	0x3e5a7ba6	0.2133623
25	0xbd07bd9d	-0.033139814
26	0x3d853566	0.065043256
27	0xbeae838f	-0.34084746
28	0xbe964942	-0.29352766
29	0xbe520654	-0.20510226
30	0xbe4e5bf5	-0.20152266
31	0x3db0459f	0.08607029
32	0xbe3c9f75	-0.18420203
33	0xbdffd73d	-0.12492225
34	0xbe23b7e4	-0.15988117
35	0xbe4a7ee6	-0.1977497
36	0xbde96807	-0.11396795
37	0x3e47e4ec	0.1952092
38	0x3e0d7dd5	0.13817532
39	0x3e2de133	0.16980438
40	0x3dc66068	0.09686357
41	0xbc9a9ea4	-0.018874474
42	0x3dca7fdb	0.09887668
43	0xbe19e40b	-0.15028398
44	0xbe0eaa96	-0.13932261
45	0xbe01094a	-0.126012
46	0x3da7505d	0.08169625
47	0x3d6b2325	0.057406563
48	0xbe257a8e	-0.16160032
49	0xbdc96b0a	-0.09834869
50	0x3eae0daa	0.339948
51	0x3eb5da18	0.35517955
52	0x3e2b6eb2	0.16741446
53	0x3d5d88a5	0.054085393
54	0x3e0070b8	0.12542999
55	0xbe0585af	-0.13039277
56	0x3d45ea9a	0.048319437
57	0xbdd40f89	-0.103545256
58	0xbd359db7	-0.04433986
59	0x3ca8f422	0.020624224
60	0x3e61f757	0.22067009
61	0x3e454e76	0.19268212
62	0xbd243867	-0.040092852
63	0x3dd41e7c	0.10357377
64	0x3e01ba6d	0.12668772
65	0xbcaa3892	-0.020778928
66	0x3c4b6e40	0.012416422
67	0x3d754077	0.05987593
68	0x3e180eeb	0.14849441
69	0x3e6370a1	0.22210933
70	0xbe062b05	-0.13102348
71	0xbd98510b	-0.07437333
72	0x3d18ba6d	0.037287164
73	0x3d917426	0.07102232
74	0x3c704fd8	0.014667474
75	0xbdc766d2	-0.09736408
76	0xbe493c4b	-0.19651906
77	0xbeb3fa71	-0.3515201
78	0xbdbf7980	-0.09349346
79	0xbe3b038e	-0.18263075
80	0xbe5b1134	-0.21393281
81	0x3e1f9054	0.155824
82	0x3df54c42	0.11977436
83	0xbe7d8430	-0.24757457
84	0xbcb86012	-0.022506747
85	0xbdc43dc1	-0.09582091
86	0xbdb39d10	-0.08770192
87	0xbe08fbf0	-0.13377357
88	0x3d42a315	0.04751881
89	0xbe11b5bf	-0.14229487
90	0x3d303f7b	0.04302929
91	0x3d5431e7	0.051805403
92	0x3d888e7f	0.06667804
93	0xbce9aa2b	-0.028523525
94	0xbea2a653	-0.3176752
95	0xbe7d0d77	-0.24712168
96	0x3c01ca85	0.00792182
97	0x3abe47ab	0.0014517208
98	0xbdfc7cf2	-0.12328519
99	0xb8e593a5	-0.00010947072
100	0x3e82a2c1	0.25514796
101	0x3e47bdcc	0.19505996
102	0xbd1416e7	-0.036154654
103	0xbc3bd3f6	-0.01146411
104	0xbe28d546	-0.16487607
105	0x3c5aff76	0.013366571
106	0xbe06b010	-0.131531
107	0xbdf7b9b8	-0.1209597
108	0x3d2f07f5	0.042732198
109	0x3dcbbda9	0.09948284
110	0xbc357792	-0.011075871
111	0x3e3031ee	0.17206547
112	0xbdd3788e	-0.10325728
113	0x3e20068d	0.15627499
114	0x3d989aa2	0.07451369
115	0xbe7fd794	-0.2498458
116	0xbe0089ee	-0.12552616
117	0xbd22f16e	-0.039781027
118	0x3c9b8e9a	0.018988896
119	0x3d943f15	0.072385944
120	0x3df65424	0.12027767
121	0x3d2ba6d7	0.041907158
122	0xbde57c54	-0.11205354
123	0x3c291ee1	0.0103223035
124	0xbeb5ea26	-0.35530204
125	0x3dabbb2e	0.08385311
126	0x3d45c085	0.048279304
127	0xbdc29588	-0.09501177
128	0xbe113e48	-0.14183915
129	0xbe8e0e69	-0.2774537
130	0xbe25849f	-0.16163872
131	0xbd5e6293	-0.054293226
132	0xbe4619ea	-0.19345823
133	0xbd327fb0	-0.043578804
134	0x3dfed0c3	0.12442162
135	0xbd3e4f4c	-0.046462342
136	0xbd4d041e	-0.050052755
137	0xbdf3d8a9	-0.11906559
138	0xbde4997d	-0.11162088
139	0xbd7abeff	-0.061217304
140	0xbbd1aef8	-0.0063990317
141	0xbd245311	-0.04011828
142	0x3da6ac48	0.08138329
143	0xbd5bfcc4	-0.053707853
144	0xbe255851	-0.16146971
145	0xbd42a0a3	-0.047516476
146	0x3e3583de	0.17726085
147	0xbb4ef84c	-0.0031581102
148	0xbe3363de	-0.17518565
149	0xbea3b8d7	-0.3197696
150	0xbeb20ca2	-0.34775263
151	0xbe5eca73	-0.21756916
152	0x3c324cfc	0.010882612
153	0x3e736f4f	0.2377293
154	0x3e8d8fa5	0.27648655
155	0xbcc75be2	-0.024335805
156	0x3e8499c1	0.25898555
157	0xbd9c2763	-0.076247
158	0xbc766b46	-0.015040224
159	0xbdb438a4	-0.08799866
160	0xbd58cbbe	-0.05292868
161	0xbd16ec62	-0.036846526
162	0xbe152e97	-0.14568554
163	0xbdde5552	-0.10856117
164	0x3d482182	0.04886008
165	0x3d9cffca	0.076659754
166	0xbd33c0a6	-0.043884896
167	0x3daaf87c	0.08348176
168	0xbe5600ba	-0.20898715
169	0xbd85ef36	-0.065397665
170	0x3df9dc31	0.12200201
171	0xbdee6589	-0.1164046
172	0x3e3aab8e	0.18229505
173	0x3df94dae	0.12173019
174	0xbda486be	-0.080335125
175	0xbe020d0d	-0.12700291
176	0xbe42b4c6	-0.19014272
177	0xbe1f7da8	-0.15575278
178	0x3e3b4643	0.18288521
179	0xbda491e7	-0.08035641
180	0x3df52f03	0.119718574
181	0x3d13d9b0	0.036096275
182	0x3e35029e	0.1767678
183	0x3d237741	0.03990865
184	0x3d2930e8	0.041306406
185	0xbb1a04f0	-0.0023501478
186	0xbdf799a2	-0.1208985
187	0xbdd7477e	-0.10511683
188	0xbe5f5390	-0.2180922
189	0x3d72babf	0.059260126
190	0x3dd973de	0.10617803
191	0x3d96c4f3	0.07361784
192	0xbe6103dc	-0.21974128
193	0xbdb0d13a	-0.08633657
194	0xbe808c3e	-0.25106996
195	0xbe6e1ddf	-0.23253582
196	0xbe7977d3	-0.24362116
197	0xbd3dd9c0	-0.04635024
198	0xbe46819c	-0.1938538
199	0xbc0ab91c	-0.008466985
200	0x3c1a0bac	0.009402197
201	0x3ddbb222	0.107273355
202	0xbe43459b	-0.19069521
203	0xbe431078	-0.19049251
204	0xbe38006f	-0.17968915
205	0x3d8c8923	0.06862094
206	0xbe1822bf	-0.14857005
207	0x3db7babf	0.08971166
208	0xbb6a460b	-0.0035747315
209	0xbd236ab7	-0.039896693
210	0xbd45f8a6	-0.048332833
211	0xbd831260	-0.06399989
212	0x3ca8835c	0.02057045
213	0xbd202450	-0.03909713
214	0x3b0b341f	0.0021240783
215	0x3c34852b	0.011018078
216	0xbe4b1c89	-0.19835104
217	0xbe306cf1	-0.17229058
218	0x3da79af7	0.08183854
219	0xbe6d5ea4	-0.23180634
220	0xbd44e12e	-0.04806631
221	0x3e60f54e	0.21968576
222	0x3e231fe9	0.15930142
223	0x3e22f6fb	0.15914528
224	0x3d1ed04a	0.03877286
225	0x3d385728	0.045004994
226	0xbe720fdb	-0.23638861
227	0xbe3492ea	-0.17634168
228	0xbe4d03c9	-0.20020975
229	0xbe2b0057	-0.16699348
230	0xbe046aa5	-0.12931307
231	0x3d50a073	0.050934266
232	0xbd8882ac	-0.06665549
233	0x3ddc83c6	0.10767321
234	0x3d8b17f7	0.0679168
235	0xbe29c30c	-0.1657831
236	0x3d7a89d2	0.061166592
237	0xbe296985	-0.16544159
238	0xbddf91ac	-0.109164566
239	0x3cfc3760	0.030788124
240	0x3d08130b	0.033221286
241	0x3de7889c	0.11305353
242	0xbdd1612f	-0.102236144
243	0xbd06040b	-0.0327187
244	0x3da2c648	0.079479754
245	0xbe517aec	-0.20457047
246	0x3e1541c1	0.14575864
247	0xbe1c219c	-0.15247196
248	0x3ccdc230	0.02511701
249	0xbbace59f	-0.0052763964
250	0xbed33a10	-0.41255236
251	0xbe4152ad	-0.18879195
252	0x3d583a4a	0.052789964
253	0xbd9ceebb	-0.07662722
254	0xbd83df15	-0.06439034
255	0x3ca1b34c	0.019738816

model.input_block.2.weight f4 [40]
0	0x3f8eb96c	1.1150336
1	0x3f8ddf1b	1.1083711
2	0x3f8858ea	1.0652134
3	0x3f8e388e	1.1111009
4	0x3f83f12d	1.0307976
5	0x3f82f134	1.0229859
6	0x3f855836	1.0417545
7	0x3f8a3c75	1.07997
8	0x3f7db6c5	0.9910701
9	0x3f805f53	1.0029091
10	0x3f892597	1.0714597
11	0x3f92a171	1.1455518
12	0x3f94eccd	1.1634766
13	0x3f8f55b1	1.1198026
14	0x3f832ee2	1.0248682
15	0x3f890920	1.070591
16	0x3f91247c	1.1339259
17	0x3f8ee901	1.1164857
18	0x3f86e0d7	1.0537366
19	0x3f83797d	1.027145
20	0x3f764756	0.962026
21	0x3f81142b	1.008428
22	0x3f85c755	1.0451456
23	0x3f874306	1.0567329
24	0x3f80ef07	1.0072945
25	0x3f73a789	0.95177513
26	0x3f8b2e82	1.0873568
27	0x3f710ed7	0.9416327
28	0x3f8692ff	1.051361
29	0x3f9bf7a1	1.2184945
30	0x3f92c10a	1.1465161
31	0x3f73e443	0.95270175
32	0x3f938abe	1.1526716
33	0x3f85b559	1.0445968
34	0x3f8772e4	1.0581937
35	0x3f846b03	1.0345157
36	0x3f68d6fe	0.9095305
37	0x3f8756bd	1.0573345
38	0x3f9f5652	1.2448218
39	0x3f8b1904	1.0867009

model.input_block.2.bias f4 [40]
0	0x3cb32179	0.021866547
1	0xbe51be17	-0.2048267
2	0x3d288cd9	0.041149948
3	0x3d6eb3f5	0.05827709
4	0x3a679783	0.00088345277
5	0xbe00e251	-0.12586333
6	0x3c87eb95	0.016591826
7	0x3d0c14c2	0.034199484
8	0xbd25dfaa	-0.040496506
9	0xbd880ade	-0.06642698
10	0xbdbd7373	-0.09250536
11	0xbd509311	-0.050921503
12	0x3dae1287	0.084996276
13	0x3cd1dd6b	0.025618276
14	0x3de97136	0.113985464
15	0xbdac6e85	-0.084195174
16	0x3da8285a	0.082108214
17	0xbd37ca7e	-0.044870846
18	0x3d47a045	0.04873683
19	0x3d7758b6	0.060387336
20	0xbcd54274	-0.026032664
21	0xbd609d95	-0.054837782
22	0x3cb0d8af	0.021587698
23	0x3d4310b4	0.04762335
24	0xbdd0be46	-0.10192542
25	0x3cdbd5e4	0.02683539
26	0x3cdb7b78	0.026792273
27	0x3c5e8f13	0.013583916
28	0xbd354e5e	-0.04426419
29	0xbde8bc97	-0.11364096
30	0x3d457227	0.048204567
31	0x3df010a1	0.11721922
32	0xbe368497	-0.17824017
33	0x3e01369c	0.12618488
34	0x3cf6114e	0.030037548
35	0x3da56a7a	0.080769494
36	0x3da82f67	0.08212166
37	0xbdf3089e	-0.11866878
38	0x3d6e2050	0.058136284
39	0x3be45aef	0.006968848

model.input_block.2.running_mean f4 [40]
0	0xb1316db5	-2.5819251e-09
1	0x318b74d2	4.0587134e-09
2	0xb1dd1532	-6.434356e-09
3	0x31c9ef1d	5.877054e-09
4	0xb07e9a0d	-9.262358e-10
5	0x31912216	4.2239305e-09
6	0x30df7ae2	1.6260311e-09
7	0x30b44e3a	1.3118957e-09
8	0x319195a5	4.237068e-09
9	0x3186515e	3.9091637e-09
10	0x31afced0	5.116682e-09
11	0x31a3de0a	4.7691673e-09
12	0x319b21e3	4.514946e-09
13	0xb10a45ff	-2.0121431e-09
14	0xb172afad	-3.5315495e-09
15	0xb1d88e2c	-6.3025904e-09
16	0xb16ff313	-3.491725e-09
17	0x31df9e67	6.5081625e-09
18	0xb113c54e	-2.150347e-09
19	0x318a6e52	4.0288706e-09
20	0xb02a50fa	-6.1960714e-10
21	0x313df44f	2.7641993e-09
22	0x309e1bee	1.1503951e-09
23	0xb1ddb9eb	-6.453083e-09
24	0x30d79425	1.5685414e-09
25	0xb0900563	-1.047891e-09
26	0xb1ae1456	-5.0663784e-09
27	0x311a57ee	2.2459932e-09
28	0x319c26f5	4.5446265e-09
29	0xb1996723	-4.4646113e-09
30	0xb1d737b5	-6.2636567e-09
31	0x319ed94e	4.62311e-09
32	0xb1a2be93	-4.7364863e-09
33	0xb19d7ab2	-4.5832502e-09
34	0x30f05a15	1.7487901e-09
35	0x30c43275	1.4275218e-09
36	0xb19f7637	-4.6409485e-09
37	0x315820b5	3.1450729e-09
38	0xb1f93572	-7.25293e-09
39	0x2ebc5bfa	8.5655885e-11

model.input_block.2.running_var f4 [40]
0	0x2e4aae05	4.6084043e-11
1	0x2e5c1acf	5.004602e-11
2	0x2db48faa	2.052743e-11
3	0x2dc239a5	2.2080846e-11
4	0x2d9096f7	1.6437946e-11
5	0x2d8622cc	1.524949e-11
6	0x2dbff13f	2.182132e-11
7	0x2e4a52c5	4.6002997e-11
8	0x2d94eab2	1.6929878e-11
9	0x2d91d9cd	1.6581314e-11
10	0x2d78a451	1.41336534e-11
11	0x2ddd230a	2.5140352e-11
12	0x2d828cc9	1.484181e-11
13	0x2e06f247	3.0683258e-11
14	0x2e3abd35	4.2459553e-11
15	0x2dac93b1	1.9619724e-11
16	0x2da85566	1.9137313e-11
17	0x2d6d7e0f	1.3499881e-11
18	0x2e3f024c	4.3430412e-11
19	0x2d15622a	8.491466e-12
20	0x2d3a508e	1.0590763e-11
21	0x2d4e80aa	1.17383134e-11
22	0x2e0c48b3	3.1896884e-11
23	0x2d61f5c3	1.2844339e-11
24	0x2da892dc	1.9164607e-11
25	0x2d64be23	1.3002518e-11
26	0x2d39b655	1.0556518e-11
27	0x2cf776d4	7.033355e-12
28	0x2d8a61ae	1.5732162e-11
29	0x2e75876f	5.582684e-11
30	0x2dc8c7a2	2.2826022e-11
31	0x2dd12455	2.3776684e-11
32	0x2dba8fd5	2.1209626e-11
33	0x2d47809d	1.1340398e-11
34	0x2e30dbf2	4.0213118e-11
35	0x2e3cff8f	4.2973233e-11
36	0x2d90f092	1.647774e-11
37	0x2d54c52e	1.20945875e-11
38	0x2e310221	4.024703e-11
39	0x2dac88a4	1.9614817e-11

model.input_block.3.weight f4 [40, 1, 20, 1]
0	0x3e0e7ef7	0.1391562
1	0xbd3385bc	-0.04382871
2	0x3e2e2b06	0.170086
3	0xbdd94959	-0.10609693
4	0xbd6e88fa	-0.0582361
5	0x3d8e52ee	0.06949411
6	0xbda9180b	-0.08256539
7	0xbec6b67e	-0.38811105
8	0xbd85c113	-0.065309666
9	0xbdab14d4	-0.08353582
10	0x3e254aa4	0.16141754
11	0x3d84bddc	0.06481525
12	0x3da84f4b	0.08218249
13	0x3e104d1e	0.14091918
14	0xbd65cc29	-0.056102905
15	0x3d9379e7	0.072009854
16	0x3e8c117b	0.27357087
17	0xbd9f33b6	-0.07773535
18	0xbe34b019	-0.17645301
19	0xbc4b85a2	-0.012421997
20	0x3dd177c1	0.10227919
21	0xbdacdff4	-0.08441153
22	0xbe0992a4	-0.13434845
23	0x3e713818	0.23556554
24	0xbd965afa	-0.07341571
25	0xbe25d8f3	-0.16196041
26	0xbdd481e2	-0.10376336
27	0x3d1d8637	0.038458075
28	0xbdd39699	-0.103314586
29	0x3e23386f	0.15939496
30	0x3e9005f4	0.28129542
31	0xbd29e703	-0.041480076
32	0x3d9a5f2c	0.07537684
33	0x3cf32091	0.029678615
34	0x3b0f91ea	0.002190704
35	0x3dc98b1d	0.09840987
36	0xbe26fbd6	-0.16307005
37	0xbdaf4623	-0.085582994
38	0xbea15810	-0.315125
39	0x3e570663	0.2099853
40	0xbe9e0b6b	-0.30868086
41	0x3e11dd48	0.14244568
42	0xbe12f02a	-0.14349428
43	0xbd41d8c7	-0.047325876
44	0x3ea21be1	0.31661895
45	0xbdc8b7bc	-0.098006696
46	0x3e1dd75f	0.15414189
47	0x3e331201	0.17487337
48	0xbe899f0e	-0.26879162
49	0x3d955c94	0.072930485
50	0xbe2e3aa3	-0.17014556
51	0xbe697009	-0.22796644
52	0x3d047471	0.03233761
53	0x3e2f688e	0.17129728
54	0xbd8715ff	-0.06595992
55	0x3d1625dd	0.036657203
56	0x3e06a040	0.13147068
57	0x3c757031	0.014980362
58	0x3da73307	0.081640296
59	0xbda2abf5	-0.079429545
60	0xbca98029	-0.020690994
61	0x3e2e1cfd	0.17003246
62	0x3e331ac5	0.1749068
63	0x3e84ab04	0.25911725
64	0xbe836e12	-0.25669914
65	0xbe395b66	-0.18101272
66	0xbbe6ac5d	-0.0070395903
67	0xbecc7b78	-0.3993795
68	0x3c4e9cf3	0.012610662
69	0x3e2c8653	0.16848116
70	0x3e207c87	0.15672503
71	0x3b339d5c	0.0027407026
72	0x3d1c7463	0.038196933
73	0x3dacf1aa	0.08444531
74	0x3e0f8043	0.14013772
75	0xbe960e27	-0.29307672
76	0xbe0fdbe2	-0.14048722
77	0xbd901eb3	-0.070371054
78	0x3e212cc8	0.15739739
79	0xbd32bf8d	-0.04363971
80	0x3df74318	0.12073344
81	0xbe71642f	-0.23573373
82	0xbc287056	-0.010280689
83	0xbd69a922	-0.057046063
84	0x3e35cdf8	0.17754352
85	0x3df9f02f	0.122040145
86	0x3de5b11a	0.1121542
87	0xbe061a10	-0.1309588
88	0xbdbf22fd	-0.09332845
89	0xbe0345f3	-0.12819652
90	0xbc9f9e09	-0.019484537
91	0x3e69e9fe	0.22843167
92	0xbd03b472	-0.032154508
93	0x3e91189b	0.28339085
94	0xbcb764e6	-0.02238698
95	0xbd4077f3	-0.046989392
96	0x3d53ed96	0.05174025
97	0xbe025597	-0.12727962
98	0x3dd509bf	0.104022495
99	0xbce1d7e5	-0.027568767
100	0x3b1a1119	0.0023508726
101	0x3c776c1b	0.015101458
102	0x3dfadf2f	0.122496
103	0x3eadf52b	0.3397611
104	0x39d28951	0.0004015663
105	0x3dd019bf	0.10161161
106	0xbca61c22	-0.020277087
107	0xbe44dd61	-0.19225074
108	0x3dce2669	0.1006592
109	0xbc9265aa	-0.017870743
110	0x3d18ca76	0.037302457
111	0xbe5b1386	-0.21394166
112	0xbcd01b02	-0.025403503
113	0x3e905cdd	0.2819585
114	0xbd26357f	-0.04057836
115	0xbd3ff144	-0.04686095
116	0x3e2c4bef	0.16825841
117	0xbe2a7077	-0.16644464
118	0xbeb831ae	-0.35975403
119	0x3de585b2	0.11207141
120	0xbc8fd032	-0.01755533
121	0xbe3cb3d8	-0.1842798
122	0xbe35d814	-0.17758209
123	0x3da82b4f	0.082113855
124	0xbdf1057e	-0.11768626
125	0xbdfa3fd5	-0.12219206
126	0xbe0d3d48	-0.13792908
127	0xbde042a4	-0.10950211
128	0xbbb9d803	-0.0056715026
129	0xbd8210c5	-0.06350855
130	0xbdef0ed7	-0.11672752
131	0x3e12a896	0.14322123
132	0xbd0fd075	-0.03511091
133	0x3ed4dee1	0.41576293
134	0x3e0e280e	0.13882467
135	0xbb83bde7	-0.004020441
136	0x3d24e011	0.04025275
137	0x3dc3ecda	0.0956666
138	0x3e85c6a1	0.26128104
139	0xbe28f9d1	-0.16501547
140	0x3d064223	0.032777917
141	0x3e1b8b27	0.15189801
142	0xbe130e5c	-0.14360946
143	0x3ce291db	0.02765744
144	0x3e9a064d	0.30082932
145	0xbdc6762b	-0.096905075
146	0x3e024471	0.12721421
147	0xbe278f54	-0.16363269
148	0x3d9a7b77	0.0754308
149	0xbe235c21	-0.15953113
150	0x3e48a946	0.19595823
151	0xbea587d0	-0.3233018
152	0xbe0b2f37	-0.1359223
153	0xbd381169	-0.04493848
154	0x3e1739a7	0.14768086
155	0xbe801416	-0.25015324
156	0x3ca078a2	0.019588772
157	0x3e8f048f	0.27933165
158	0xbd9da295	-0.07697026
159	0x3dc56836	0.09639017
160	0xbdae79f0	-0.085193515
161	0x3da6c267	0.08142548
162	0xbb0f89ac	-0.0021902127
163	0x3e5d8255	0.21631749
164	0x3e918b2f	0.284265
165	0xbe2d5f0a	-0.16930786
166	0x3e1d8234	0.153817
167	0xbc7a7399	-0.01528635
168	0xbe273824	-0.1633001
169	0xbe383ff2	-0.17993143
170	0xbd4c0902	-0.049813278
171	0x3e9181bc	0.28419292
172	0xbd360ed5	-0.04444774
173	0xbceaba16	-0.028653186
174	0xbdc014fc	-0.093790025
175	0xbdaabcf1	-0.08336819
176	0x3c0898f9	0.008337253
177	0x3c789530	0.015172288
178	0xbcc6d08a	-0.024269361
179	0xbe003080	-0.12518501
180	0xbe270111	-0.16309
181	0xbc9d3ece	-0.019194987
182	0x3e2f007b	0.17090027
183	0xbe2f6164	-0.17126995
184	0x3c79b433	0.015240717
185	0xbc12e55d	-0.008965817
186	0xbd45ec31	-0.048320953
187	0x3ebd625a	0.369891
188	0x3ea1c460	0.31595135
189	0xbe53ee6f	-0.20696424
190	0xbd6505bf	-0.055913683
191	0x3e1d847c	0.1538257
192	0x3d1d2625	0.038366456
193	0x3c94fdd0	0.018187433
194	0x3d66fd66	0.056394003
195	0xbdfd6627	-0.12373
196	0x3d447ec0	0.04797244
197	0xbe2dd3ad	-0.16975279
198	0x3cd2fbd3	0.025754845
199	0xbdd1d4c1	-0.10245658
200	0x3d37c55b	0.044865947
201	0x3e6e527a	0.2327365
202	0x3eca4193	0.39503154
203	0xbe3cb3cc	-0.18427962
204	0xbe11f487	-0.14253436
205	0x3cd94c04	0.026525505
206	0xbe6ab2b3	-0.22919731
207	0x3ded701e	0.1159365
208	0x3d193cb5	0.03741141
209	0xbd509072	-0.050919004
210	0xbe00c556	-0.12575278
211	0xbe31649d	-0.17323537
212	0x3db5d2a3	0.088780664
213	0xbcc0b65e	-0.02352446
214	0xbe72aa5a	-0.23697796
215	0xbe6dd6f7	-0.23226534
216	0x3e72cad0	0.2371018
217	0x3e011cf0	0.12608695
218	0x3ace67ff	0.0015747546
219	0x3dd1b87f	0.10240268
220	0x3e1a9cff	0.15098952
221	0x3c18bc82	0.0093222875
222	0xbdb681ba	-0.08911462
223	0xbda215be	-0.07914303
224	0xbe0fb0f3	-0.14032345
225	0xbb9406d6	-0.0045174165
226	0xbe04633a	-0.12928477
227	0x3dc964a6	0.0983365
228	0x3dbafb3e	0.09129952
229	0xbe7b8329	-0.24561752
230	0x3e6c44d6	0.23073134
231	0x3ec411d2	0.38294846
232	0xbdf4b8fe	-0.11949347
233	0xbb5bc08e	-0.003353152
234	0x3d8c6bc0	0.06856489
235	0xbe3d6233	-0.18494491
236	0xbc8d9c9a	-0.017286588
237	0x3cf51931	0.029919239
238	0x3e3e46bb	0.18581669
239	0xbe617f4a	-0.22021213
240	0xbd93ff95	-0.07226483
241	0x3d4cbb57	0.04998335
242	0x3d97f9df	0.07420706
243	0xbeb357d0	-0.35027933
244	0xbe2b9ba0	-0.16758585
245	0xbdb024cf	-0.08600771
246	0xbe344043	-0.17602639
247	0x3e15eb09	0.1464044
248	0x3e475948	0.19467652
249	0xbe11c7bf	-0.14236353
250	0xbcd6639b	-0.026170542
251	0x3ea9362f	0.3304915
252	0x3e1bddf5	0.15221389
253	0xbe993095	-0.29919878
254	0x3e38b78d	0.18038769
255	0x3dd91951	0.10600532

model.input_block.4.weight f4 [40]
0	0x3f8e731d	1.112888
1	0x3f8db45c	1.1070666
2	0x3f884d29	1.0648547
3	0x3f8e263b	1.1105417
4	0x3f83d9c4	1.0300832
5	0x3f827ec3	1.0194935
6	0x3f8542aa	1.0410969
7	0x3f8a00ff	1.0781554
8	0x3f7d4d51	0.989461
9	0x3f805e94	1.0028863
10	0x3f89140b	1.0709242
11	0x3f927389	1.1441509
12	0x3f94d029	1.1626025
13	0x3f8ed24e	1.115793
14	0x3f81f031	1.0151426
15	0x3f88d609	1.0690318
16	0x3f910262	1.1328852
17	0x3f8eed84	1.1166234
18	0x3f8694db	1.0514177
19	0x3f8364c9	1.0265132
20	0x3f75c652	0.9600574
21	0x3f81503d	1.0102612
22	0x3f85b409	1.0445567
23	0x3f874112	1.0566733
24	0x3f80bf58	1.0058393
25	0x3f738fb8	0.9514117
26	0x3f8b0c39	1.0863105
27	0x3f7104b6	0.94147813
28	0x3f864690	1.0490284
29	0x3f9b20a0	1.2119331
30	0x3f92a5fd	1.1456906
31	0x3f73b267	0.95194095
32	0x3f936f41	1.1518327
33	0x3f85bf85	1.0449072
34	0x3f87324a	1.0562222
35	0x3f8426cf	1.0324343
36	0x3f68ac2b	0.9088771
37	0x3f8761d2	1.0576727
38	0x3f9f2e73	1.243605
39	0x3f8adfb2	1.0849516

model.input_block.4.bias f4 [40]
0	0x3cb6624a	0.022263665
1	0xbc0c8a2c	-0.008577865
2	0xbaeca08c	-0.0018053218
3	0x390f7a22	0.00013683041
4	0xbb9f2f9c	-0.0048579704
5	0x3b564ccb	0.003269958
6	0xbc9efa3f	-0.019406436
7	0xbbfd2199	-0.0077249524
8	0x3c16236c	0.009163719
9	0x3b339106	0.0027399673
10	0xbbdfca92	-0.006829568
11	0x3c7f68b4	0.015588928
12	0xbca1ef1a	-0.019767333
13	0x3aa933bd	0.0012909096
14	0xbbcddb66	-0.006282258
15	0xbcfac40f	-0.030611066
16	0xbb543394	-0.0032379376
17	0xbb1e2a4d	-0.00241341
18	0x3aa7b440	0.0012794808
19	0xbc25dced	-0.010123474
20	0xbb92abf5	-0.0044760653
21	0xbbf47461	-0.0074601625
22	0xbc0774b2	-0.008267568
23	0xbb78034d	-0.0037843764
24	0x3c8f4051	0.017486723
25	0xbb4a46d3	-0.0030864968
26	0x3c26dc48	0.010184355
27	0x3bcf44bc	0.0063253324
28	0x3bd49e70	0.006488614
29	0xbbb5cc79	-0.0055480567
30	0x3b695726	0.0035604923
31	0xbb90bda7	-0.0044171396
32	0xbba3d67d	-0.004999934
33	0xbc38127e	-0.011234878
34	0x3c105d4e	0.008811308
35	0x3bc09ba8	0.0058779307
36	0xb860b770	-5.35766e-05
37	0xbaf83912	-0.0018937907
38	0x37a4be90	1.9639061e-05
39	0xba304d1f	-0.0006725359

model.input_block.4.running_mean f4 [40]
0	0x3a0548eb	0.0005084413
1	0x3be30fbf	0.0069293673
2	0xbb58db12	-0.003308956
3	0xbb35cf06	-0.0027741804
4	0x3978c968	0.00023726153
5	0xbcccc3b8	-0.02499567
6	0xbaad33a6	-0.0013214245
7	0x3b060856	0.0020451746
8	0x3a613538	0.0008590999
9	0xbc1b728e	-0.009487761
10	0xba6cc8c4	-0.0009032602
11	0xba43388f	-0.00074470876
12	0xbc2ba581	-0.010476471
13	0xba4d8670	-0.0007840162
14	0x3c07c651	0.008287028
15	0x3cccb53f	0.024988769
16	0xbab99249	-0.0014157976
17	0xbba02717	-0.0048874724
18	0x3a679f4b	0.0008835687
19	0x3c543289	0.012951502
20	0x3c0129ea	0.007883528
21	0xbc206999	-0.009790801
22	0xbab2cdd0	-0.0013641659
23	0xba5f4082	-0.00085163873
24	0xbbea456c	-0.007149389
25	0xbb2d06f0	-0.002640184
26	0x3bffe9d5	0.0078098574
27	0x3b80968f	0.003924198
28	0x3c790ac3	0.01520032
29	0x3b95e576	0.004574473
30	0xbac01e77	-0.0014657517
31	0x3ca0d895	0.019634524
32	0x3bda0fd7	0.0066547203
33	0xbd2183d4	-0.03943236
34	0xba3ce59d	-0.0007205846
35	0xbab7e00f	-0.0014028567
36	0x3c7f5422	0.015584024
37	0xbbdc17f2	-0.0067167217
38	0xbb30442b	-0.00268961
39	0xb8dc03f8	-0.00010491157

model.input_block.4.running_var f4 [40]
0	0x344d9836	1.9147487e-07
1	0x343b30ad	1.743344e-07
2	0x348f2e30	2.6669431e-07
3	0x3449f6e5	1.8809403e-07
4	0x349a17b0	2.870197e-07
5	0x345d3e1b	2.0604823e-07
6	0x34e5a3ac	4.277366e-07
7	0x3450d3e5	1.9448596e-07
8	0x34870cc8	2.515501e-07
9	0x34470685	1.8535691e-07
10	0x34577a5b	2.0067948e-07
11	0x346019ae	2.0870968e-07
12	0x34a083a2	2.9898098e-07
13	0x34b4bbbb	3.3664205e-07
14	0x34ac504e	3.2095926e-07
15	0x350102f6	4.8060554e-07
16	0x3430b18e	1.6455871e-07
17	0x3402aab7	1.2169299e-07
18	0x34ac82fd	3.2132803e-07
19	0x3404e4b2	1.2376657e-07
20	0x34494276	1.8743762e-07
21	0x34b83ab6	3.4315389e-07
22	0x3448384b	1.8646931e-07
23	0x33f7391e	1.1512223e-07
24	0x347df86a	2.3652834e-07
25	0x3405b41f	1.2452118e-07
26	0x34286b9d	1.5685369e-07
27	0x3403e9ac	1.2285335e-07
28	0x34ab4f6f	3.1909028e-07
29	0x34ade734	3.2391983e-07
30	0x33e03aea	1.0441529e-07
31	0x34bbc959	3.4977964e-07
32	0x347fe14f	2.3830692e-07
33	0x34515dce	1.9498768e-07
34	0x34467b36	1.8485011e-07
35	0x3497f7e2	2.83063e-07
36	0x3456f183	2.0018165e-07
37	0x3414d039	1.3859325e-07
38	0x34b8f87b	3.4453464e-07
39	0x34591702	2.021807e-07

model.channel_expansion.0.weight f4 [16, 40, 1, 1]
0	0x3a0e3bbc	0.0005425771
1	0x3db9e956	0.090777084
2	0xbdca9fd7	-0.09893768
3	0x3dc90b31	0.09816588
4	0xbe2b3b11	-0.16721751
5	0x3e2195ff	0.15779875
6	0xbcf82de4	-0.03029532
7	0x3e023558	0.12715662
8	0x3d380ad1	0.04493219
9	0x3d007905	0.031365413
10	0xbd31800c	-0.043335006
11	0xb9e21367	-0.00043120535
12	0xbe02ad11	-0.12761332
13	0x3b3a7d83	0.0028456158
14	0x3de2d50f	0.11075794
15	0x3d3f2f80	0.04667616
16	0x3dec0d65	0.11525992
17	0x3c0129de	0.007883517
18	0x3d21bd6e	0.039487295
19	0xbe0e6b10	-0.13908029
20	0xbe270daa	-0.16313806
21	0x3d896f2d	0.06710658
22	0xbd6d4620	-0.057928205
23	0x3e096ab2	0.13419607
24	0xbe6d84e5	-0.23195226
25	0x3d409de8	0.04702559
26	0xbe3d85df	-0.18508099
27	0x3dda5c2f	0.10662114
28	0xbe12278b	-0.14272897
29	0x3d9bec45	0.07613424
30	0xbeac79d2	-0.33686692
31	0xbe09ea23	-0.13468222
32	0x3e04ecda	0.12980977
33	0xbd32d5df	-0.043660995
34	0x3da0f8f7	0.07859986
35	0xbe78bef6	-0.24291596
36	0x3dbaae82	0.09115316
37	0xbb211110	-0.002457682
38	0x3dff7222	0.12472941
39	0xbd04feba	-0.03246949
40	0xbea4f62f	-0.32219073
41	0xbd8354ef	-0.06412684
42	0xbd190686	-0.037359737
43	0xbe7c0b38	-0.24613655
44	0xbc16afac	-0.009197157
45	0xbd9234db	-0.07138988
46	0xbce83681	-0.028346302
47	0xbe11ae21	-0.14226581
48	0x3e473a34	0.19455796
49	0xbe2ba592	-0.16762379
50	0xbd6b8c98	-0.057507128
51	0xbddbb9f4	-0.10728827
52	0x3c88897b	0.016667118
53	0xbd3ea273	-0.046541642
54	0x3ddd795d	0.10814164
55	0x3d065544	0.03279616
56	0xbd380018	-0.044921964
57	0x3d96f2da	0.07370539
58	0xbd028b86	-0.03187134
59	0x3d19d4bb	0.03755639
60	0xbe4057df	-0.1878352
61	0x3e320694	0.17385322
62	0x3dcd99f9	0.100391336
63	0x3e75f48d	0.2401907
64	0xbd5faf81	-0.054610733
65	0xbe11a0fb	-0.14221565
66	0xbb162b1b	-0.0022913876
67	0x3dbed4cf	0.09317934
68	0x3d5874d5	0.052845795
69	0x3e34596b	0.17612235
70	0x3ccebef9	0.025237547
71	0x3d8e52f6	0.06949417
72	0xbd2a9ead	-0.04165523
73	0x3e18664f	0.14882778
74	0x3e11b875	0.14230521
75	0x3d0ebc19	0.034847353
76	0xbd044fe8	-0.032302767
77	0xbdd63359	-0.104590125
78	0x3a327bb0	0.0006808592
79	0x3ca793f8	0.0204563
80	0x3da26ded	0.07931123
81	0xbe8d768f	-0.27629516
82	0xbdf5e893	-0.12007251
83	0xbdfc57a9	-0.12321407
84	0x3d938e9c	0.07204935
85	0xbdf2f778	-0.11863607
86	0xbdefa07c	-0.11700532
87	0xbe00fb4c	-0.12595862
88	0xbc96010a	-0.018311042
89	0x3d4d88f3	0.050179433
90	0x3d31e786	0.04343369
91	0x3c7c9d34	0.0154183395
92	0x3e469b33	0.19395141
93	0x3c020855	0.007936557
94	0xbde7c4d9	-0.113168426
95	0xbc91e232	-0.017808054
96	0xbe5bd4df	-0.21467923
97	0xbe35e02d	-0.17761298
98	0x3e0752cf	0.13215183
99	0xbdaa9895	-0.08329884
100	0x3da9bcdb	0.082879744
101	0xbd0ccc06	-0.03437426
102	0xbdf432d2	-0.11923756
103	0xbdc17bf1	-0.09447468
104	0x3ca6c81d	0.020359093
105	0xbd642ef4	-0.05570884
106	0x3e2a1481	0.16609384
107	0xbe10b7a0	-0.14132547
108	0x3d831b20	0.06401658
109	0x3dd14e87	0.10220056
110	0x3def988d	0.116990186
111	0xbe2af7a6	-0.16696033
112	0xbd1c1a82	-0.038111217
113	0xbe05248a	-0.1300222
114	0x3cb3c4ec	0.021944486
115	0x3e5c50b0	0.21515155
116	0x3d9d665e	0.076855406
117	0xbddad508	-0.10685164
118	0xbe138cf0	-0.14409232
119	0x3e3a93bd	0.1822042
120	0x3cec5126	0.028847288
121	0x3dadf2a4	0.08493546
122	0x3c34e3ec	0.011040669
123	0x3d9c30eb	0.07626518
124	0xbdd59b59	-0.10430021
125	0x3d72bbc1	0.059261087
126	0x3c865d52	0.01640192
127	0x3e368fb0	0.1782825
128	0x3dadfa40	0.08494997
129	0xbdd56461	-0.104195364
130	0xbda657ad	-0.081221916
131	0xbea9646c	-0.33084428
132	0xbe73564a	-0.23763385
133	0x3dc983b2	0.09839572
134	0x3e6719cd	0.22568436
135	0xbd50835c	-0.050906524
136	0x3cc3ebd1	0.023916157
137	0x3c1dc342	0.009629073
138	0x3b03847f	0.0020067987
139	0xbc407568	-0.011746742
140	0xbde9415d	-0.1138942
141	0xbd3605b5	-0.044439036
142	0xbd492457	-0.049106922
143	0x3b92da13	0.004481563
144	0xbde200aa	-0.11035283
145	0x3d527d79	0.05138919
146	0xbdac5c75	-0.08416072
147	0x3e470c29	0.19438232
148	0x3df37975	0.118884005
149	0xba98e606	-0.0011665232
150	0xbdd828e2	-0.10554673
151	0x3c85dfe3	0.01634211
152	0x3e1b07bf	0.15139674
153	0xbd20274c	-0.039099976
154	0xbd8894b0	-0.06668985
155	0xbde07123	-0.10959079
156	0x3d1f1ad0	0.03884393
157	0xbdc1d1d8	-0.09463853
158	0xbe45853f	-0.1928911
159	0xbdb5728e	-0.0885974
160	0x3e5288ed	0.20560046
161	0x3b413967	0.0029483677
162	0x3d188265	0.03723373
163	0x3e8ed5c6	0.2789747
164	0x3e0f8beb	0.14018218
165	0xbdc60d14	-0.09670463
166	0xbe923c1e	-0.2856149
167	0x3d94d5d3	0.07267346
168	0xbe5f9779	-0.21835126
169	0xbe0659e0	-0.13120222
170	0xbd04ed37	-0.03245279
171	0x3e5c5273	0.21515827
172	0xbc99949f	-0.018747626
173	0xbe0972d3	-0.13422708
174	0x3c948429	0.018129425
175	0xbd633e45	-0.055479307
176	0x3e3cee1e	0.1845021
177	0x3d2b8dfc	0.041883454
178	0xbd7ccc8e	-0.061718516
179	0xbdd097b4	-0.10185185
180	0xbe0d4831	-0.1379707
181	0xbc40009d	-0.011718896
182	0xbdc728cc	-0.09724578
183	0x3cdd41dd	0.027008945
184	0x3b5f52aa	0.0034076371
185	0xbab87464	-0.0014072773
186	0x3c722ab4	0.014780689
187	0xbe9d4fbc	-0.30724895
188	0xbd026d09	-0.031842265
189	0xbd845eb4	-0.06463376
190	0x3c928508	0.0178857
191	0xbe7758be	-0.24154946
192	0x3b97c11c	0.0046311747
193	0xbce7e1d2	-0.028305922
194	0xbdf4e899	-0.11958427
195	0x3c272270	0.010201082
196	0x3d33671e	0.043799512
197	0x3d8bc2a5	0.06824235
198	0xbd3f5d17	-0.046719637
199	0x3dc09b07	0.09404569
200	0x3d91e14a	0.071230486
201	0xbd4f9818	-0.050682157
202	0x3d5320d2	0.05154497
203	0x3d9ac87d	0.07557771
204	0x3a39670b	0.00070725445
205	0xbde68bb1	-0.11257113
206	0xbd6f0460	-0.05835378
207	0x3e588cd9	0.21147479
208	0x3cc904af	0.024538366
209	0xbd56ea58	-0.05246958
210	0xbc22af32	-0.009929465
211	0xbe4fe3f1	-0.20301796
212	0xbe93e431	-0.28885034
213	0x3dc04a86	0.09389214
214	0x3df37cff	0.118890755
215	0xbd2ca0a4	-0.042145386
216	0xbe2611f5	-0.16217788
217	0x3cde6a87	0.027150406
218	0x3d862388	0.06549746
219	0xbd9fe7dc	-0.078078955
220	0xbd1d5fc2	-0.0384214
221	0xbe1e7837	-0.15475546
222	0x3bf781a5	0.0075532966
223	0xbbf58cda	-0.0074935975
224	0xbd4ea474	-0.050449803
225	0x3d2cab94	0.042155817
226	0x3e313870	0.17306685
227	0xbcc0e881	-0.023548367
228	0x3e006fb7	0.12542616
229	0x3e0787c4	0.13235384
230	0x3d56e662	0.052465804
231	0x3db6711d	0.089082934
232	0x3dff5dbb	0.124690495
233	0x3c9916d1	0.018687638
234	0xbcaf4f43	-0.0214001
235	0x3e05b6be	0.13057992
236	0x3d870af0	0.06593883
237	0xbdf17a48	-0.117909014
238	0xbdc6191a	-0.096727565
239	0xbce9a72e	-0.0285221
240	0xbce4f2a6	-0.027947735
241	0x3db130d7	0.086518936
242	0x3e28991e	0.1646466
243	0x3daec46d	0.08533559
244	0x3caecf7f	0.021339176
245	0x3d50b91f	0.050957795
246	0x3d2019fb	0.039087277
247	0xbdc45fa6	-0.09588556
248	0xbdb1d59c	-0.08683321
249	0xbd284d06	-0.04108908
250	0xbe033592	-0.12813404
251	0x3e1d1b03	0.15342335
252	0x3df0fba0	0.11766744
253	0xbe00cb11	-0.12577464
254	0xbd331222	-0.043718465
255	0xbc7a32ab	-0.015270869

model.channel_expansion.1.weight f4 [16]
0	0x3f88a44c	1.067514
1	0x3f8bbcac	1.0916953
2	0x3f9089f8	1.1292105
3	0x3f6d16e5	0.9261306
4	0x3f861967	1.0476502
5	0x3f8a1cfb	1.0790094
6	0x3f903e80	1.1269073
7	0x3f8ba6fa	1.0910332
8	0x3f7732d1	0.96561915
9	0x3f9a2715	1.2043177
10	0x3f78d87f	0.97205347
11	0x3f8e9f67	1.1142396
12	0x3f63aa9f	0.8893222
13	0x3f9043d3	1.1270698
14	0x3f892aea	1.0716221
15	0x3f8add1a	1.0848725

model.channel_expansion.1.bias f4 [16]
0	0xbec4cfd0	-0.38439798
1	0xbeaba4b9	-0.3352411
2	0xbe947a58	-0.2899959
3	0xbe824bf0	-0.2544856
4	0xbe95cff5	-0.2926022
5	0xbe8a3e84	-0.2700082
6	0xbed9abfe	-0.42514032
7	0xbddfb1a0	-0.10922551
8	0x3deeeee3	0.11666658
9	0xbec97a7f	-0.3935127
10	0xbe8d4017	-0.2758796
11	0xbeb4d71b	-0.35320362
12	0x3e106c51	0.1410382
13	0xbe9df5e2	-0.30851656
14	0xbe7faae9	-0.24967541
15	0xbe59c0bd	-0.2126493

model.channel_expansion.1.running_mean f4 [16]
0	0xbbf221bf	-0.0073892768
1	0xbc1f3990	-0.009718314
2	0x3c154991	0.009111778
3	0xbbb75ac8	-0.0055955388
4	0x3bc18ad0	0.0059064403
5	0x3bf87d13	0.0075832694
6	0xbba78634	-0.005112434
7	0x3a9b569a	0.0011851371
8	0xbbb4d50c	-0.005518561
9	0x3a8854d5	0.0010401258
10	0xbbc20eae	-0.00592216
11	0x3b6a47f5	0.0035748456
12	0x3b982705	0.0046433234
13	0x3b11f9e2	0.0022274186
14	0xbc8a5da4	-0.016890354
15	0x3b330493	0.002731596

model.channel_expansion.1.running_var f4 [16]
0	0x3c738f52	0.014865713
1	0x3c363862	0.011121841
2	0x3c793b9e	0.015211968
3	0x3c56aaad	0.013102216
4	0x3c55df7b	0.01305377
5	0x3c12ab11	0.008951918
6	0x3c4a0741	0.012330831
7	0x3c8c735d	0.017144853
8	0x3c956644	0.01823724
9	0x3c85605e	0.016281303
10	0x3c31fa1e	0.010862855
11	0x3c9dbc2e	0.01925477
12	0x3c371899	0.011175298
13	0x3c93a1bf	0.018021462
14	0x3c3fdabf	0.011709868
15	0x3c5aace1	0.013346882

model.fe.0.weight f4 [16, 1, 1, 15]
0	0xbe358d85	-0.17729767
1	0xbdbdba0a	-0.09264
2	0xbe4ef946	-0.20212278
3	0xbe7f0f87	-0.24908267
4	0xbe3756db	-0.17904226
5	0xb9d7fba7	-0.0004119549
6	0xbdc8c9a7	-0.09804087
7	0xbe036f30	-0.12835383
8	0xbe1503e9	-0.14552273
9	0xbe0e0b2d	-0.1387145
10	0xbd6deedf	-0.058089133
11	0xbd1d27f4	-0.03836818
12	0xbe05b569	-0.13057484
13	0xbdfeaff8	-0.12435907
14	0xbc29562a	-0.0103354845
15	0x3d60e651	0.054907147
16	0x3deeddf5	0.11663429
17	0x3dc71fe3	0.09722879
18	0x3e82919c	0.25501716
19	0x3e27e02d	0.1639411
20	0x3e28dc4d	0.16490288
21	0x3d9d4501	0.07679177
22	0x3e53ce32	0.20684126
23	0x3d937d0e	0.07201587
24	0x3e5e1d26	0.21690807
25	0x3e0f807e	0.1401386
26	0x3e04e89f	0.12979363
27	0x3dc7749a	0.09739037
28	0x3da6f901	0.081529625
29	0x3e4a7896	0.19772562
30	0xbde076d5	-0.109601654
31	0xbe9bb23a	-0.30409414
32	0xbe9a0534	-0.30082095
33	0xbe50e4df	-0.20399807
34	0x3c4f711b	0.012661244
35	0xbe32cc78	-0.17460811
36	0xbd24fba1	-0.040279035
37	0xbe122ac0	-0.1427412
38	0xbe614cce	-0.22001955
39	0xbe021f75	-0.12707312
40	0xbdd0d931	-0.10197676
41	0xbe5f5fa1	-0.21813823
42	0xbe423a91	-0.18967654
43	0xbdf70cdb	-0.12062999
44	0xbe90159b	-0.28141484
45	0x3c125bc2	0.00893301
46	0x3e569bb7	0.20957838
47	0x3e1923e4	0.14955097
48	0x3c78ad4f	0.015178039
49	0x3d6892b2	0.056780525
50	0x3b2a46d0	0.002598215
51	0x3e00cc36	0.125779
52	0x3e183f04	0.14867789
53	0x3e850dc7	0.25987074
54	0xbdbfeab7	-0.0937094
55	0x3d87a539	0.066233106
56	0x3e37a8f7	0.17935549
57	0x3e51a28d	0.20472164
58	0xbd8d8acc	-0.06911239
59	0x3e2b3484	0.16719252
60	0x3e272b3b	0.16325085
61	0x3e4ade4a	0.19811359
62	0x3bce3e18	0.0062940232
63	0x3e664298	0.22486341
64	0x3d1ede42	0.03878618
65	0x3cb4d59b	0.022074511
66	0x3df234a4	0.11826447
67	0x3e9771d9	0.29579046
68	0xbc80b047	-0.015709056
69	0x3e5a0c34	0.21293718
70	0x3e0493e1	0.12947036
71	0x3dfb2892	0.122635975
72	0x3e6d46da	0.23171559
73	0x3dcbdb30	0.09953916
74	0xbd008cbb	-0.03138421
75	0xbe5087e2	-0.20364335
76	0xbe1a82de	-0.15088984
77	0xbe7c4865	-0.24636991
78	0xbdaac7b8	-0.083388746
79	0xbe154731	-0.14577939
80	0xbe241298	-0.16022718
81	0xbd5e3292	-0.054247446
82	0xbe11f20f	-0.14252494
83	0xbdc97227	-0.09836226
84	0xbdcad9a3	-0.09904792
85	0xbe0a4d04	-0.13505942
86	0xbca40185	-0.020020256
87	0xbe5bb652	-0.21456268
88	0xbe00cb4a	-0.12577549
89	0xbdaaa1ac	-0.08331618
90	0xbe2dda45	-0.16977794
91	0xbe9f0310	-0.31057024
92	0xbe3854f8	-0.18001163
93	0xbd9eec31	-0.07759894
94	0xbcfd136c	-0.03089305
95	0xbe47a559	-0.19496669
96	0xbdea2059	-0.11431951
97	0xbd8ee0fc	-0.06976506
98	0xbe2752f2	-0.16340235
99	0xbd71237f	-0.058871742
100	0xbe7b30b7	-0.24530302
101	0xbe43fe32	-0.19139937
102	0xbe51710f	-0.20453285
103	0xbe18294c	-0.14859504
104	0xbe85ea8c	-0.26155508
105	0xbd62aab7	-0.055338588
106	0xbe5a8b85	-0.21342285
107	0x3dadb053	0.08480897
108	0xbe393f8d	-0.18090649
109	0x3e0b6949	0.13614382
110	0xbe909d22	-0.28244883
111	0x3e518c93	0.20463781
112	0xbe8ec854	-0.27887213
113	0x3dd61038	0.10452312
114	0xbd72ec82	-0.059307583
115	0x3e3437ae	0.17599365
116	0xbe8e8065	-0.27832332
117	0x39aae783	0.00032597416
118	0xbdecfdbc	-0.115718335
119	0xbddbae08	-0.10726553
120	0x3e7705e9	0.24123348
121	0xbe4d3cae	-0.20042679
122	0x3cabd323	0.020974701
123	0x3da1131c	0.07864973
124	0xbe1da582	-0.15395167
125	0x3e6c609f	0.23083733
126	0xbe040c0f	-0.12895225
127	0xbd8c22ee	-0.068426
128	0x3e69129e	0.22761008
129	0xbe2cb68e	-0.16866514
130	0x3e52918e	0.20563337
131	0xbdc2244c	-0.09479579
132	0x3de80bac	0.11330351
133	0x3e70a476	0.23500237
134	0xbe838ee7	-0.25694963
135	0x3e99ad8a	0.30015212
136	0x3de794be	0.11307667
137	0x3e9f789d	0.31146708
138	0x3e72b7f3	0.23702984
139	0x3e207a95	0.15671761
140	0x3c721919	0.014776492
141	0x3e83e503	0.2576066
142	0x3db2c176	0.08728306
143	0x3e4662a1	0.19373561
144	0x3dcef986	0.101061866
145	0x3e723f5e	0.23656985
146	0x3e7aafb1	0.24481083
147	0x3e86d77f	0.26336285
148	0x3e34a44d	0.17640801
149	0x3e749324	0.23884255
150	0x3d93e38e	0.07221137
151	0xbca3f6b2	-0.020015094
152	0xbe7204de	-0.23634669
153	0xbe1afe58	-0.15136087
154	0xbe4ccb63	-0.19999461
155	0xbdeffccc	-0.11718139
156	0xbd2299fd	-0.039697636
157	0x3c812f4e	0.015769627
158	0xbe6b2b9c	-0.22965854
159	0xbe12695d	-0.14298005
160	0x3c3d462a	0.011552373
161	0xbe52cd8f	-0.20586227
162	0xbe8c1f68	-0.2736771
163	0xbe0dfac8	-0.13865197
164	0xbe4c4152	-0.19946793
165	0xbe5bb207	-0.21454631
166	0xbe39ecd3	-0.18156748
167	0xbe82fa7b	-0.25581726
168	0xbe60c85a	-0.21951428
169	0xbe8ba143	-0.2727147
170	0xbe313356	-0.1730474
171	0xbe0dde70	-0.13854384
172	0xbe327435	-0.17427142
173	0xbe10f9f1	-0.14157845
174	0xbe25c0c6	-0.16186818
175	0xbe2494be	-0.16072366
176	0xbe18ba79	-0.14914884
177	0xbe44363a	-0.19161311
178	0xbbb8e5aa	-0.0056426125
179	0xbd2cad1e	-0.042157285
180	0xbdcecf63	-0.100981496
181	0xbcbcf178	-0.02306436
182	0x3e29ac18	0.16569555
183	0xbdbb8ccf	-0.091577165
184	0x3db39278	0.08768171
185	0x3c7f7a7f	0.01559317
186	0x3d118980	0.03553152
187	0xbcefff8d	-0.02929666
188	0x3e3b0e7b	0.18267243
189	0xbc6deedf	-0.014522283
190	0xbc43dab1	-0.011953996
191	0x3e2503c1	0.16114713
192	0xbe065ed8	-0.13122118
193	0x3d6c5435	0.057697494
194	0x3de55edd	0.11199734
195	0x3e92e1d6	0.28687924
196	0x3e1613da	0.1465601
197	0x3e80d6bf	0.25163838
198	0x3e29e0fe	0.16589734
199	0x3c808cae	0.015692081
200	0x3d8f07a4	0.06983879
201	0x3dc653ad	0.09683929
202	0x3d85bcea	0.06530173
203	0x3d77027a	0.060305096
204	0x3e0abdd6	0.13548979
205	0x3e4cc173	0.1999567
206	0x3dc756c3	0.09733345
207	0x3e22542e	0.15852425
208	0x3e0b5fc4	0.1361075
209	0x3debe197	0.11517637
210	0x3e828f1b	0.25499806
211	0x3e52bcf3	0.20579891
212	0x3ea0d80b	0.31414828
213	0xbd6b7b33	-0.05749054
214	0x3e271a3b	0.163186
215	0x3db9e8ad	0.090775825
216	0xbc162c05	-0.0091657685
217	0x3d4350fb	0.04768465
218	0x3e14a831	0.14517285
219	0x3dc60041	0.09668017
220	0xbd17aefc	-0.037032112
221	0x3da416b3	0.08012142
222	0x3e36611c	0.17810482
223	0x3d8127f6	0.0630645
224	0x3dada10f	0.08477985
225	0x3e488ee6	0.19585761
226	0x3e062b6a	0.13102499
227	0x3d361968	0.044457823
228	0x3db16834	0.08662453
229	0x3dbe299d	0.09285281
230	0x3e10c90a	0.1413919
231	0x3d224045	0.039612073
232	0x3ddc9b33	0.107717894
233	0x3de4da20	0.111744165
234	0xbd8b7fe2	-0.06811501
235	0x3dcb4260	0.099247694
236	0x3e212113	0.15735273
237	0x3d6efe96	0.05834826
238	0x3d92d3a1	0.07169271
239	0x3e3414dd	0.17586084

model.fe.1.weight f4 [16, 16, 1, 1]
0	0xbe0ea167	-0.13928758
1	0xbe48db03	-0.19614796
2	0xbe1b5fc6	-0.15173253
3	0x3d232f8c	0.039840266
4	0xbe3a290f	-0.18179725
5	0xbd58651b	-0.052830797
6	0xbe45de41	-0.19323064
7	0x3e7d6c5f	0.24748372
8	0xbd01cf60	-0.03169191
9	0xbe6c0138	-0.2304734
10	0x3e4c7f10	0.19970345
11	0xbd8af1e8	-0.06784421
12	0xbdde8cb5	-0.108666815
13	0xbde0432f	-0.10950314
14	0x3d495b36	0.04915925
15	0xbdc97290	-0.09836304
16	0x3c28acd9	0.010295116
17	0xbe881bd4	-0.2658373
18	0xbdd27754	-0.10276666
19	0x3e18807b	0.14892761
20	0xbd92adaa	-0.0716203
21	0xbe1c431f	-0.1525998
22	0xbe255a6e	-0.16147777
23	0x3dab86e6	0.08375339
24	0xbc95854d	-0.01825204
25	0xbe925366	-0.28579253
26	0x3dede3dd	0.11615727
27	0xbdb82792	-0.089919224
28	0x3d161d30	0.03664893
29	0xbd8b439b	-0.06800004
30	0x3d02f53f	0.031972166
31	0xbe968fbd	-0.2940654
32	0xbe802a24	-0.2503215
33	0xbdfd133c	-0.12357184
34	0xbe744f56	-0.2385839
35	0xbe0fd3f7	-0.14045702
36	0xbe2eda10	-0.17075372
37	0xbe4aa957	-0.1979116
38	0xbe5e2127	-0.21692334
39	0x3d306469	0.04306451
40	0xbd5acdcb	-0.053418916
41	0xbe3367db	-0.17520086
42	0x3e08690c	0.13321322
43	0x3d828cd3	0.06374516
44	0xbe2c8314	-0.16846877
45	0xbe4937a9	-0.19650139
46	0xbcb3d7a3	-0.02195341
47	0xbe95eef6	-0.29283875
48	0xbe584ae9	-0.21122326
49	0xbdcb8258	-0.099369705
50	0xbe2fafdc	-0.17156929
51	0xbba2821d	-0.0049593584
52	0xbdfa8079	-0.122315355
53	0xbdc2fc7d	-0.095208146
54	0xbe750b84	-0.23930174
55	0x3e5e32f4	0.21699125
56	0xbd8a79c5	-0.06761507
57	0xbe97c75a	-0.2964428
58	0x3e446d15	0.19182236
59	0xbd8b37e3	-0.06797769
60	0xbde27bbb	-0.11058756
61	0xbe91ca55	-0.2847468
62	0x3cb0b5ba	0.021571029
63	0xbe518938	-0.20462501
64	0x3e130781	0.14358331
65	0x3d715cab	0.058926266
66	0x3dd16aa1	0.10225416
67	0xbdaf0fdd	-0.085479476
68	0x3d59c7d1	0.053169075
69	0x3e2ede11	0.17076899
70	0x3dd64944	0.10463193
71	0x3c5dc916	0.013536712
72	0xbe0118c3	-0.12607102
73	0x3df3a3db	0.11896487
74	0xbd4b3e6d	-0.04962008
75	0x3e57a35b	0.21058409
76	0xbdbd847f	-0.09253787
77	0x3e3836d8	0.17989671
78	0xbe028b51	-0.12748457
79	0x3d50a9e4	0.05094327
80	0xbd89077c	-0.06690881
81	0xbe83fe3d	-0.25779906
82	0xbd8598f3	-0.065233134
83	0xbd18b339	-0.037280295
84	0xbe2c3c83	-0.16819958
85	0xbe211950	-0.15732312
86	0xbe0418c7	-0.12900077
87	0x3eb6b7ae	0.3568701
88	0xbc321eba	-0.010871584
89	0xbe6f30dd	-0.23358484
90	0x3dcb25b0	0.09919298
91	0xbdc58cd9	-0.09646005
92	0xbe01bac0	-0.12668896
93	0xbda7655f	-0.08173632
94	0x3d33e7c9	0.04392222
95	0x3d8559fb	0.06511303
96	0x3e60e4fd	0.21962352
97	0x3e1514c6	0.14558706
98	0x3db4f741	0.088362224
99	0xbd92d2b5	-0.071690954
100	0x3d9f039f	0.077643625
101	0x3e55dca2	0.20884946
102	0x3d7a8e20	0.061170697
103	0x3cedb06d	0.02901479
104	0xbdcf95ce	-0.10135995
105	0x3de0a336	0.1096863
106	0xbd9158a8	-0.07096988
107	0x3e87b9d6	0.2650897
108	0xbdd3da33	-0.103443526
109	0x3dfd4173	0.12365999
110	0xbdd67d70	-0.10473144
111	0x3db2bc35	0.08727304
112	0xbe6918d9	-0.22763385
113	0xbe651972	-0.22372988
114	0xbe321e76	-0.17394432
115	0x3d8d1341	0.06888438
116	0xbe3d8a95	-0.18509896
117	0xbd0a009e	-0.033691995
118	0xbdd8c9ce	-0.10585366
119	0x3e79151f	0.24324463
120	0xbd255ddf	-0.040372726
121	0xbe8be131	-0.27320245
122	0x3e487f56	0.19579825
123	0xbdff67f4	-0.12470999
124	0xbdf3e358	-0.11908597
125	0xbdc108de	-0.094255194
126	0x3dbc68b8	0.09199661
127	0xbe3908ad	-0.18069716
128	0x3df222f6	0.118230745
129	0x3d19c3a9	0.03754011
130	0x3db32047	0.08746391
131	0xbce7d8e0	-0.028301656
132	0x3da622e8	0.081121266
133	0x3e3da5e9	0.18520321
134	0x3dbd602b	0.09246858
135	0xbc21facd	-0.009886456
136	0xbeb0c735	-0.34526983
137	0x3da29663	0.0793884
138	0xbc3fc9c3	-0.011705819
139	0x3ddd70b6	0.108125135
140	0xbdd9e5c7	-0.1063953
141	0x3e48cced	0.19609423
142	0xbd8d1835	-0.06889383
143	0x3da259b2	0.07927264
144	0x3e63c24c	0.22242087
145	0x3d3523a6	0.04422345
146	0x3e02f762	0.12789682
147	0xbe1cf2b8	-0.15326965
148	0x3ce628b9	0.02809559
149	0x3dea0c0a	0.114280775
150	0x3deb0d31	0.114771254
151	0x3d78636e	0.0606417
152	0x3e3ded35	0.18547519
153	0x3e3ef47e	0.18647954
154	0xbb9296e0	-0.004473552
155	0x3e6064be	0.2191343
156	0xbdba323f	-0.09091615
157	0x3e2579ea	0.16159788
158	0xbe0b0a8c	-0.13578242
159	0x3d0cfd62	0.034421332
160	0xbd5aa530	-0.05338019
161	0xbe4fa920	-0.2027936
162	0xbe29e26a	-0.16590276
163	0x3c88c875	0.016697148
164	0xbe13384c	-0.14376944
165	0xbdadd350	-0.0848757
166	0xbe5b8649	-0.21437944
167	0x3e94ec14	0.29086363
168	0xbd024057	-0.03179964
169	0xbe7618a6	-0.2403284
170	0x3df408af	0.11915719
171	0xbd3a094f	-0.045419034
172	0xbde04e13	-0.109523915
173	0xbe07628c	-0.13221186
174	0x3d5b6281	0.053560738
175	0xbd32eb9f	-0.043681737
176	0xbd948227	-0.07251387
177	0xbe317a00	-0.17331696
178	0xbdb64d4c	-0.08901462
179	0x3ccd342d	0.025049293
180	0xbe0b91af	-0.13629793
181	0xbdd1534c	-0.10220966
182	0xbe2b1a50	-0.16709256
183	0x3e423183	0.189642
184	0xbd1f9a90	-0.03896576
185	0xbe7db270	-0.247751
186	0x3e2d0583	0.16896634
187	0xbe2b35a3	-0.1671968
188	0xbda8db19	-0.082449146
189	0xbe3ed9a4	-0.18637711
190	0x3cffe543	0.03123725
191	0xbe0c3b75	-0.13694556
192	0x3dae2cb7	0.085046224
193	0x3d317e0f	0.04333311
194	0x3e2a8037	0.16650473
195	0xbe07d309	-0.13264097
196	0x3d5d3763	0.0540079
197	0x3e0738a2	0.13205197
198	0x3e3f6468	0.18690646
199	0x3c771228	0.015080012
200	0xbe1c52f7	-0.15266024
201	0x3e075d0b	0.13219087
202	0xbc27a4be	-0.010232149
203	0x3e21ec2f	0.15812753
204	0xbdbd97dc	-0.092574805
205	0x3e53c950	0.20682263
206	0xbe169ff5	-0.14709456
207	0x3d979a35	0.074024595
208	0x3e845960	0.25849438
209	0x3d491006	0.049087547
210	0x3df137e6	0.1177824
211	0xbc34e354	-0.011040527
212	0x3dcdfe82	0.10058309
213	0x3e4ee436	0.20204243
214	0x3e056513	0.13026838
215	0x3cc88fe7	0.02448268
216	0xbe40014e	-0.18750498
217	0x3db8090a	0.08986099
218	0x3bd9e08e	0.0066490835
219	0x3e7d22be	0.24720284
220	0xbdd91750	-0.1060015
221	0x3e2c2bb2	0.16813543
222	0xbdb2fa2c	-0.08739123
223	0x3e17acc2	0.14811996
224	0x3e19bb3d	0.15012832
225	0x3d7304f1	0.059330884
226	0x3e21521f	0.15753983
227	0xbdff4970	-0.12465179
228	0x3d69c69f	0.057074185
229	0x3df425ea	0.11921294
230	0x3e07cbd9	0.13261355
231	0x3bd0c1b5	0.006370748
232	0xbda9072c	-0.08253321
233	0x3de165e1	0.1100576
234	0xbcc2c857	-0.02377717
235	0x3e822309	0.25417355
236	0xbe3c793f	-0.18405627
237	0x3e844ebf	0.25841329
238	0xbe1fce97	-0.15606152
239	0x3cb812cf	0.022469906
240	0x3e623654	0.22091037
241	0x3db18896	0.0866863
242	0x3e89ade9	0.26890495
243	0xbea039ad	-0.31294003
244	0x3d986696	0.07441442
245	0xbc074457	-0.00825604
246	0x3e09143b	0.13386624
247	0x3dc43849	0.09581048
248	0x3e893d6a	0.26804668
249	0x3e49dd4d	0.19713326
250	0xbdcbccb1	-0.09951151
251	0x3e022dbc	0.12712759
252	0x3cf21e71	0.029555531
253	0x3e040c35	0.12895282
254	0xbe3b7d38	-0.18309486
255	0xbd5b9dc4	-0.053617254

model.fe.2.weight f4 [16]
0	0x3fb93a90	1.4470997
1	0x3fa077e3	1.2536587
2	0x3fb113cf	1.383417
3	0x3fcfcf46	1.623513
4	0x3fbb3daf	1.4628199
5	0x3faeda77	1.366042
6	0x3fbf52af	1.4947108
7	0x3fbe0f51	1.4848424
8	0x3fcb8952	1.5901282
9	0x3fb9a5f3	1.4503769
10	0x3fbbafb3	1.4662994
11	0x3fc3a545	1.5284811
12	0x3fbfe16f	1.4990672
13	0x3fb125c4	1.383965
14	0x3fbd45ab	1.4786886
15	0x3fb6e447	1.4288415

model.fe.2.bias f4 [16]
0	0xbdbaf910	-0.09129536
1	0xbd57cc95	-0.05268534
2	0xbd7024e9	-0.05862895
3	0xbd85dafd	-0.06535909
4	0xbcdfcadb	-0.027318409
5	0xbd97f976	-0.07420628
6	0xbce8b161	-0.028404893
7	0xbd775322	-0.060382016
8	0xbcb5ff93	-0.022216594
9	0x3bcbca40	0.0062191784
10	0xbdb6bbcf	-0.089225404
11	0xbdae8650	-0.08521712
12	0xbc300de6	-0.010745501
13	0xbd50cb5e	-0.050975196
14	0xbc46e095	-0.0121385055
15	0x3b184a4c	0.0023237644

model.fe.2.running_mean f4 [16]
0	0xbbffcccb	-0.0078063956
1	0x3d1b59f1	0.03792757
2	0xbce96fa2	-0.028495613
3	0xbcbc491f	-0.022984086
4	0x3d5e1b82	0.054225452
5	0x3c71ecfe	0.014765976
6	0x3d667c68	0.056270987
7	0xbb30d46a	-0.0026982077
8	0x3c757272	0.014980899
9	0x3dbbcec6	0.09170298
10	0xbb97f703	-0.0046376004
11	0x3b49801f	0.0030746532
12	0x3d83cf0d	0.06435976
13	0x3dc1f652	0.0947081
14	0x3d8ff859	0.070297904
15	0x3db98306	0.09058194

model.fe.2.running_var f4 [16]
0	0x3dad7938	0.08470386
1	0x3d9c07d0	0.076186776
2	0x3d9526a0	0.07282758
3	0x3df0e6fb	0.11762806
4	0x3d6728c3	0.056435358
5	0x3dce0f4a	0.1006151
6	0x3d71ab7c	0.05900143
7	0x3dd13ee8	0.102170765
8	0x3dbff39b	0.09372636
9	0x3da45265	0.08023528
10	0x3dbac2ee	0.09119211
11	0x3dab379c	0.08360216
12	0x3d8d5b2e	0.06902157
13	0x3dbef7ab	0.09324583
14	0x3d96d34f	0.07364523
15	0x3dda3013	0.10653701

model.classifier.0.weight f4 [1, 16]
0	0x3f2bf760	0.6717434
1	0x3ea6eabe	0.3260097
2	0x3f0ff01f	0.5622577
3	0x3f0b0c62	0.5431577
4	0xbf1c7cad	-0.6112774
5	0x3ecc13bc	0.39858806
6	0xbee0e9dc	-0.4392842
7	0x3f157d59	0.5839439
8	0xbf10d5d4	-0.56576276
9	0xbf06c892	-0.52649796
10	0x3f350c63	0.70722026
11	0x3f192e6c	0.5983646
12	0xbf0f7a85	-0.56046325
13	0xbea795ab	-0.32731375
14	0xbeecd5b9	-0.46256807
15	0xbec172af	-0.3778281
